…
snapshot_prefix: "/SegNet_copy/Models/Training/segnet_"
solver_mode: CPU
net: "/SegNet_copy/Models/segnet_train.prototxt"
test_initialization: false
I0325 23:27:08.873473  2776 solver.cpp:70] Creating training net from net file: /SegNet_copy/Models/segnet_train.prototxt
I0325 23:27:08.875021  2776 net.cpp:42] Initializing net from parameters: 
name: "VGG_ILSVRC_16_layer"
state {
  phase: TRAIN
}
layer {
  name: "data"
  type: "DenseImageData"
  top: "data"
  top: "label"
  dense_image_data_param {
    source: "/SegNet_copy/AnhLua/train.txt"
    batch_size: 4
    shuffle: true
  }
}
layer {
  name: "conv1_1"
  type: "Convolution"
  bottom: "data"
  top: "conv1_1"
  param {
    lr_mult: 1
    decay_mult: 1
  }
  param {
    lr_mult: 2
    decay_mult: 0
  }
  convolution_param {
    num_output: 64
    pad: 1
    kernel_size: 3
    weight_filler {
      type: "msra"
    }
    bias_filler {
      type: "constant"
    }
  }
}
layer {
  name: "conv1_1_bn"
  type: "BN"
  bottom: "conv1_1"
  top: "conv1_1"
  param {
    lr_mult: 1
    decay_mult: 1
  }
  param {
    lr_mult: 1
    decay_mult: 0
  }
  bn_param {
    scale_filler {
      type: "constant"
      value: 1
    }
    shift_filler {
      type: "constant"
      value: 0.001
    }
  }
}
layer {
  name: "relu1_1"
  type: "ReLU"
  bottom: "conv1_1"
  top: "conv1_1"
}
layer {
  name: "conv1_2"
  type: "Convolution"
  bottom: "conv1_1"
  top: "conv1_2"
  param {
    lr_mult: 1
    decay_mult: 1
  }
  param {
    lr_mult: 2
    decay_mult: 0
  }
  convolution_param {
    num_output: 64
    pad: 1
    kernel_size: 3
    weight_filler {
      type: "msra"
    }
    bias_filler {
      type: "constant"
    }
  }
}
layer {
  name: "conv1_2_bn"
  type: "BN"
  bottom: "conv1_2"
  top: "conv1_2"
  param {
    lr_mult: 1
    decay_mult: 1
  }
  param {
    lr_mult: 1
    decay_mult: 0
  }
  bn_param {
    scale_filler {
      type: "constant"
      value: 1
    }
    shift_filler {
      type: "constant"
      value: 0.001
    }
  }
}
layer {
  name: "relu1_2"
  type: "ReLU"
  bottom: "conv1_2"
  top: "conv1_2"
}
layer {
  name: "pool1"
  type: "Pooling"
  bottom: "conv1_2"
  top: "pool1"
  top: "pool1_mask"
  pooling_param {
    pool: MAX
    kernel_size: 2
    stride: 2
  }
}
layer {
  name: "conv2_1"
  type: "Convolution"
  bottom: "pool1"
  top: "conv2_1"
  param {
    lr_mult: 1
    decay_mult: 1
  }
  param {
    lr_mult: 2
    decay_mult: 0
  }
  convolution_param {
    num_output: 128
    pad: 1
    kernel_size: 3
    weight_filler {
      type: "msra"
    }
    bias_filler {
      type: "constant"
    }
  }
}
layer {
  name: "conv2_1_bn"
  type: "BN"
  bottom: "conv2_1"
  top: "conv2_1"
  param {
    lr_mult: 1
    decay_mult: 1
  }
  param {
    lr_mult: 1
    decay_mult: 0
  }
  bn_param {
    scale_filler {
      type: "constant"
      value: 1
    }
    shift_filler {
      type: "constant"
      value: 0.001
    }
  }
}
layer {
  name: "relu2_1"
  type: "ReLU"
  bottom: "conv2_1"
  top: "conv2_1"
}
layer {
  name: "conv2_2"
  type: "Convolution"
  bottom: "conv2_1"
  top: "conv2_2"
  param {
    lr_mult: 1
    decay_mult: 1
  }
  param {
    lr_mult: 2
    decay_mult: 0
  }
  convolution_param {
    num_output: 128
    pad: 1
    kernel_size: 3
    weight_filler {
      type: "msra"
    }
    bias_filler {
      type: "constant"
    }
  }
}
layer {
  name: "conv2_2_bn"
  type: "BN"
  bottom: "conv2_2"
  top: "conv2_2"
  param {
    lr_mult: 1
    decay_mult: 1
  }
  param {
    lr_mult: 1
    decay_mult: 0
  }
  bn_param {
    scale_filler {
      type: "constant"
      value: 1
    }
    shift_filler {
      type: "constant"
      value: 0.001
    }
  }
}
layer {
  name: "relu2_2"
  type: "ReLU"
  bottom: "conv2_2"
  top: "conv2_2"
}
layer {
  name: "pool2"
  type: "Pooling"
  bottom: "conv2_2"
  top: "pool2"
  top: "pool2_mask"
  pooling_param {
    pool: MAX
    kernel_size: 2
    stride: 2
  }
}
layer {
  name: "conv3_1"
  type: "Convolution"
  bottom: "pool2"
  top: "conv3_1"
  param {
    lr_mult: 1
    decay_mult: 1
  }
  param {
    lr_mult: 2
    decay_mult: 0
  }
  convolution_param {
    num_output: 256
    pad: 1
    kernel_size: 3
    weight_filler {
      type: "msra"
    }
    bias_filler {
      type: "constant"
    }
  }
}
layer {
  name: "conv3_1_bn"
  type: "BN"
  bottom: "conv3_1"
  top: "conv3_1"
  param {
    lr_mult: 1
    decay_mult: 1
  }
  param {
    lr_mult: 1
    decay_mult: 0
  }
  bn_param {
    scale_filler {
      type: "constant"
      value: 1
    }
    shift_filler {
      type: "constant"
      value: 0.001
    }
  }
}
layer {
  name: "relu3_1"
  type: "ReLU"
  bottom: "conv3_1"
  top: "conv3_1"
}
layer {
  name: "conv3_2"
  type: "Convolution"
  bottom: "conv3_1"
  top: "conv3_2"
  param {
    lr_mult: 1
    decay_mult: 1
  }
  param {
    lr_mult: 2
    decay_mult: 0
  }
  convolution_param {
    num_output: 256
    pad: 1
    kernel_size: 3
    weight_filler {
      type: "msra"
    }
    bias_filler {
      type: "constant"
    }
  }
}
layer {
  name: "conv3_2_bn"
  type: "BN"
  bottom: "conv3_2"
  top: "conv3_2"
  param {
    lr_mult: 1
    decay_mult: 1
  }
  param {
    lr_mult: 1
    decay_mult: 0
  }
  bn_param {
    scale_filler {
      type: "constant"
      value: 1
    }
    shift_filler {
      type: "constant"
      value: 0.001
    }
  }
}
layer {
  name: "relu3_2"
  type: "ReLU"
  bottom: "conv3_2"
  top: "conv3_2"
}
layer {
  name: "conv3_3"
  type: "Convolution"
  bottom: "conv3_2"
  top: "conv3_3"
  param {
    lr_mult: 1
    decay_mult: 1
  }
  param {
    lr_mult: 2
    decay_mult: 0
  }
  convolution_param {
    num_output: 256
    pad: 1
    kernel_size: 3
    weight_filler {
      type: "msra"
    }
    bias_filler {
      type: "constant"
    }
  }
}
layer {
  name: "conv3_3_bn"
  type: "BN"
  bottom: "conv3_3"
  top: "conv3_3"
  param {
    lr_mult: 1
    decay_mult: 1
  }
  param {
    lr_mult: 1
    decay_mult: 0
  }
  bn_param {
    scale_filler {
      type: "constant"
      value: 1
    }
    shift_filler {
      type: "constant"
      value: 0.001
    }
  }
}
layer {
  name: "relu3_3"
  type: "ReLU"
  bottom: "conv3_3"
  top: "conv3_3"
}
layer {
  name: "pool3"
  type: "Pooling"
  bottom: "conv3_3"
  top: "pool3"
  top: "pool3_mask"
  pooling_param {
    pool: MAX
    kernel_size: 2
    stride: 2
  }
}
layer {
  name: "conv4_1"
  type: "Convolution"
  bottom: "pool3"
  top: "conv4_1"
  param {
    lr_mult: 1
    decay_mult: 1
  }
  param {
    lr_mult: 2
    decay_mult: 0
  }
  convolution_param {
    num_output: 512
    pad: 1
    kernel_size: 3
    weight_filler {
      type: "msra"
    }
    bias_filler {
      type: "constant"
    }
  }
}
layer {
  name: "conv4_1_bn"
  type: "BN"
  bottom: "conv4_1"
  top: "conv4_1"
  param {
    lr_mult: 1
    decay_mult: 1
  }
  param {
    lr_mult: 1
    decay_mult: 0
  }
  bn_param {
    scale_filler {
      type: "constant"
      value: 1
    }
    shift_filler {
      type: "constant"
      value: 0.001
    }
  }
}
layer {
  name: "relu4_1"
  type: "ReLU"
  bottom: "conv4_1"
  top: "conv4_1"
}
layer {
  name: "conv4_2"
  type: "Convolution"
  bottom: "conv4_1"
  top: "conv4_2"
  param {
    lr_mult: 1
    decay_mult: 1
  }
  param {
    lr_mult: 2
    decay_mult: 0
  }
  convolution_param {
    num_output: 512
    pad: 1
    kernel_size: 3
    weight_filler {
      type: "msra"
    }
    bias_filler {
      type: "constant"
    }
  }
}
layer {
  name: "conv4_2_bn"
  type: "BN"
  bottom: "conv4_2"
  top: "conv4_2"
  param {
    lr_mult: 1
    decay_mult: 1
  }
  param {
    lr_mult: 1
    decay_mult: 0
  }
  bn_param {
    scale_filler {
      type: "constant"
      value: 1
    }
    shift_filler {
      type: "constant"
      value: 0.001
    }
  }
}
layer {
  name: "relu4_2"
  type: "ReLU"
  bottom: "conv4_2"
  top: "conv4_2"
}
layer {
  name: "conv4_3"
  type: "Convolution"
  bottom: "conv4_2"
  top: "conv4_3"
  param {
    lr_mult: 1
    decay_mult: 1
  }
  param {
    lr_mult: 2
    decay_mult: 0
  }
  convolution_param {
    num_output: 512
    pad: 1
    kernel_size: 3
    weight_filler {
      type: "msra"
    }
    bias_filler {
      type: "constant"
    }
  }
}
layer {
  name: "conv4_3_bn"
  type: "BN"
  bottom: "conv4_3"
  top: "conv4_3"
  param {
    lr_mult: 1
    decay_mult: 1
  }
  param {
    lr_mult: 1
    decay_mult: 0
  }
  bn_param {
    scale_filler {
      type: "constant"
      value: 1
    }
    shift_filler {
      type: "constant"
      value: 0.001
    }
  }
}
layer {
  name: "relu4_3"
  type: "ReLU"
  bottom: "conv4_3"
  top: "conv4_3"
}
layer {
  name: "pool4"
  type: "Pooling"
  bottom: "conv4_3"
  top: "pool4"
  top: "pool4_mask"
  pooling_param {
    pool: MAX
    kernel_size: 2
    stride: 2
  }
}
layer {
  name: "conv5_1"
  type: "Convolution"
  bottom: "pool4"
  top: "conv5_1"
  param {
    lr_mult: 1
    decay_mult: 1
  }
  param {
    lr_mult: 2
    decay_mult: 0
  }
  convolution_param {
    num_output: 512
    pad: 1
    kernel_size: 3
    weight_filler {
      type: "msra"
    }
    bias_filler {
      type: "constant"
    }
  }
}
layer {
  name: "conv5_1_bn"
  type: "BN"
  bottom: "conv5_1"
  top: "conv5_1"
  param {
    lr_mult: 1
    decay_mult: 1
  }
  param {
    lr_mult: 1
    decay_mult: 0
  }
  bn_param {
    scale_filler {
      type: "constant"
      value: 1
    }
    shift_filler {
      type: "constant"
      value: 0.001
    }
  }
}
layer {
  name: "relu5_1"
  type: "ReLU"
  bottom: "conv5_1"
  top: "conv5_1"
}
layer {
  name: "conv5_2"
  type: "Convolution"
  bottom: "conv5_1"
  top: "conv5_2"
  param {
    lr_mult: 1
    decay_mult: 1
  }
  param {
    lr_mult: 2
    decay_mult: 0
  }
  convolution_param {
    num_output: 512
    pad: 1
    kernel_size: 3
    weight_filler {
      type: "msra"
    }
    bias_filler {
      type: "constant"
    }
  }
}
layer {
  name: "conv5_2_bn"
  type: "BN"
  bottom: "conv5_2"
  top: "conv5_2"
  param {
    lr_mult: 1
    decay_mult: 1
  }
  param {
    lr_mult: 1
    decay_mult: 0
  }
  bn_param {
    scale_filler {
      type: "constant"
      value: 1
    }
    shift_filler {
      type: "constant"
      value: 0.001
    }
  }
}
layer {
  name: "relu5_2"
  type: "ReLU"
  bottom: "conv5_2"
  top: "conv5_2"
}
layer {
  name: "conv5_3"
  type: "Convolution"
  bottom: "conv5_2"
  top: "conv5_3"
  param {
    lr_mult: 1
    decay_mult: 1
  }
  param {
    lr_mult: 2
    decay_mult: 0
  }
  convolution_param {
    num_output: 512
    pad: 1
    kernel_size: 3
    weight_filler {
      type: "msra"
    }
    bias_filler {
      type: "constant"
    }
  }
}
layer {
  name: "conv5_3_bn"
  type: "BN"
  bottom: "conv5_3"
  top: "conv5_3"
  param {
    lr_mult: 1
    decay_mult: 1
  }
  param {
    lr_mult: 1
    decay_mult: 0
  }
  bn_param {
    scale_filler {
      type: "constant"
      value: 1
    }
    shift_filler {
      type: "constant"
      value: 0.001
    }
  }
}
layer {
  name: "relu5_3"
  type: "ReLU"
  bottom: "conv5_3"
  top: "conv5_3"
}
layer {
  name: "pool5"
  type: "Pooling"
  bottom: "conv5_3"
  top: "pool5"
  top: "pool5_mask"
  pooling_param {
    pool: MAX
    kernel_size: 2
    stride: 2
  }
}
layer {
  name: "upsample5"
  type: "Upsample"
  bottom: "pool5"
  bottom: "pool5_mask"
  top: "pool5_D"
  upsample_param {
    scale: 2
    upsample_h: 23
    upsample_w: 30
  }
}
layer {
  name: "conv5_3_D"
  type: "Convolution"
  bottom: "pool5_D"
  top: "conv5_3_D"
  param {
    lr_mult: 1
    decay_mult: 1
  }
  param {
    lr_mult: 2
    decay_mult: 0
  }
  convolution_param {
    num_output: 512
    pad: 1
    kernel_size: 3
    weight_filler {
      type: "msra"
    }
    bias_filler {
      type: "constant"
    }
  }
}
layer {
  name: "conv5_3_D_bn"
  type: "BN"
  bottom: "conv5_3_D"
  top: "conv5_3_D"
  param {
    lr_mult: 1
    decay_mult: 1
  }
  param {
    lr_mult: 1
    decay_mult: 0
  }
  bn_param {
    scale_filler {
      type: "constant"
      value: 1
    }
    shift_filler {
      type: "constant"
      value: 0.001
    }
  }
}
layer {
  name: "relu5_3_D"
  type: "ReLU"
  bottom: "conv5_3_D"
  top: "conv5_3_D"
}
layer {
  name: "conv5_2_D"
  type: "Convolution"
  bottom: "conv5_3_D"
  top: "conv5_2_D"
  param {
    lr_mult: 1
    decay_mult: 1
  }
  param {
    lr_mult: 2
    decay_mult: 0
  }
  convolution_param {
    num_output: 512
    pad: 1
    kernel_size: 3
    weight_filler {
      type: "msra"
    }
    bias_filler {
      type: "constant"
    }
  }
}
layer {
  name: "conv5_2_D_bn"
  type: "BN"
  bottom: "conv5_2_D"
  top: "conv5_2_D"
  param {
    lr_mult: 1
    decay_mult: 1
  }
  param {
    lr_mult: 1
    decay_mult: 0
  }
  bn_param {
    scale_filler {
      type: "constant"
      value: 1
    }
    shift_filler {
      type: "constant"
      value: 0.001
    }
  }
}
layer {
  name: "relu5_2_D"
  type: "ReLU"
  bottom: "conv5_2_D"
  top: "conv5_2_D"
}
layer {
  name: "conv5_1_D"
  type: "Convolution"
  bottom: "conv5_2_D"
  top: "conv5_1_D"
  param {
    lr_mult: 1
    decay_mult: 1
  }
  param {
    lr_mult: 2
    decay_mult: 0
  }
  convolution_param {
    num_output: 512
    pad: 1
    kernel_size: 3
    weight_filler {
      type: "msra"
    }
    bias_filler {
      type: "constant"
    }
  }
}
layer {
  name: "conv5_1_D_bn"
  type: "BN"
  bottom: "conv5_1_D"
  top: "conv5_1_D"
  param {
    lr_mult: 1
    decay_mult: 1
  }
  param {
    lr_mult: 1
    decay_mult: 0
  }
  bn_param {
    scale_filler {
      type: "constant"
      value: 1
    }
    shift_filler {
      type: "constant"
      value: 0.001
    }
  }
}
layer {
  name: "relu5_1_D"
  type: "ReLU"
  bottom: "conv5_1_D"
  top: "conv5_1_D"
}
layer {
  name: "upsample4"
  type: "Upsample"
  bottom: "conv5_1_D"
  bottom: "pool4_mask"
  top: "pool4_D"
  upsample_param {
    scale: 2
    upsample_h: 45
    upsample_w: 60
  }
}
layer {
  name: "conv4_3_D"
  type: "Convolution"
  bottom: "pool4_D"
  top: "conv4_3_D"
  param {
    lr_mult: 1
    decay_mult: 1
  }
  param {
    lr_mult: 2
    decay_mult: 0
  }
  convolution_param {
    num_output: 512
    pad: 1
    kernel_size: 3
    weight_filler {
      type: "msra"
    }
    bias_filler {
      type: "constant"
    }
  }
}
layer {
  name: "conv4_3_D_bn"
  type: "BN"
  bottom: "conv4_3_D"
  top: "conv4_3_D"
  param {
    lr_mult: 1
    decay_mult: 1
  }
  param {
    lr_mult: 1
    decay_mult: 0
  }
  bn_param {
    scale_filler {
      type: "constant"
      value: 1
    }
    shift_filler {
      type: "constant"
      value: 0.001
    }
  }
}
layer {
  name: "relu4_3_D"
  type: "ReLU"
  bottom: "conv4_3_D"
  top: "conv4_3_D"
}
layer {
  name: "conv4_2_D"
  type: "Convolution"
  bottom: "conv4_3_D"
  top: "conv4_2_D"
  param {
    lr_mult: 1
    decay_mult: 1
  }
  param {
    lr_mult: 2
    decay_mult: 0
  }
  convolution_param {
    num_output: 512
    pad: 1
    kernel_size: 3
    weight_filler {
      type: "msra"
    }
    bias_filler {
      type: "constant"
    }
  }
}
layer {
  name: "conv4_2_D_bn"
  type: "BN"
  bottom: "conv4_2_D"
  top: "conv4_2_D"
  param {
    lr_mult: 1
    decay_mult: 1
  }
  param {
    lr_mult: 1
    decay_mult: 0
  }
  bn_param {
    scale_filler {
      type: "constant"
      value: 1
    }
    shift_filler {
      type: "constant"
      value: 0.001
    }
  }
}
layer {
  name: "relu4_2_D"
  type: "ReLU"
  bottom: "conv4_2_D"
  top: "conv4_2_D"
}
layer {
  name: "conv4_1_D"
  type: "Convolution"
  bottom: "conv4_2_D"
  top: "conv4_1_D"
  param {
    lr_mult: 1
    decay_mult: 1
  }
  param {
    lr_mult: 2
    decay_mult: 0
  }
  convolution_param {
    num_output: 256
    pad: 1
    kernel_size: 3
    weight_filler {
      type: "msra"
    }
    bias_filler {
      type: "constant"
    }
  }
}
layer {
  name: "conv4_1_D_bn"
  type: "BN"
  bottom: "conv4_1_D"
  top: "conv4_1_D"
  param {
    lr_mult: 1
    decay_mult: 1
  }
  param {
    lr_mult: 1
    decay_mult: 0
  }
  bn_param {
    scale_filler {
      type: "constant"
      value: 1
    }
    shift_filler {
      type: "constant"
      value: 0.001
    }
  }
}
layer {
  name: "relu4_1_D"
  type: "ReLU"
  bottom: "conv4_1_D"
  top: "conv4_1_D"
}
layer {
  name: "upsample3"
  type: "Upsample"
  bottom: "conv4_1_D"
  bottom: "pool3_mask"
  top: "pool3_D"
  upsample_param {
    scale: 2
  }
}
layer {
  name: "conv3_3_D"
  type: "Convolution"
  bottom: "pool3_D"
  top: "conv3_3_D"
  param {
    lr_mult: 1
    decay_mult: 1
  }
  param {
    lr_mult: 2
    decay_mult: 0
  }
  convolution_param {
    num_output: 256
    pad: 1
    kernel_size: 3
    weight_filler {
      type: "msra"
    }
    bias_filler {
      type: "constant"
    }
  }
}
layer {
  name: "conv3_3_D_bn"
  type: "BN"
  bottom: "conv3_3_D"
  top: "conv3_3_D"
  param {
    lr_mult: 1
    decay_mult: 1
  }
  param {
    lr_mult: 1
    decay_mult: 0
  }
  bn_param {
    scale_filler {
      type: "constant"
      value: 1
    }
    shift_filler {
      type: "constant"
      value: 0.001
    }
  }
}
layer {
  name: "relu3_3_D"
  type: "ReLU"
  bottom: "conv3_3_D"
  top: "conv3_3_D"
}
layer {
  name: "conv3_2_D"
  type: "Convolution"
  bottom: "conv3_3_D"
  top: "conv3_2_D"
  param {
    lr_mult: 1
    decay_mult: 1
  }
  param {
    lr_mult: 2
    decay_mult: 0
  }
  convolution_param {
    num_output: 256
    pad: 1
    kernel_size: 3
    weight_filler {
      type: "msra"
    }
    bias_filler {
      type: "constant"
    }
  }
}
layer {
  name: "conv3_2_D_bn"
  type: "BN"
  bottom: "conv3_2_D"
  top: "conv3_2_D"
  param {
    lr_mult: 1
    decay_mult: 1
  }
  param {
    lr_mult: 1
    decay_mult: 0
  }
  bn_param {
    scale_filler {
      type: "constant"
      value: 1
    }
    shift_filler {
      type: "constant"
      value: 0.001
    }
  }
}
layer {
  name: "relu3_2_D"
  type: "ReLU"
  bottom: "conv3_2_D"
  top: "conv3_2_D"
}
layer {
  name: "conv3_1_D"
  type: "Convolution"
  bottom: "conv3_2_D"
  top: "conv3_1_D"
  param {
    lr_mult: 1
    decay_mult: 1
  }
  param {
    lr_mult: 2
    decay_mult: 0
  }
  convolution_param {
    num_output: 128
    pad: 1
    kernel_size: 3
    weight_filler {
      type: "msra"
    }
    bias_filler {
      type: "constant"
    }
  }
}
layer {
  name: "conv3_1_D_bn"
  type: "BN"
  bottom: "conv3_1_D"
  top: "conv3_1_D"
  param {
    lr_mult: 1
    decay_mult: 1
  }
  param {
    lr_mult: 1
    decay_mult: 0
  }
  bn_param {
    scale_filler {
      type: "constant"
      value: 1
    }
    shift_filler {
      type: "constant"
      value: 0.001
    }
  }
}
layer {
  name: "relu3_1_D"
  type: "ReLU"
  bottom: "conv3_1_D"
  top: "conv3_1_D"
}
layer {
  name: "upsample2"
  type: "Upsample"
  bottom: "conv3_1_D"
  bottom: "pool2_mask"
  top: "pool2_D"
  upsample_param {
    scale: 2
  }
}
layer {
  name: "conv2_2_D"
  type: "Convolution"
  bottom: "pool2_D"
  top: "conv2_2_D"
  param {
    lr_mult: 1
    decay_mult: 1
  }
  param {
    lr_mult: 2
    decay_mult: 0
  }
  convolution_param {
    num_output: 128
    pad: 1
    kernel_size: 3
    weight_filler {
      type: "msra"
    }
    bias_filler {
      type: "constant"
    }
  }
}
layer {
  name: "conv2_2_D_bn"
  type: "BN"
  bottom: "conv2_2_D"
  top: "conv2_2_D"
  param {
    lr_mult: 1
    decay_mult: 1
  }
  param {
    lr_mult: 1
    decay_mult: 0
  }
  bn_param {
    scale_filler {
      type: "constant"
      value: 1
    }
    shift_filler {
      type: "constant"
      value: 0.001
    }
  }
}
layer {
  name: "relu2_2_D"
  type: "ReLU"
  bottom: "conv2_2_D"
  top: "conv2_2_D"
}
layer {
  name: "conv2_1_D"
  type: "Convolution"
  bottom: "conv2_2_D"
  top: "conv2_1_D"
  param {
    lr_mult: 1
    decay_mult: 1
  }
  param {
    lr_mult: 2
    decay_mult: 0
  }
  convolution_param {
    num_output: 64
    pad: 1
    kernel_size: 3
    weight_filler {
      type: "msra"
    }
    bias_filler {
      type: "constant"
    }
  }
}
layer {
  name: "conv2_1_D_bn"
  type: "BN"
  bottom: "conv2_1_D"
  top: "conv2_1_D"
  param {
    lr_mult: 1
    decay_mult: 1
  }
  param {
    lr_mult: 1
    decay_mult: 0
  }
  bn_param {
    scale_filler {
      type: "constant"
      value: 1
    }
    shift_filler {
      type: "constant"
      value: 0.001
    }
  }
}
layer {
  name: "relu2_1_D"
  type: "ReLU"
  bottom: "conv2_1_D"
  top: "conv2_1_D"
}
layer {
  name: "upsample1"
  type: "Upsample"
  bottom: "conv2_1_D"
  bottom: "pool1_mask"
  top: "pool1_D"
  upsample_param {
    scale: 2
  }
}
layer {
  name: "conv1_2_D"
  type: "Convolution"
  bottom: "pool1_D"
  top: "conv1_2_D"
  param {
    lr_mult: 1
    decay_mult: 1
  }
  param {
    lr_mult: 2
    decay_mult: 0
  }
  convolution_param {
    num_output: 64
    pad: 1
    kernel_size: 3
    weight_filler {
      type: "msra"
    }
    bias_filler {
      type: "constant"
    }
  }
}
layer {
  name: "conv1_2_D_bn"
  type: "BN"
  bottom: "conv1_2_D"
  top: "conv1_2_D"
  param {
    lr_mult: 1
    decay_mult: 1
  }
  param {
    lr_mult: 1
    decay_mult: 0
  }
  bn_param {
    scale_filler {
      type: "constant"
      value: 1
    }
    shift_filler {
      type: "constant"
      value: 0.001
    }
  }
}
layer {
  name: "relu1_2_D"
  type: "ReLU"
  bottom: "conv1_2_D"
  top: "conv1_2_D"
}
layer {
  name: "conv1_1_D"
  type: "Convolution"
  bottom: "conv1_2_D"
  top: "conv1_1_D"
  param {
    lr_mult: 1
    decay_mult: 1
  }
  param {
    lr_mult: 2
    decay_mult: 0
  }
  convolution_param {
    num_output: 4
    pad: 1
    kernel_size: 3
    weight_filler {
      type: "msra"
    }
    bias_filler {
      type: "constant"
    }
  }
}
layer {
  name: "loss"
  type: "SoftmaxWithLoss"
  bottom: "conv1_1_D"
  bottom: "label"
  top: "loss"
  loss_param {
    ignore_label: 11
    weight_by_label_freqs: true
    class_weighting: 0.2595
    class_weighting: 0.1826
    class_weighting: 4.564
    class_weighting: 7.1417
  }
  softmax_param {
    engine: CAFFE
  }
}
layer {
  name: "accuracy"
  type: "Accuracy"
  bottom: "conv1_1_D"
  bottom: "label"
  top: "accuracy"
  top: "per_class_accuracy"
}
I0325 23:27:08.875389  2776 layer_factory.hpp:74] Creating layer data
I0325 23:27:08.875417  2776 net.cpp:90] Creating Layer data
I0325 23:27:08.875432  2776 net.cpp:368] data -> data
I0325 23:27:08.875458  2776 net.cpp:368] data -> label
I0325 23:27:08.875473  2776 net.cpp:120] Setting up data
I0325 23:27:08.875484  2776 dense_image_data_layer.cpp:41] Opening file /SegNet_copy/AnhLua/train.txt
I0325 23:27:08.875653  2776 dense_image_data_layer.cpp:51] Shuffling data
I0325 23:27:08.875936  2776 dense_image_data_layer.cpp:56] A total of 103 examples.
I0325 23:27:08.879508  2776 dense_image_data_layer.cpp:109] output data size: 4,3,360,480
I0325 23:27:08.879664  2776 net.cpp:127] Top shape: 4 3 360 480 (2073600)
I0325 23:27:08.879688  2776 net.cpp:127] Top shape: 4 1 360 480 (691200)
I0325 23:27:08.879698  2776 layer_factory.hpp:74] Creating layer label_data_1_split
I0325 23:27:08.879750  2776 net.cpp:90] Creating Layer label_data_1_split
I0325 23:27:08.879760  2776 net.cpp:410] label_data_1_split <- label
I0325 23:27:08.879775  2776 net.cpp:368] label_data_1_split -> label_data_1_split_0
I0325 23:27:08.879787  2776 net.cpp:368] label_data_1_split -> label_data_1_split_1
I0325 23:27:08.879801  2776 net.cpp:120] Setting up label_data_1_split
I0325 23:27:08.879815  2776 net.cpp:127] Top shape: 4 1 360 480 (691200)
I0325 23:27:08.879823  2776 net.cpp:127] Top shape: 4 1 360 480 (691200)
I0325 23:27:08.879830  2776 layer_factory.hpp:74] Creating layer conv1_1
I0325 23:27:08.879842  2776 net.cpp:90] Creating Layer conv1_1
I0325 23:27:08.879848  2776 net.cpp:410] conv1_1 <- data
I0325 23:27:08.879858  2776 net.cpp:368] conv1_1 -> conv1_1
I0325 23:27:08.879871  2776 net.cpp:120] Setting up conv1_1
I0325 23:27:08.880223  2776 net.cpp:127] Top shape: 4 64 360 480 (44236800)
I0325 23:27:08.880254  2776 layer_factory.hpp:74] Creating layer conv1_1_bn
I0325 23:27:08.880270  2776 net.cpp:90] Creating Layer conv1_1_bn
I0325 23:27:08.880280  2776 net.cpp:410] conv1_1_bn <- conv1_1
I0325 23:27:08.880291  2776 net.cpp:357] conv1_1_bn -> conv1_1 (in-place)
I0325 23:27:08.880308  2776 net.cpp:120] Setting up conv1_1_bn
I0325 23:27:08.880882  2776 net.cpp:127] Top shape: 4 64 360 480 (44236800)
I0325 23:27:08.880908  2776 layer_factory.hpp:74] Creating layer relu1_1
I0325 23:27:08.880931  2776 net.cpp:90] Creating Layer relu1_1
I0325 23:27:08.880939  2776 net.cpp:410] relu1_1 <- conv1_1
I0325 23:27:08.880949  2776 net.cpp:357] relu1_1 -> conv1_1 (in-place)
I0325 23:27:08.880964  2776 net.cpp:120] Setting up relu1_1
I0325 23:27:08.880975  2776 net.cpp:127] Top shape: 4 64 360 480 (44236800)
I0325 23:27:08.880982  2776 layer_factory.hpp:74] Creating layer conv1_2
I0325 23:27:08.880991  2776 net.cpp:90] Creating Layer conv1_2
I0325 23:27:08.880998  2776 net.cpp:410] conv1_2 <- conv1_1
I0325 23:27:08.881007  2776 net.cpp:368] conv1_2 -> conv1_2
I0325 23:27:08.881016  2776 net.cpp:120] Setting up conv1_2
I0325 23:27:08.881810  2776 net.cpp:127] Top shape: 4 64 360 480 (44236800)
I0325 23:27:08.881836  2776 layer_factory.hpp:74] Creating layer conv1_2_bn
I0325 23:27:08.881850  2776 net.cpp:90] Creating Layer conv1_2_bn
I0325 23:27:08.881856  2776 net.cpp:410] conv1_2_bn <- conv1_2
I0325 23:27:08.881873  2776 net.cpp:357] conv1_2_bn -> conv1_2 (in-place)
I0325 23:27:08.881885  2776 net.cpp:120] Setting up conv1_2_bn
I0325 23:27:08.882426  2776 net.cpp:127] Top shape: 4 64 360 480 (44236800)
I0325 23:27:08.882455  2776 layer_factory.hpp:74] Creating layer relu1_2
I0325 23:27:08.882467  2776 net.cpp:90] Creating Layer relu1_2
I0325 23:27:08.882474  2776 net.cpp:410] relu1_2 <- conv1_2
I0325 23:27:08.882488  2776 net.cpp:357] relu1_2 -> conv1_2 (in-place)
I0325 23:27:08.882499  2776 net.cpp:120] Setting up relu1_2
I0325 23:27:08.882508  2776 net.cpp:127] Top shape: 4 64 360 480 (44236800)
I0325 23:27:08.882514  2776 layer_factory.hpp:74] Creating layer pool1
I0325 23:27:08.882524  2776 net.cpp:90] Creating Layer pool1
I0325 23:27:08.882531  2776 net.cpp:410] pool1 <- conv1_2
I0325 23:27:08.882542  2776 net.cpp:368] pool1 -> pool1
I0325 23:27:08.882560  2776 net.cpp:368] pool1 -> pool1_mask
I0325 23:27:08.882570  2776 net.cpp:120] Setting up pool1
I0325 23:27:08.882586  2776 net.cpp:127] Top shape: 4 64 180 240 (11059200)
I0325 23:27:08.882596  2776 net.cpp:127] Top shape: 4 64 180 240 (11059200)
I0325 23:27:08.882602  2776 layer_factory.hpp:74] Creating layer conv2_1
I0325 23:27:08.882612  2776 net.cpp:90] Creating Layer conv2_1
I0325 23:27:08.882623  2776 net.cpp:410] conv2_1 <- pool1
I0325 23:27:08.882637  2776 net.cpp:368] conv2_1 -> conv2_1
I0325 23:27:08.882650  2776 net.cpp:120] Setting up conv2_1
I0325 23:27:08.883745  2776 net.cpp:127] Top shape: 4 128 180 240 (22118400)
I0325 23:27:08.883774  2776 layer_factory.hpp:74] Creating layer conv2_1_bn
I0325 23:27:08.883790  2776 net.cpp:90] Creating Layer conv2_1_bn
I0325 23:27:08.883796  2776 net.cpp:410] conv2_1_bn <- conv2_1
I0325 23:27:08.883810  2776 net.cpp:357] conv2_1_bn -> conv2_1 (in-place)
I0325 23:27:08.883821  2776 net.cpp:120] Setting up conv2_1_bn
I0325 23:27:08.884318  2776 net.cpp:127] Top shape: 4 128 180 240 (22118400)
I0325 23:27:08.884352  2776 layer_factory.hpp:74] Creating layer relu2_1
I0325 23:27:08.884366  2776 net.cpp:90] Creating Layer relu2_1
I0325 23:27:08.884374  2776 net.cpp:410] relu2_1 <- conv2_1
I0325 23:27:08.884390  2776 net.cpp:357] relu2_1 -> conv2_1 (in-place)
I0325 23:27:08.884404  2776 net.cpp:120] Setting up relu2_1
I0325 23:27:08.884414  2776 net.cpp:127] Top shape: 4 128 180 240 (22118400)
I0325 23:27:08.884421  2776 layer_factory.hpp:74] Creating layer conv2_2
I0325 23:27:08.884433  2776 net.cpp:90] Creating Layer conv2_2
I0325 23:27:08.884443  2776 net.cpp:410] conv2_2 <- conv2_1
I0325 23:27:08.884455  2776 net.cpp:368] conv2_2 -> conv2_2
I0325 23:27:08.884466  2776 net.cpp:120] Setting up conv2_2
I0325 23:27:08.886593  2776 net.cpp:127] Top shape: 4 128 180 240 (22118400)
I0325 23:27:08.886621  2776 layer_factory.hpp:74] Creating layer conv2_2_bn
I0325 23:27:08.886638  2776 net.cpp:90] Creating Layer conv2_2_bn
I0325 23:27:08.886651  2776 net.cpp:410] conv2_2_bn <- conv2_2
I0325 23:27:08.886669  2776 net.cpp:357] conv2_2_bn -> conv2_2 (in-place)
I0325 23:27:08.886680  2776 net.cpp:120] Setting up conv2_2_bn
I0325 23:27:08.886845  2776 net.cpp:127] Top shape: 4 128 180 240 (22118400)
I0325 23:27:08.886878  2776 layer_factory.hpp:74] Creating layer relu2_2
I0325 23:27:08.886893  2776 net.cpp:90] Creating Layer relu2_2
I0325 23:27:08.886904  2776 net.cpp:410] relu2_2 <- conv2_2
I0325 23:27:08.886912  2776 net.cpp:357] relu2_2 -> conv2_2 (in-place)
I0325 23:27:08.886921  2776 net.cpp:120] Setting up relu2_2
I0325 23:27:08.886930  2776 net.cpp:127] Top shape: 4 128 180 240 (22118400)
I0325 23:27:08.886936  2776 layer_factory.hpp:74] Creating layer pool2
I0325 23:27:08.886946  2776 net.cpp:90] Creating Layer pool2
I0325 23:27:08.886953  2776 net.cpp:410] pool2 <- conv2_2
I0325 23:27:08.886965  2776 net.cpp:368] pool2 -> pool2
I0325 23:27:08.886978  2776 net.cpp:368] pool2 -> pool2_mask
I0325 23:27:08.886988  2776 net.cpp:120] Setting up pool2
I0325 23:27:08.887001  2776 net.cpp:127] Top shape: 4 128 90 120 (5529600)
I0325 23:27:08.887008  2776 net.cpp:127] Top shape: 4 128 90 120 (5529600)
I0325 23:27:08.887015  2776 layer_factory.hpp:74] Creating layer conv3_1
I0325 23:27:08.887032  2776 net.cpp:90] Creating Layer conv3_1
I0325 23:27:08.887042  2776 net.cpp:410] conv3_1 <- pool2
I0325 23:27:08.887053  2776 net.cpp:368] conv3_1 -> conv3_1
I0325 23:27:08.887063  2776 net.cpp:120] Setting up conv3_1
I0325 23:27:08.891085  2776 net.cpp:127] Top shape: 4 256 90 120 (11059200)
I0325 23:27:08.891126  2776 layer_factory.hpp:74] Creating layer conv3_1_bn
I0325 23:27:08.891144  2776 net.cpp:90] Creating Layer conv3_1_bn
I0325 23:27:08.891154  2776 net.cpp:410] conv3_1_bn <- conv3_1
I0325 23:27:08.891170  2776 net.cpp:357] conv3_1_bn -> conv3_1 (in-place)
I0325 23:27:08.891185  2776 net.cpp:120] Setting up conv3_1_bn
I0325 23:27:08.891244  2776 net.cpp:127] Top shape: 4 256 90 120 (11059200)
I0325 23:27:08.891259  2776 layer_factory.hpp:74] Creating layer relu3_1
I0325 23:27:08.891269  2776 net.cpp:90] Creating Layer relu3_1
I0325 23:27:08.891279  2776 net.cpp:410] relu3_1 <- conv3_1
I0325 23:27:08.891289  2776 net.cpp:357] relu3_1 -> conv3_1 (in-place)
I0325 23:27:08.891299  2776 net.cpp:120] Setting up relu3_1
I0325 23:27:08.891306  2776 net.cpp:127] Top shape: 4 256 90 120 (11059200)
I0325 23:27:08.891314  2776 layer_factory.hpp:74] Creating layer conv3_2
I0325 23:27:08.891326  2776 net.cpp:90] Creating Layer conv3_2
I0325 23:27:08.891336  2776 net.cpp:410] conv3_2 <- conv3_1
I0325 23:27:08.891347  2776 net.cpp:368] conv3_2 -> conv3_2
I0325 23:27:08.891360  2776 net.cpp:120] Setting up conv3_2
I0325 23:27:08.898864  2776 net.cpp:127] Top shape: 4 256 90 120 (11059200)
I0325 23:27:08.898896  2776 layer_factory.hpp:74] Creating layer conv3_2_bn
I0325 23:27:08.898911  2776 net.cpp:90] Creating Layer conv3_2_bn
I0325 23:27:08.898919  2776 net.cpp:410] conv3_2_bn <- conv3_2
I0325 23:27:08.898936  2776 net.cpp:357] conv3_2_bn -> conv3_2 (in-place)
I0325 23:27:08.898948  2776 net.cpp:120] Setting up conv3_2_bn
I0325 23:27:08.899006  2776 net.cpp:127] Top shape: 4 256 90 120 (11059200)
I0325 23:27:08.899024  2776 layer_factory.hpp:74] Creating layer relu3_2
I0325 23:27:08.899034  2776 net.cpp:90] Creating Layer relu3_2
I0325 23:27:08.899045  2776 net.cpp:410] relu3_2 <- conv3_2
I0325 23:27:08.899056  2776 net.cpp:357] relu3_2 -> conv3_2 (in-place)
I0325 23:27:08.899065  2776 net.cpp:120] Setting up relu3_2
I0325 23:27:08.899075  2776 net.cpp:127] Top shape: 4 256 90 120 (11059200)
I0325 23:27:08.899081  2776 layer_factory.hpp:74] Creating layer conv3_3
I0325 23:27:08.899091  2776 net.cpp:90] Creating Layer conv3_3
I0325 23:27:08.899101  2776 net.cpp:410] conv3_3 <- conv3_2
I0325 23:27:08.899114  2776 net.cpp:368] conv3_3 -> conv3_3
I0325 23:27:08.899124  2776 net.cpp:120] Setting up conv3_3
I0325 23:27:08.907091  2776 net.cpp:127] Top shape: 4 256 90 120 (11059200)
I0325 23:27:08.907132  2776 layer_factory.hpp:74] Creating layer conv3_3_bn
I0325 23:27:08.907150  2776 net.cpp:90] Creating Layer conv3_3_bn
I0325 23:27:08.907174  2776 net.cpp:410] conv3_3_bn <- conv3_3
I0325 23:27:08.907189  2776 net.cpp:357] conv3_3_bn -> conv3_3 (in-place)
I0325 23:27:08.907202  2776 net.cpp:120] Setting up conv3_3_bn
I0325 23:27:08.907270  2776 net.cpp:127] Top shape: 4 256 90 120 (11059200)
I0325 23:27:08.907292  2776 layer_factory.hpp:74] Creating layer relu3_3
I0325 23:27:08.907305  2776 net.cpp:90] Creating Layer relu3_3
I0325 23:27:08.907315  2776 net.cpp:410] relu3_3 <- conv3_3
I0325 23:27:08.907326  2776 net.cpp:357] relu3_3 -> conv3_3 (in-place)
I0325 23:27:08.907336  2776 net.cpp:120] Setting up relu3_3
I0325 23:27:08.907346  2776 net.cpp:127] Top shape: 4 256 90 120 (11059200)
I0325 23:27:08.907352  2776 layer_factory.hpp:74] Creating layer pool3
I0325 23:27:08.907362  2776 net.cpp:90] Creating Layer pool3
I0325 23:27:08.907372  2776 net.cpp:410] pool3 <- conv3_3
I0325 23:27:08.907382  2776 net.cpp:368] pool3 -> pool3
I0325 23:27:08.907395  2776 net.cpp:368] pool3 -> pool3_mask
I0325 23:27:08.907410  2776 net.cpp:120] Setting up pool3
I0325 23:27:08.907426  2776 net.cpp:127] Top shape: 4 256 45 60 (2764800)
I0325 23:27:08.907438  2776 net.cpp:127] Top shape: 4 256 45 60 (2764800)
I0325 23:27:08.907444  2776 layer_factory.hpp:74] Creating layer conv4_1
I0325 23:27:08.907456  2776 net.cpp:90] Creating Layer conv4_1
I0325 23:27:08.907467  2776 net.cpp:410] conv4_1 <- pool3
I0325 23:27:08.907479  2776 net.cpp:368] conv4_1 -> conv4_1
I0325 23:27:08.907490  2776 net.cpp:120] Setting up conv4_1
I0325 23:27:08.922991  2776 net.cpp:127] Top shape: 4 512 45 60 (5529600)
I0325 23:27:08.923035  2776 layer_factory.hpp:74] Creating layer conv4_1_bn
I0325 23:27:08.923055  2776 net.cpp:90] Creating Layer conv4_1_bn
I0325 23:27:08.923069  2776 net.cpp:410] conv4_1_bn <- conv4_1
I0325 23:27:08.923079  2776 net.cpp:357] conv4_1_bn -> conv4_1 (in-place)
I0325 23:27:08.923094  2776 net.cpp:120] Setting up conv4_1_bn
I0325 23:27:08.923121  2776 net.cpp:127] Top shape: 4 512 45 60 (5529600)
I0325 23:27:08.923136  2776 layer_factory.hpp:74] Creating layer relu4_1
I0325 23:27:08.923147  2776 net.cpp:90] Creating Layer relu4_1
I0325 23:27:08.923154  2776 net.cpp:410] relu4_1 <- conv4_1
I0325 23:27:08.923166  2776 net.cpp:357] relu4_1 -> conv4_1 (in-place)
I0325 23:27:08.923176  2776 net.cpp:120] Setting up relu4_1
I0325 23:27:08.923184  2776 net.cpp:127] Top shape: 4 512 45 60 (5529600)
I0325 23:27:08.923192  2776 layer_factory.hpp:74] Creating layer conv4_2
I0325 23:27:08.923204  2776 net.cpp:90] Creating Layer conv4_2
I0325 23:27:08.923213  2776 net.cpp:410] conv4_2 <- conv4_1
I0325 23:27:08.923224  2776 net.cpp:368] conv4_2 -> conv4_2
I0325 23:27:08.923234  2776 net.cpp:120] Setting up conv4_2
I0325 23:27:08.953183  2776 net.cpp:127] Top shape: 4 512 45 60 (5529600)
I0325 23:27:08.953258  2776 layer_factory.hpp:74] Creating layer conv4_2_bn
I0325 23:27:08.953280  2776 net.cpp:90] Creating Layer conv4_2_bn
I0325 23:27:08.953290  2776 net.cpp:410] conv4_2_bn <- conv4_2
I0325 23:27:08.953305  2776 net.cpp:357] conv4_2_bn -> conv4_2 (in-place)
I0325 23:27:08.953318  2776 net.cpp:120] Setting up conv4_2_bn
I0325 23:27:08.953351  2776 net.cpp:127] Top shape: 4 512 45 60 (5529600)
I0325 23:27:08.953369  2776 layer_factory.hpp:74] Creating layer relu4_2
I0325 23:27:08.953380  2776 net.cpp:90] Creating Layer relu4_2
I0325 23:27:08.953387  2776 net.cpp:410] relu4_2 <- conv4_2
I0325 23:27:08.953397  2776 net.cpp:357] relu4_2 -> conv4_2 (in-place)
I0325 23:27:08.953404  2776 net.cpp:120] Setting up relu4_2
I0325 23:27:08.953413  2776 net.cpp:127] Top shape: 4 512 45 60 (5529600)
I0325 23:27:08.953420  2776 layer_factory.hpp:74] Creating layer conv4_3
I0325 23:27:08.953446  2776 net.cpp:90] Creating Layer conv4_3
I0325 23:27:08.953459  2776 net.cpp:410] conv4_3 <- conv4_2
I0325 23:27:08.953470  2776 net.cpp:368] conv4_3 -> conv4_3
I0325 23:27:08.953481  2776 net.cpp:120] Setting up conv4_3
I0325 23:27:08.984400  2776 net.cpp:127] Top shape: 4 512 45 60 (5529600)
I0325 23:27:08.984477  2776 layer_factory.hpp:74] Creating layer conv4_3_bn
I0325 23:27:08.984509  2776 net.cpp:90] Creating Layer conv4_3_bn
I0325 23:27:08.984532  2776 net.cpp:410] conv4_3_bn <- conv4_3
I0325 23:27:08.984552  2776 net.cpp:357] conv4_3_bn -> conv4_3 (in-place)
I0325 23:27:08.984567  2776 net.cpp:120] Setting up conv4_3_bn
I0325 23:27:08.984613  2776 net.cpp:127] Top shape: 4 512 45 60 (5529600)
I0325 23:27:08.984628  2776 layer_factory.hpp:74] Creating layer relu4_3
I0325 23:27:08.984639  2776 net.cpp:90] Creating Layer relu4_3
I0325 23:27:08.984647  2776 net.cpp:410] relu4_3 <- conv4_3
I0325 23:27:08.984655  2776 net.cpp:357] relu4_3 -> conv4_3 (in-place)
I0325 23:27:08.984663  2776 net.cpp:120] Setting up relu4_3
I0325 23:27:08.984673  2776 net.cpp:127] Top shape: 4 512 45 60 (5529600)
I0325 23:27:08.984679  2776 layer_factory.hpp:74] Creating layer pool4
I0325 23:27:08.984693  2776 net.cpp:90] Creating Layer pool4
I0325 23:27:08.984700  2776 net.cpp:410] pool4 <- conv4_3
I0325 23:27:08.984709  2776 net.cpp:368] pool4 -> pool4
I0325 23:27:08.984720  2776 net.cpp:368] pool4 -> pool4_mask
I0325 23:27:08.984735  2776 net.cpp:120] Setting up pool4
I0325 23:27:08.984750  2776 net.cpp:127] Top shape: 4 512 23 30 (1413120)
I0325 23:27:08.984760  2776 net.cpp:127] Top shape: 4 512 23 30 (1413120)
I0325 23:27:08.984768  2776 layer_factory.hpp:74] Creating layer conv5_1
I0325 23:27:08.984782  2776 net.cpp:90] Creating Layer conv5_1
I0325 23:27:08.984791  2776 net.cpp:410] conv5_1 <- pool4
I0325 23:27:08.984802  2776 net.cpp:368] conv5_1 -> conv5_1
I0325 23:27:08.984812  2776 net.cpp:120] Setting up conv5_1
I0325 23:27:09.014762  2776 net.cpp:127] Top shape: 4 512 23 30 (1413120)
I0325 23:27:09.014824  2776 layer_factory.hpp:74] Creating layer conv5_1_bn
I0325 23:27:09.014847  2776 net.cpp:90] Creating Layer conv5_1_bn
I0325 23:27:09.014856  2776 net.cpp:410] conv5_1_bn <- conv5_1
I0325 23:27:09.014870  2776 net.cpp:357] conv5_1_bn -> conv5_1 (in-place)
I0325 23:27:09.014883  2776 net.cpp:120] Setting up conv5_1_bn
I0325 23:27:09.014909  2776 net.cpp:127] Top shape: 4 512 23 30 (1413120)
I0325 23:27:09.014926  2776 layer_factory.hpp:74] Creating layer relu5_1
I0325 23:27:09.014937  2776 net.cpp:90] Creating Layer relu5_1
I0325 23:27:09.014945  2776 net.cpp:410] relu5_1 <- conv5_1
I0325 23:27:09.014952  2776 net.cpp:357] relu5_1 -> conv5_1 (in-place)
I0325 23:27:09.014961  2776 net.cpp:120] Setting up relu5_1
I0325 23:27:09.014969  2776 net.cpp:127] Top shape: 4 512 23 30 (1413120)
I0325 23:27:09.014976  2776 layer_factory.hpp:74] Creating layer conv5_2
I0325 23:27:09.014989  2776 net.cpp:90] Creating Layer conv5_2
I0325 23:27:09.014997  2776 net.cpp:410] conv5_2 <- conv5_1
I0325 23:27:09.015007  2776 net.cpp:368] conv5_2 -> conv5_2
I0325 23:27:09.015017  2776 net.cpp:120] Setting up conv5_2
I0325 23:27:09.045708  2776 net.cpp:127] Top shape: 4 512 23 30 (1413120)
I0325 23:27:09.045774  2776 layer_factory.hpp:74] Creating layer conv5_2_bn
I0325 23:27:09.045796  2776 net.cpp:90] Creating Layer conv5_2_bn
I0325 23:27:09.045807  2776 net.cpp:410] conv5_2_bn <- conv5_2
I0325 23:27:09.045819  2776 net.cpp:357] conv5_2_bn -> conv5_2 (in-place)
I0325 23:27:09.045832  2776 net.cpp:120] Setting up conv5_2_bn
I0325 23:27:09.045857  2776 net.cpp:127] Top shape: 4 512 23 30 (1413120)
I0325 23:27:09.045876  2776 layer_factory.hpp:74] Creating layer relu5_2
I0325 23:27:09.045886  2776 net.cpp:90] Creating Layer relu5_2
I0325 23:27:09.045893  2776 net.cpp:410] relu5_2 <- conv5_2
I0325 23:27:09.045903  2776 net.cpp:357] relu5_2 -> conv5_2 (in-place)
I0325 23:27:09.045912  2776 net.cpp:120] Setting up relu5_2
I0325 23:27:09.045922  2776 net.cpp:127] Top shape: 4 512 23 30 (1413120)
I0325 23:27:09.045928  2776 layer_factory.hpp:74] Creating layer conv5_3
I0325 23:27:09.045939  2776 net.cpp:90] Creating Layer conv5_3
I0325 23:27:09.045946  2776 net.cpp:410] conv5_3 <- conv5_2
I0325 23:27:09.045958  2776 net.cpp:368] conv5_3 -> conv5_3
I0325 23:27:09.045969  2776 net.cpp:120] Setting up conv5_3
I0325 23:27:09.075917  2776 net.cpp:127] Top shape: 4 512 23 30 (1413120)
I0325 23:27:09.075985  2776 layer_factory.hpp:74] Creating layer conv5_3_bn
I0325 23:27:09.076016  2776 net.cpp:90] Creating Layer conv5_3_bn
I0325 23:27:09.076027  2776 net.cpp:410] conv5_3_bn <- conv5_3
I0325 23:27:09.076042  2776 net.cpp:357] conv5_3_bn -> conv5_3 (in-place)
I0325 23:27:09.076066  2776 net.cpp:120] Setting up conv5_3_bn
I0325 23:27:09.076097  2776 net.cpp:127] Top shape: 4 512 23 30 (1413120)
I0325 23:27:09.076112  2776 layer_factory.hpp:74] Creating layer relu5_3
I0325 23:27:09.076125  2776 net.cpp:90] Creating Layer relu5_3
I0325 23:27:09.076133  2776 net.cpp:410] relu5_3 <- conv5_3
I0325 23:27:09.076140  2776 net.cpp:357] relu5_3 -> conv5_3 (in-place)
I0325 23:27:09.076149  2776 net.cpp:120] Setting up relu5_3
I0325 23:27:09.076159  2776 net.cpp:127] Top shape: 4 512 23 30 (1413120)
I0325 23:27:09.076165  2776 layer_factory.hpp:74] Creating layer pool5
I0325 23:27:09.076174  2776 net.cpp:90] Creating Layer pool5
I0325 23:27:09.076181  2776 net.cpp:410] pool5 <- conv5_3
I0325 23:27:09.076190  2776 net.cpp:368] pool5 -> pool5
I0325 23:27:09.076205  2776 net.cpp:368] pool5 -> pool5_mask
I0325 23:27:09.076216  2776 net.cpp:120] Setting up pool5
I0325 23:27:09.076228  2776 net.cpp:127] Top shape: 4 512 12 15 (368640)
I0325 23:27:09.076241  2776 net.cpp:127] Top shape: 4 512 12 15 (368640)
I0325 23:27:09.076248  2776 layer_factory.hpp:74] Creating layer upsample5
I0325 23:27:09.076261  2776 net.cpp:90] Creating Layer upsample5
I0325 23:27:09.076268  2776 net.cpp:410] upsample5 <- pool5
I0325 23:27:09.076277  2776 net.cpp:410] upsample5 <- pool5_mask
I0325 23:27:09.076292  2776 net.cpp:368] upsample5 -> pool5_D
I0325 23:27:09.076309  2776 net.cpp:120] Setting up upsample5
I0325 23:27:09.076325  2776 net.cpp:127] Top shape: 4 512 23 30 (1413120)
I0325 23:27:09.076333  2776 layer_factory.hpp:74] Creating layer conv5_3_D
I0325 23:27:09.076344  2776 net.cpp:90] Creating Layer conv5_3_D
I0325 23:27:09.076354  2776 net.cpp:410] conv5_3_D <- pool5_D
I0325 23:27:09.076365  2776 net.cpp:368] conv5_3_D -> conv5_3_D
I0325 23:27:09.076375  2776 net.cpp:120] Setting up conv5_3_D
I0325 23:27:09.107411  2776 net.cpp:127] Top shape: 4 512 23 30 (1413120)
I0325 23:27:09.107488  2776 layer_factory.hpp:74] Creating layer conv5_3_D_bn
I0325 23:27:09.107507  2776 net.cpp:90] Creating Layer conv5_3_D_bn
I0325 23:27:09.107517  2776 net.cpp:410] conv5_3_D_bn <- conv5_3_D
I0325 23:27:09.107528  2776 net.cpp:357] conv5_3_D_bn -> conv5_3_D (in-place)
I0325 23:27:09.107542  2776 net.cpp:120] Setting up conv5_3_D_bn
I0325 23:27:09.107575  2776 net.cpp:127] Top shape: 4 512 23 30 (1413120)
I0325 23:27:09.107592  2776 layer_factory.hpp:74] Creating layer relu5_3_D
I0325 23:27:09.107604  2776 net.cpp:90] Creating Layer relu5_3_D
I0325 23:27:09.107610  2776 net.cpp:410] relu5_3_D <- conv5_3_D
I0325 23:27:09.107619  2776 net.cpp:357] relu5_3_D -> conv5_3_D (in-place)
I0325 23:27:09.107627  2776 net.cpp:120] Setting up relu5_3_D
I0325 23:27:09.107636  2776 net.cpp:127] Top shape: 4 512 23 30 (1413120)
I0325 23:27:09.107642  2776 layer_factory.hpp:74] Creating layer conv5_2_D
I0325 23:27:09.107656  2776 net.cpp:90] Creating Layer conv5_2_D
I0325 23:27:09.107662  2776 net.cpp:410] conv5_2_D <- conv5_3_D
I0325 23:27:09.107672  2776 net.cpp:368] conv5_2_D -> conv5_2_D
I0325 23:27:09.107683  2776 net.cpp:120] Setting up conv5_2_D
I0325 23:27:09.137686  2776 net.cpp:127] Top shape: 4 512 23 30 (1413120)
I0325 23:27:09.137758  2776 layer_factory.hpp:74] Creating layer conv5_2_D_bn
I0325 23:27:09.137781  2776 net.cpp:90] Creating Layer conv5_2_D_bn
I0325 23:27:09.137791  2776 net.cpp:410] conv5_2_D_bn <- conv5_2_D
I0325 23:27:09.137802  2776 net.cpp:357] conv5_2_D_bn -> conv5_2_D (in-place)
I0325 23:27:09.137815  2776 net.cpp:120] Setting up conv5_2_D_bn
I0325 23:27:09.137840  2776 net.cpp:127] Top shape: 4 512 23 30 (1413120)
I0325 23:27:09.137851  2776 layer_factory.hpp:74] Creating layer relu5_2_D
I0325 23:27:09.137866  2776 net.cpp:90] Creating Layer relu5_2_D
I0325 23:27:09.137874  2776 net.cpp:410] relu5_2_D <- conv5_2_D
I0325 23:27:09.137884  2776 net.cpp:357] relu5_2_D -> conv5_2_D (in-place)
I0325 23:27:09.137904  2776 net.cpp:120] Setting up relu5_2_D
I0325 23:27:09.137914  2776 net.cpp:127] Top shape: 4 512 23 30 (1413120)
I0325 23:27:09.137920  2776 layer_factory.hpp:74] Creating layer conv5_1_D
I0325 23:27:09.137940  2776 net.cpp:90] Creating Layer conv5_1_D
I0325 23:27:09.137948  2776 net.cpp:410] conv5_1_D <- conv5_2_D
I0325 23:27:09.137959  2776 net.cpp:368] conv5_1_D -> conv5_1_D
I0325 23:27:09.137971  2776 net.cpp:120] Setting up conv5_1_D
I0325 23:27:09.168599  2776 net.cpp:127] Top shape: 4 512 23 30 (1413120)
I0325 23:27:09.168666  2776 layer_factory.hpp:74] Creating layer conv5_1_D_bn
I0325 23:27:09.168687  2776 net.cpp:90] Creating Layer conv5_1_D_bn
I0325 23:27:09.168697  2776 net.cpp:410] conv5_1_D_bn <- conv5_1_D
I0325 23:27:09.168712  2776 net.cpp:357] conv5_1_D_bn -> conv5_1_D (in-place)
I0325 23:27:09.168726  2776 net.cpp:120] Setting up conv5_1_D_bn
I0325 23:27:09.168752  2776 net.cpp:127] Top shape: 4 512 23 30 (1413120)
I0325 23:27:09.168768  2776 layer_factory.hpp:74] Creating layer relu5_1_D
I0325 23:27:09.168779  2776 net.cpp:90] Creating Layer relu5_1_D
I0325 23:27:09.168787  2776 net.cpp:410] relu5_1_D <- conv5_1_D
I0325 23:27:09.168794  2776 net.cpp:357] relu5_1_D -> conv5_1_D (in-place)
I0325 23:27:09.168803  2776 net.cpp:120] Setting up relu5_1_D
I0325 23:27:09.168812  2776 net.cpp:127] Top shape: 4 512 23 30 (1413120)
I0325 23:27:09.168819  2776 layer_factory.hpp:74] Creating layer upsample4
I0325 23:27:09.168830  2776 net.cpp:90] Creating Layer upsample4
I0325 23:27:09.168838  2776 net.cpp:410] upsample4 <- conv5_1_D
I0325 23:27:09.168846  2776 net.cpp:410] upsample4 <- pool4_mask
I0325 23:27:09.168855  2776 net.cpp:368] upsample4 -> pool4_D
I0325 23:27:09.168866  2776 net.cpp:120] Setting up upsample4
I0325 23:27:09.168881  2776 net.cpp:127] Top shape: 4 512 45 60 (5529600)
I0325 23:27:09.168889  2776 layer_factory.hpp:74] Creating layer conv4_3_D
I0325 23:27:09.168900  2776 net.cpp:90] Creating Layer conv4_3_D
I0325 23:27:09.168911  2776 net.cpp:410] conv4_3_D <- pool4_D
I0325 23:27:09.168923  2776 net.cpp:368] conv4_3_D -> conv4_3_D
I0325 23:27:09.168942  2776 net.cpp:120] Setting up conv4_3_D
I0325 23:27:09.198918  2776 net.cpp:127] Top shape: 4 512 45 60 (5529600)
I0325 23:27:09.199004  2776 layer_factory.hpp:74] Creating layer conv4_3_D_bn
I0325 23:27:09.199026  2776 net.cpp:90] Creating Layer conv4_3_D_bn
I0325 23:27:09.199036  2776 net.cpp:410] conv4_3_D_bn <- conv4_3_D
I0325 23:27:09.199048  2776 net.cpp:357] conv4_3_D_bn -> conv4_3_D (in-place)
I0325 23:27:09.199061  2776 net.cpp:120] Setting up conv4_3_D_bn
I0325 23:27:09.199090  2776 net.cpp:127] Top shape: 4 512 45 60 (5529600)
I0325 23:27:09.199106  2776 layer_factory.hpp:74] Creating layer relu4_3_D
I0325 23:27:09.199117  2776 net.cpp:90] Creating Layer relu4_3_D
I0325 23:27:09.199125  2776 net.cpp:410] relu4_3_D <- conv4_3_D
I0325 23:27:09.199132  2776 net.cpp:357] relu4_3_D -> conv4_3_D (in-place)
I0325 23:27:09.199141  2776 net.cpp:120] Setting up relu4_3_D
I0325 23:27:09.199151  2776 net.cpp:127] Top shape: 4 512 45 60 (5529600)
I0325 23:27:09.199156  2776 layer_factory.hpp:74] Creating layer conv4_2_D
I0325 23:27:09.199167  2776 net.cpp:90] Creating Layer conv4_2_D
I0325 23:27:09.199174  2776 net.cpp:410] conv4_2_D <- conv4_3_D
I0325 23:27:09.199187  2776 net.cpp:368] conv4_2_D -> conv4_2_D
I0325 23:27:09.199198  2776 net.cpp:120] Setting up conv4_2_D
I0325 23:27:09.230571  2776 net.cpp:127] Top shape: 4 512 45 60 (5529600)
I0325 23:27:09.230648  2776 layer_factory.hpp:74] Creating layer conv4_2_D_bn
I0325 23:27:09.230674  2776 net.cpp:90] Creating Layer conv4_2_D_bn
I0325 23:27:09.230684  2776 net.cpp:410] conv4_2_D_bn <- conv4_2_D
I0325 23:27:09.230697  2776 net.cpp:357] conv4_2_D_bn -> conv4_2_D (in-place)
I0325 23:27:09.230710  2776 net.cpp:120] Setting up conv4_2_D_bn
I0325 23:27:09.230756  2776 net.cpp:127] Top shape: 4 512 45 60 (5529600)
I0325 23:27:09.230769  2776 layer_factory.hpp:74] Creating layer relu4_2_D
I0325 23:27:09.230780  2776 net.cpp:90] Creating Layer relu4_2_D
I0325 23:27:09.230787  2776 net.cpp:410] relu4_2_D <- conv4_2_D
I0325 23:27:09.230808  2776 net.cpp:357] relu4_2_D -> conv4_2_D (in-place)
I0325 23:27:09.230818  2776 net.cpp:120] Setting up relu4_2_D
I0325 23:27:09.230831  2776 net.cpp:127] Top shape: 4 512 45 60 (5529600)
I0325 23:27:09.230849  2776 layer_factory.hpp:74] Creating layer conv4_1_D
I0325 23:27:09.230865  2776 net.cpp:90] Creating Layer conv4_1_D
I0325 23:27:09.230873  2776 net.cpp:410] conv4_1_D <- conv4_2_D
I0325 23:27:09.230885  2776 net.cpp:368] conv4_1_D -> conv4_1_D
I0325 23:27:09.230901  2776 net.cpp:120] Setting up conv4_1_D
I0325 23:27:09.246595  2776 net.cpp:127] Top shape: 4 256 45 60 (2764800)
I0325 23:27:09.246645  2776 layer_factory.hpp:74] Creating layer conv4_1_D_bn
I0325 23:27:09.246675  2776 net.cpp:90] Creating Layer conv4_1_D_bn
I0325 23:27:09.246685  2776 net.cpp:410] conv4_1_D_bn <- conv4_1_D
I0325 23:27:09.246695  2776 net.cpp:357] conv4_1_D_bn -> conv4_1_D (in-place)
I0325 23:27:09.246711  2776 net.cpp:120] Setting up conv4_1_D_bn
I0325 23:27:09.246739  2776 net.cpp:127] Top shape: 4 256 45 60 (2764800)
I0325 23:27:09.246752  2776 layer_factory.hpp:74] Creating layer relu4_1_D
I0325 23:27:09.246762  2776 net.cpp:90] Creating Layer relu4_1_D
I0325 23:27:09.246768  2776 net.cpp:410] relu4_1_D <- conv4_1_D
I0325 23:27:09.246776  2776 net.cpp:357] relu4_1_D -> conv4_1_D (in-place)
I0325 23:27:09.246788  2776 net.cpp:120] Setting up relu4_1_D
I0325 23:27:09.246800  2776 net.cpp:127] Top shape: 4 256 45 60 (2764800)
I0325 23:27:09.246809  2776 layer_factory.hpp:74] Creating layer upsample3
I0325 23:27:09.246819  2776 net.cpp:90] Creating Layer upsample3
I0325 23:27:09.246827  2776 net.cpp:410] upsample3 <- conv4_1_D
I0325 23:27:09.246837  2776 net.cpp:410] upsample3 <- pool3_mask
I0325 23:27:09.246846  2776 net.cpp:368] upsample3 -> pool3_D
I0325 23:27:09.246860  2776 net.cpp:120] Setting up upsample3
I0325 23:27:09.246868  2776 upsample_layer.cpp:31] Params 'pad_out_{}_' are deprecated. Please declare upsample height and width useing the upsample_h, upsample_w parameters.
I0325 23:27:09.246898  2776 net.cpp:127] Top shape: 4 256 90 120 (11059200)
I0325 23:27:09.246913  2776 layer_factory.hpp:74] Creating layer conv3_3_D
I0325 23:27:09.246930  2776 net.cpp:90] Creating Layer conv3_3_D
I0325 23:27:09.246945  2776 net.cpp:410] conv3_3_D <- pool3_D
I0325 23:27:09.246961  2776 net.cpp:368] conv3_3_D -> conv3_3_D
I0325 23:27:09.246984  2776 net.cpp:120] Setting up conv3_3_D
I0325 23:27:09.255198  2776 net.cpp:127] Top shape: 4 256 90 120 (11059200)
I0325 23:27:09.255228  2776 layer_factory.hpp:74] Creating layer conv3_3_D_bn
I0325 23:27:09.255244  2776 net.cpp:90] Creating Layer conv3_3_D_bn
I0325 23:27:09.255254  2776 net.cpp:410] conv3_3_D_bn <- conv3_3_D
I0325 23:27:09.255264  2776 net.cpp:357] conv3_3_D_bn -> conv3_3_D (in-place)
I0325 23:27:09.255275  2776 net.cpp:120] Setting up conv3_3_D_bn
I0325 23:27:09.255333  2776 net.cpp:127] Top shape: 4 256 90 120 (11059200)
I0325 23:27:09.255357  2776 layer_factory.hpp:74] Creating layer relu3_3_D
I0325 23:27:09.255378  2776 net.cpp:90] Creating Layer relu3_3_D
I0325 23:27:09.255386  2776 net.cpp:410] relu3_3_D <- conv3_3_D
I0325 23:27:09.255395  2776 net.cpp:357] relu3_3_D -> conv3_3_D (in-place)
I0325 23:27:09.255403  2776 net.cpp:120] Setting up relu3_3_D
I0325 23:27:09.255415  2776 net.cpp:127] Top shape: 4 256 90 120 (11059200)
I0325 23:27:09.255430  2776 layer_factory.hpp:74] Creating layer conv3_2_D
I0325 23:27:09.255445  2776 net.cpp:90] Creating Layer conv3_2_D
I0325 23:27:09.255455  2776 net.cpp:410] conv3_2_D <- conv3_3_D
I0325 23:27:09.255477  2776 net.cpp:368] conv3_2_D -> conv3_2_D
I0325 23:27:09.255491  2776 net.cpp:120] Setting up conv3_2_D
I0325 23:27:09.263113  2776 net.cpp:127] Top shape: 4 256 90 120 (11059200)
I0325 23:27:09.263141  2776 layer_factory.hpp:74] Creating layer conv3_2_D_bn
I0325 23:27:09.263154  2776 net.cpp:90] Creating Layer conv3_2_D_bn
I0325 23:27:09.263162  2776 net.cpp:410] conv3_2_D_bn <- conv3_2_D
I0325 23:27:09.263175  2776 net.cpp:357] conv3_2_D_bn -> conv3_2_D (in-place)
I0325 23:27:09.263218  2776 net.cpp:120] Setting up conv3_2_D_bn
I0325 23:27:09.263289  2776 net.cpp:127] Top shape: 4 256 90 120 (11059200)
I0325 23:27:09.263314  2776 layer_factory.hpp:74] Creating layer relu3_2_D
I0325 23:27:09.263346  2776 net.cpp:90] Creating Layer relu3_2_D
I0325 23:27:09.263356  2776 net.cpp:410] relu3_2_D <- conv3_2_D
I0325 23:27:09.263372  2776 net.cpp:357] relu3_2_D -> conv3_2_D (in-place)
I0325 23:27:09.263388  2776 net.cpp:120] Setting up relu3_2_D
I0325 23:27:09.263401  2776 net.cpp:127] Top shape: 4 256 90 120 (11059200)
I0325 23:27:09.263417  2776 layer_factory.hpp:74] Creating layer conv3_1_D
I0325 23:27:09.263428  2776 net.cpp:90] Creating Layer conv3_1_D
I0325 23:27:09.263435  2776 net.cpp:410] conv3_1_D <- conv3_2_D
I0325 23:27:09.263455  2776 net.cpp:368] conv3_1_D -> conv3_1_D
I0325 23:27:09.263471  2776 net.cpp:120] Setting up conv3_1_D
I0325 23:27:09.267617  2776 net.cpp:127] Top shape: 4 128 90 120 (5529600)
I0325 23:27:09.267650  2776 layer_factory.hpp:74] Creating layer conv3_1_D_bn
I0325 23:27:09.267668  2776 net.cpp:90] Creating Layer conv3_1_D_bn
I0325 23:27:09.267675  2776 net.cpp:410] conv3_1_D_bn <- conv3_1_D
I0325 23:27:09.267688  2776 net.cpp:357] conv3_1_D_bn -> conv3_1_D (in-place)
I0325 23:27:09.267698  2776 net.cpp:120] Setting up conv3_1_D_bn
I0325 23:27:09.267760  2776 net.cpp:127] Top shape: 4 128 90 120 (5529600)
I0325 23:27:09.267783  2776 layer_factory.hpp:74] Creating layer relu3_1_D
I0325 23:27:09.267804  2776 net.cpp:90] Creating Layer relu3_1_D
I0325 23:27:09.267813  2776 net.cpp:410] relu3_1_D <- conv3_1_D
I0325 23:27:09.267824  2776 net.cpp:357] relu3_1_D -> conv3_1_D (in-place)
I0325 23:27:09.267834  2776 net.cpp:120] Setting up relu3_1_D
I0325 23:27:09.267843  2776 net.cpp:127] Top shape: 4 128 90 120 (5529600)
I0325 23:27:09.267853  2776 layer_factory.hpp:74] Creating layer upsample2
I0325 23:27:09.267863  2776 net.cpp:90] Creating Layer upsample2
I0325 23:27:09.267880  2776 net.cpp:410] upsample2 <- conv3_1_D
I0325 23:27:09.267891  2776 net.cpp:410] upsample2 <- pool2_mask
I0325 23:27:09.267907  2776 net.cpp:368] upsample2 -> pool2_D
I0325 23:27:09.267926  2776 net.cpp:120] Setting up upsample2
I0325 23:27:09.267942  2776 upsample_layer.cpp:31] Params 'pad_out_{}_' are deprecated. Please declare upsample height and width useing the upsample_h, upsample_w parameters.
I0325 23:27:09.267957  2776 net.cpp:127] Top shape: 4 128 180 240 (22118400)
I0325 23:27:09.267973  2776 layer_factory.hpp:74] Creating layer conv2_2_D
I0325 23:27:09.267987  2776 net.cpp:90] Creating Layer conv2_2_D
I0325 23:27:09.268002  2776 net.cpp:410] conv2_2_D <- pool2_D
I0325 23:27:09.268021  2776 net.cpp:368] conv2_2_D -> conv2_2_D
I0325 23:27:09.268041  2776 net.cpp:120] Setting up conv2_2_D
I0325 23:27:09.270234  2776 net.cpp:127] Top shape: 4 128 180 240 (22118400)
I0325 23:27:09.270263  2776 layer_factory.hpp:74] Creating layer conv2_2_D_bn
I0325 23:27:09.270278  2776 net.cpp:90] Creating Layer conv2_2_D_bn
I0325 23:27:09.270287  2776 net.cpp:410] conv2_2_D_bn <- conv2_2_D
I0325 23:27:09.270297  2776 net.cpp:357] conv2_2_D_bn -> conv2_2_D (in-place)
I0325 23:27:09.270306  2776 net.cpp:120] Setting up conv2_2_D_bn
I0325 23:27:09.270473  2776 net.cpp:127] Top shape: 4 128 180 240 (22118400)
I0325 23:27:09.270498  2776 layer_factory.hpp:74] Creating layer relu2_2_D
I0325 23:27:09.270509  2776 net.cpp:90] Creating Layer relu2_2_D
I0325 23:27:09.270520  2776 net.cpp:410] relu2_2_D <- conv2_2_D
I0325 23:27:09.270529  2776 net.cpp:357] relu2_2_D -> conv2_2_D (in-place)
I0325 23:27:09.270539  2776 net.cpp:120] Setting up relu2_2_D
I0325 23:27:09.270547  2776 net.cpp:127] Top shape: 4 128 180 240 (22118400)
I0325 23:27:09.270553  2776 layer_factory.hpp:74] Creating layer conv2_1_D
I0325 23:27:09.270572  2776 net.cpp:90] Creating Layer conv2_1_D
I0325 23:27:09.270588  2776 net.cpp:410] conv2_1_D <- conv2_2_D
I0325 23:27:09.270599  2776 net.cpp:368] conv2_1_D -> conv2_1_D
I0325 23:27:09.270611  2776 net.cpp:120] Setting up conv2_1_D
I0325 23:27:09.271747  2776 net.cpp:127] Top shape: 4 64 180 240 (11059200)
I0325 23:27:09.271780  2776 layer_factory.hpp:74] Creating layer conv2_1_D_bn
I0325 23:27:09.271795  2776 net.cpp:90] Creating Layer conv2_1_D_bn
I0325 23:27:09.271807  2776 net.cpp:410] conv2_1_D_bn <- conv2_1_D
I0325 23:27:09.271827  2776 net.cpp:357] conv2_1_D_bn -> conv2_1_D (in-place)
I0325 23:27:09.271848  2776 net.cpp:120] Setting up conv2_1_D_bn
I0325 23:27:09.272023  2776 net.cpp:127] Top shape: 4 64 180 240 (11059200)
I0325 23:27:09.272047  2776 layer_factory.hpp:74] Creating layer relu2_1_D
I0325 23:27:09.272061  2776 net.cpp:90] Creating Layer relu2_1_D
I0325 23:27:09.272073  2776 net.cpp:410] relu2_1_D <- conv2_1_D
I0325 23:27:09.272081  2776 net.cpp:357] relu2_1_D -> conv2_1_D (in-place)
I0325 23:27:09.272094  2776 net.cpp:120] Setting up relu2_1_D
I0325 23:27:09.272116  2776 net.cpp:127] Top shape: 4 64 180 240 (11059200)
I0325 23:27:09.272127  2776 layer_factory.hpp:74] Creating layer upsample1
I0325 23:27:09.272136  2776 net.cpp:90] Creating Layer upsample1
I0325 23:27:09.272152  2776 net.cpp:410] upsample1 <- conv2_1_D
I0325 23:27:09.272166  2776 net.cpp:410] upsample1 <- pool1_mask
I0325 23:27:09.272179  2776 net.cpp:368] upsample1 -> pool1_D
I0325 23:27:09.272198  2776 net.cpp:120] Setting up upsample1
I0325 23:27:09.272207  2776 upsample_layer.cpp:31] Params 'pad_out_{}_' are deprecated. Please declare upsample height and width useing the upsample_h, upsample_w parameters.
I0325 23:27:09.272222  2776 net.cpp:127] Top shape: 4 64 360 480 (44236800)
I0325 23:27:09.272236  2776 layer_factory.hpp:74] Creating layer conv1_2_D
I0325 23:27:09.272248  2776 net.cpp:90] Creating Layer conv1_2_D
I0325 23:27:09.272258  2776 net.cpp:410] conv1_2_D <- pool1_D
I0325 23:27:09.272279  2776 net.cpp:368] conv1_2_D -> conv1_2_D
I0325 23:27:09.272291  2776 net.cpp:120] Setting up conv1_2_D
I0325 23:27:09.273144  2776 net.cpp:127] Top shape: 4 64 360 480 (44236800)
I0325 23:27:09.273172  2776 layer_factory.hpp:74] Creating layer conv1_2_D_bn
I0325 23:27:09.273185  2776 net.cpp:90] Creating Layer conv1_2_D_bn
I0325 23:27:09.273196  2776 net.cpp:410] conv1_2_D_bn <- conv1_2_D
I0325 23:27:09.273211  2776 net.cpp:357] conv1_2_D_bn -> conv1_2_D (in-place)
I0325 23:27:09.273221  2776 net.cpp:120] Setting up conv1_2_D_bn
I0325 23:27:09.273759  2776 net.cpp:127] Top shape: 4 64 360 480 (44236800)
I0325 23:27:09.273784  2776 layer_factory.hpp:74] Creating layer relu1_2_D
I0325 23:27:09.273795  2776 net.cpp:90] Creating Layer relu1_2_D
I0325 23:27:09.273807  2776 net.cpp:410] relu1_2_D <- conv1_2_D
I0325 23:27:09.273818  2776 net.cpp:357] relu1_2_D -> conv1_2_D (in-place)
I0325 23:27:09.273828  2776 net.cpp:120] Setting up relu1_2_D
I0325 23:27:09.273838  2776 net.cpp:127] Top shape: 4 64 360 480 (44236800)
I0325 23:27:09.273855  2776 layer_factory.hpp:74] Creating layer conv1_1_D
I0325 23:27:09.273869  2776 net.cpp:90] Creating Layer conv1_1_D
I0325 23:27:09.273879  2776 net.cpp:410] conv1_1_D <- conv1_2_D
I0325 23:27:09.273898  2776 net.cpp:368] conv1_1_D -> conv1_1_D
I0325 23:27:09.273917  2776 net.cpp:120] Setting up conv1_1_D
I0325 23:27:09.274291  2776 net.cpp:127] Top shape: 4 4 360 480 (2764800)
I0325 23:27:09.274315  2776 layer_factory.hpp:74] Creating layer conv1_1_D_conv1_1_D_0_split
I0325 23:27:09.274328  2776 net.cpp:90] Creating Layer conv1_1_D_conv1_1_D_0_split
I0325 23:27:09.274339  2776 net.cpp:410] conv1_1_D_conv1_1_D_0_split <- conv1_1_D
I0325 23:27:09.274351  2776 net.cpp:368] conv1_1_D_conv1_1_D_0_split -> conv1_1_D_conv1_1_D_0_split_0
I0325 23:27:09.274365  2776 net.cpp:368] conv1_1_D_conv1_1_D_0_split -> conv1_1_D_conv1_1_D_0_split_1
I0325 23:27:09.274379  2776 net.cpp:120] Setting up conv1_1_D_conv1_1_D_0_split
I0325 23:27:09.274400  2776 net.cpp:127] Top shape: 4 4 360 480 (2764800)
I0325 23:27:09.274410  2776 net.cpp:127] Top shape: 4 4 360 480 (2764800)
I0325 23:27:09.274426  2776 layer_factory.hpp:74] Creating layer loss
I0325 23:27:09.274442  2776 net.cpp:90] Creating Layer loss
I0325 23:27:09.274449  2776 net.cpp:410] loss <- conv1_1_D_conv1_1_D_0_split_0
I0325 23:27:09.274468  2776 net.cpp:410] loss <- label_data_1_split_0
I0325 23:27:09.274493  2776 net.cpp:368] loss -> loss
I0325 23:27:09.274523  2776 net.cpp:120] Setting up loss
I0325 23:27:09.274552  2776 layer_factory.hpp:74] Creating layer loss
I0325 23:27:09.277287  2776 net.cpp:127] Top shape: (1)
I0325 23:27:09.277324  2776 net.cpp:129]     with loss weight 1
I0325 23:27:09.277357  2776 layer_factory.hpp:74] Creating layer accuracy
I0325 23:27:09.277370  2776 net.cpp:90] Creating Layer accuracy
I0325 23:27:09.277379  2776 net.cpp:410] accuracy <- conv1_1_D_conv1_1_D_0_split_1
I0325 23:27:09.277387  2776 net.cpp:410] accuracy <- label_data_1_split_1
I0325 23:27:09.277400  2776 net.cpp:368] accuracy -> accuracy
I0325 23:27:09.277411  2776 net.cpp:368] accuracy -> per_class_accuracy
I0325 23:27:09.277429  2776 net.cpp:120] Setting up accuracy
I0325 23:27:09.277443  2776 accuracy_layer.cpp:24] Per-class accuracies currently only work on TRAIN phase only.
I0325 23:27:09.277454  2776 net.cpp:127] Top shape: (1)
I0325 23:27:09.277473  2776 net.cpp:127] Top shape: 4 1 1 1 (4)
I0325 23:27:09.277484  2776 net.cpp:194] accuracy does not need backward computation.
I0325 23:27:09.277493  2776 net.cpp:192] loss needs backward computation.
I0325 23:27:09.277509  2776 net.cpp:192] conv1_1_D_conv1_1_D_0_split needs backward computation.
I0325 23:27:09.277518  2776 net.cpp:192] conv1_1_D needs backward computation.
I0325 23:27:09.277525  2776 net.cpp:192] relu1_2_D needs backward computation.
…
snapshot_prefix: "/SegNet_copy/Models/Training/segnet_"
solver_mode: CPU
net: "/SegNet_copy/Models/segnet_train.prototxt"
test_initialization: false
I0331 15:27:51.986572 15916 solver.cpp:70] Creating training net from net file: /SegNet_copy/Models/segnet_train.prototxt
I0331 15:27:51.990093 15916 net.cpp:42] Initializing net from parameters: 
name: "VGG_ILSVRC_16_layer"
state {
  phase: TRAIN
}
layer {
  name: "data"
  type: "DenseImageData"
  top: "data"
  top: "label"
  dense_image_data_param {
    source: "/SegNet_copy/AnhLua/train.txt"
    batch_size: 12
    shuffle: true
  }
}
layer {
  name: "conv1_1"
  type: "Convolution"
  bottom: "data"
  top: "conv1_1"
  param {
    lr_mult: 1
    decay_mult: 1
  }
  param {
    lr_mult: 2
    decay_mult: 0
  }
  convolution_param {
    num_output: 64
    pad: 1
    kernel_size: 3
    weight_filler {
      type: "msra"
    }
    bias_filler {
      type: "constant"
    }
  }
}
layer {
  name: "conv1_1_bn"
  type: "BN"
  bottom: "conv1_1"
  top: "conv1_1"
  param {
    lr_mult: 1
    decay_mult: 1
  }
  param {
    lr_mult: 1
    decay_mult: 0
  }
  bn_param {
    scale_filler {
      type: "constant"
      value: 1
    }
    shift_filler {
      type: "constant"
      value: 0.001
    }
  }
}
layer {
  name: "relu1_1"
  type: "ReLU"
  bottom: "conv1_1"
  top: "conv1_1"
}
layer {
  name: "conv1_2"
  type: "Convolution"
  bottom: "conv1_1"
  top: "conv1_2"
  param {
    lr_mult: 1
    decay_mult: 1
  }
  param {
    lr_mult: 2
    decay_mult: 0
  }
  convolution_param {
    num_output: 64
    pad: 1
    kernel_size: 3
    weight_filler {
      type: "msra"
    }
    bias_filler {
      type: "constant"
    }
  }
}
layer {
  name: "conv1_2_bn"
  type: "BN"
  bottom: "conv1_2"
  top: "conv1_2"
  param {
    lr_mult: 1
    decay_mult: 1
  }
  param {
    lr_mult: 1
    decay_mult: 0
  }
  bn_param {
    scale_filler {
      type: "constant"
      value: 1
    }
    shift_filler {
      type: "constant"
      value: 0.001
    }
  }
}
layer {
  name: "relu1_2"
  type: "ReLU"
  bottom: "conv1_2"
  top: "conv1_2"
}
layer {
  name: "pool1"
  type: "Pooling"
  bottom: "conv1_2"
  top: "pool1"
  top: "pool1_mask"
  pooling_param {
    pool: MAX
    kernel_size: 2
    stride: 2
  }
}
layer {
  name: "conv2_1"
  type: "Convolution"
  bottom: "pool1"
  top: "conv2_1"
  param {
    lr_mult: 1
    decay_mult: 1
  }
  param {
    lr_mult: 2
    decay_mult: 0
  }
  convolution_param {
    num_output: 128
    pad: 1
    kernel_size: 3
    weight_filler {
      type: "msra"
    }
    bias_filler {
      type: "constant"
    }
  }
}
layer {
  name: "conv2_1_bn"
  type: "BN"
  bottom: "conv2_1"
  top: "conv2_1"
  param {
    lr_mult: 1
    decay_mult: 1
  }
  param {
    lr_mult: 1
    decay_mult: 0
  }
  bn_param {
    scale_filler {
      type: "constant"
      value: 1
    }
    shift_filler {
      type: "constant"
      value: 0.001
    }
  }
}
layer {
  name: "relu2_1"
  type: "ReLU"
  bottom: "conv2_1"
  top: "conv2_1"
}
layer {
  name: "conv2_2"
  type: "Convolution"
  bottom: "conv2_1"
  top: "conv2_2"
  param {
    lr_mult: 1
    decay_mult: 1
  }
  param {
    lr_mult: 2
    decay_mult: 0
  }
  convolution_param {
    num_output: 128
    pad: 1
    kernel_size: 3
    weight_filler {
      type: "msra"
    }
    bias_filler {
      type: "constant"
    }
  }
}
layer {
  name: "conv2_2_bn"
  type: "BN"
  bottom: "conv2_2"
  top: "conv2_2"
  param {
    lr_mult: 1
    decay_mult: 1
  }
  param {
    lr_mult: 1
    decay_mult: 0
  }
  bn_param {
    scale_filler {
      type: "constant"
      value: 1
    }
    shift_filler {
      type: "constant"
      value: 0.001
    }
  }
}
layer {
  name: "relu2_2"
  type: "ReLU"
  bottom: "conv2_2"
  top: "conv2_2"
}
layer {
  name: "pool2"
  type: "Pooling"
  bottom: "conv2_2"
  top: "pool2"
  top: "pool2_mask"
  pooling_param {
    pool: MAX
    kernel_size: 2
    stride: 2
  }
}
layer {
  name: "conv3_1"
  type: "Convolution"
  bottom: "pool2"
  top: "conv3_1"
  param {
    lr_mult: 1
    decay_mult: 1
  }
  param {
    lr_mult: 2
    decay_mult: 0
  }
  convolution_param {
    num_output: 256
    pad: 1
    kernel_size: 3
    weight_filler {
      type: "msra"
    }
    bias_filler {
      type: "constant"
    }
  }
}
layer {
  name: "conv3_1_bn"
  type: "BN"
  bottom: "conv3_1"
  top: "conv3_1"
  param {
    lr_mult: 1
    decay_mult: 1
  }
  param {
    lr_mult: 1
    decay_mult: 0
  }
  bn_param {
    scale_filler {
      type: "constant"
      value: 1
    }
    shift_filler {
      type: "constant"
      value: 0.001
    }
  }
}
layer {
  name: "relu3_1"
  type: "ReLU"
  bottom: "conv3_1"
  top: "conv3_1"
}
layer {
  name: "conv3_2"
  type: "Convolution"
  bottom: "conv3_1"
  top: "conv3_2"
  param {
    lr_mult: 1
    decay_mult: 1
  }
  param {
    lr_mult: 2
    decay_mult: 0
  }
  convolution_param {
    num_output: 256
    pad: 1
    kernel_size: 3
    weight_filler {
      type: "msra"
    }
    bias_filler {
      type: "constant"
    }
  }
}
layer {
  name: "conv3_2_bn"
  type: "BN"
  bottom: "conv3_2"
  top: "conv3_2"
  param {
    lr_mult: 1
    decay_mult: 1
  }
  param {
    lr_mult: 1
    decay_mult: 0
  }
  bn_param {
    scale_filler {
      type: "constant"
      value: 1
    }
    shift_filler {
      type: "constant"
      value: 0.001
    }
  }
}
layer {
  name: "relu3_2"
  type: "ReLU"
  bottom: "conv3_2"
  top: "conv3_2"
}
layer {
  name: "conv3_3"
  type: "Convolution"
  bottom: "conv3_2"
  top: "conv3_3"
  param {
    lr_mult: 1
    decay_mult: 1
  }
  param {
    lr_mult: 2
    decay_mult: 0
  }
  convolution_param {
    num_output: 256
    pad: 1
    kernel_size: 3
    weight_filler {
      type: "msra"
    }
    bias_filler {
      type: "constant"
    }
  }
}
layer {
  name: "conv3_3_bn"
  type: "BN"
  bottom: "conv3_3"
  top: "conv3_3"
  param {
    lr_mult: 1
    decay_mult: 1
  }
  param {
    lr_mult: 1
    decay_mult: 0
  }
  bn_param {
    scale_filler {
      type: "constant"
      value: 1
    }
    shift_filler {
      type: "constant"
      value: 0.001
    }
  }
}
layer {
  name: "relu3_3"
  type: "ReLU"
  bottom: "conv3_3"
  top: "conv3_3"
}
layer {
  name: "pool3"
  type: "Pooling"
  bottom: "conv3_3"
  top: "pool3"
  top: "pool3_mask"
  pooling_param {
    pool: MAX
    kernel_size: 2
    stride: 2
  }
}
layer {
  name: "conv4_1"
  type: "Convolution"
  bottom: "pool3"
  top: "conv4_1"
  param {
    lr_mult: 1
    decay_mult: 1
  }
  param {
    lr_mult: 2
    decay_mult: 0
  }
  convolution_param {
    num_output: 512
    pad: 1
    kernel_size: 3
    weight_filler {
      type: "msra"
    }
    bias_filler {
      type: "constant"
    }
  }
}
layer {
  name: "conv4_1_bn"
  type: "BN"
  bottom: "conv4_1"
  top: "conv4_1"
  param {
    lr_mult: 1
    decay_mult: 1
  }
  param {
    lr_mult: 1
    decay_mult: 0
  }
  bn_param {
    scale_filler {
      type: "constant"
      value: 1
    }
    shift_filler {
      type: "constant"
      value: 0.001
    }
  }
}
layer {
  name: "relu4_1"
  type: "ReLU"
  bottom: "conv4_1"
  top: "conv4_1"
}
layer {
  name: "conv4_2"
  type: "Convolution"
  bottom: "conv4_1"
  top: "conv4_2"
  param {
    lr_mult: 1
    decay_mult: 1
  }
  param {
    lr_mult: 2
    decay_mult: 0
  }
  convolution_param {
    num_output: 512
    pad: 1
    kernel_size: 3
    weight_filler {
      type: "msra"
    }
    bias_filler {
      type: "constant"
    }
  }
}
layer {
  name: "conv4_2_bn"
  type: "BN"
  bottom: "conv4_2"
  top: "conv4_2"
  param {
    lr_mult: 1
    decay_mult: 1
  }
  param {
    lr_mult: 1
    decay_mult: 0
  }
  bn_param {
    scale_filler {
      type: "constant"
      value: 1
    }
    shift_filler {
      type: "constant"
      value: 0.001
    }
  }
}
layer {
  name: "relu4_2"
  type: "ReLU"
  bottom: "conv4_2"
  top: "conv4_2"
}
layer {
  name: "conv4_3"
  type: "Convolution"
  bottom: "conv4_2"
  top: "conv4_3"
  param {
    lr_mult: 1
    decay_mult: 1
  }
  param {
    lr_mult: 2
    decay_mult: 0
  }
  convolution_param {
    num_output: 512
    pad: 1
    kernel_size: 3
    weight_filler {
      type: "msra"
    }
    bias_filler {
      type: "constant"
    }
  }
}
layer {
  name: "conv4_3_bn"
  type: "BN"
  bottom: "conv4_3"
  top: "conv4_3"
  param {
    lr_mult: 1
    decay_mult: 1
  }
  param {
    lr_mult: 1
    decay_mult: 0
  }
  bn_param {
    scale_filler {
      type: "constant"
      value: 1
    }
    shift_filler {
      type: "constant"
      value: 0.001
    }
  }
}
layer {
  name: "relu4_3"
  type: "ReLU"
  bottom: "conv4_3"
  top: "conv4_3"
}
layer {
  name: "pool4"
  type: "Pooling"
  bottom: "conv4_3"
  top: "pool4"
  top: "pool4_mask"
  pooling_param {
    pool: MAX
    kernel_size: 2
    stride: 2
  }
}
layer {
  name: "conv5_1"
  type: "Convolution"
  bottom: "pool4"
  top: "conv5_1"
  param {
    lr_mult: 1
    decay_mult: 1
  }
  param {
    lr_mult: 2
    decay_mult: 0
  }
  convolution_param {
    num_output: 512
    pad: 1
    kernel_size: 3
    weight_filler {
      type: "msra"
    }
    bias_filler {
      type: "constant"
    }
  }
}
layer {
  name: "conv5_1_bn"
  type: "BN"
  bottom: "conv5_1"
  top: "conv5_1"
  param {
    lr_mult: 1
    decay_mult: 1
  }
  param {
    lr_mult: 1
    decay_mult: 0
  }
  bn_param {
    scale_filler {
      type: "constant"
      value: 1
    }
    shift_filler {
      type: "constant"
      value: 0.001
    }
  }
}
layer {
  name: "relu5_1"
  type: "ReLU"
  bottom: "conv5_1"
  top: "conv5_1"
}
layer {
  name: "conv5_2"
  type: "Convolution"
  bottom: "conv5_1"
  top: "conv5_2"
  param {
    lr_mult: 1
    decay_mult: 1
  }
  param {
    lr_mult: 2
    decay_mult: 0
  }
  convolution_param {
    num_output: 512
    pad: 1
    kernel_size: 3
    weight_filler {
      type: "msra"
    }
    bias_filler {
      type: "constant"
    }
  }
}
layer {
  name: "conv5_2_bn"
  type: "BN"
  bottom: "conv5_2"
  top: "conv5_2"
  param {
    lr_mult: 1
    decay_mult: 1
  }
  param {
    lr_mult: 1
    decay_mult: 0
  }
  bn_param {
    scale_filler {
      type: "constant"
      value: 1
    }
    shift_filler {
      type: "constant"
      value: 0.001
    }
  }
}
layer {
  name: "relu5_2"
  type: "ReLU"
  bottom: "conv5_2"
  top: "conv5_2"
}
layer {
  name: "conv5_3"
  type: "Convolution"
  bottom: "conv5_2"
  top: "conv5_3"
  param {
    lr_mult: 1
    decay_mult: 1
  }
  param {
    lr_mult: 2
    decay_mult: 0
  }
  convolution_param {
    num_output: 512
    pad: 1
    kernel_size: 3
    weight_filler {
      type: "msra"
    }
    bias_filler {
      type: "constant"
    }
  }
}
layer {
  name: "conv5_3_bn"
  type: "BN"
  bottom: "conv5_3"
  top: "conv5_3"
  param {
    lr_mult: 1
    decay_mult: 1
  }
  param {
    lr_mult: 1
    decay_mult: 0
  }
  bn_param {
    scale_filler {
      type: "constant"
      value: 1
    }
    shift_filler {
      type: "constant"
      value: 0.001
    }
  }
}
layer {
  name: "relu5_3"
  type: "ReLU"
  bottom: "conv5_3"
  top: "conv5_3"
}
layer {
  name: "pool5"
  type: "Pooling"
  bottom: "conv5_3"
  top: "pool5"
  top: "pool5_mask"
  pooling_param {
    pool: MAX
    kernel_size: 2
    stride: 2
  }
}
layer {
  name: "upsample5"
  type: "Upsample"
  bottom: "pool5"
  bottom: "pool5_mask"
  top: "pool5_D"
  upsample_param {
    scale: 2
    upsample_h: 23
    upsample_w: 30
  }
}
layer {
  name: "conv5_3_D"
  type: "Convolution"
  bottom: "pool5_D"
  top: "conv5_3_D"
  param {
    lr_mult: 1
    decay_mult: 1
  }
  param {
    lr_mult: 2
    decay_mult: 0
  }
  convolution_param {
    num_output: 512
    pad: 1
    kernel_size: 3
    weight_filler {
      type: "msra"
    }
    bias_filler {
      type: "constant"
    }
  }
}
layer {
  name: "conv5_3_D_bn"
  type: "BN"
  bottom: "conv5_3_D"
  top: "conv5_3_D"
  param {
    lr_mult: 1
    decay_mult: 1
  }
  param {
    lr_mult: 1
    decay_mult: 0
  }
  bn_param {
    scale_filler {
      type: "constant"
      value: 1
    }
    shift_filler {
      type: "constant"
      value: 0.001
    }
  }
}
layer {
  name: "relu5_3_D"
  type: "ReLU"
  bottom: "conv5_3_D"
  top: "conv5_3_D"
}
layer {
  name: "conv5_2_D"
  type: "Convolution"
  bottom: "conv5_3_D"
  top: "conv5_2_D"
  param {
    lr_mult: 1
    decay_mult: 1
  }
  param {
    lr_mult: 2
    decay_mult: 0
  }
  convolution_param {
    num_output: 512
    pad: 1
    kernel_size: 3
    weight_filler {
      type: "msra"
    }
    bias_filler {
      type: "constant"
    }
  }
}
layer {
  name: "conv5_2_D_bn"
  type: "BN"
  bottom: "conv5_2_D"
  top: "conv5_2_D"
  param {
    lr_mult: 1
    decay_mult: 1
  }
  param {
    lr_mult: 1
    decay_mult: 0
  }
  bn_param {
    scale_filler {
      type: "constant"
      value: 1
    }
    shift_filler {
      type: "constant"
      value: 0.001
    }
  }
}
layer {
  name: "relu5_2_D"
  type: "ReLU"
  bottom: "conv5_2_D"
  top: "conv5_2_D"
}
layer {
  name: "conv5_1_D"
  type: "Convolution"
  bottom: "conv5_2_D"
  top: "conv5_1_D"
  param {
    lr_mult: 1
    decay_mult: 1
  }
  param {
    lr_mult: 2
    decay_mult: 0
  }
  convolution_param {
    num_output: 512
    pad: 1
    kernel_size: 3
    weight_filler {
      type: "msra"
    }
    bias_filler {
      type: "constant"
    }
  }
}
layer {
  name: "conv5_1_D_bn"
  type: "BN"
  bottom: "conv5_1_D"
  top: "conv5_1_D"
  param {
    lr_mult: 1
    decay_mult: 1
  }
  param {
    lr_mult: 1
    decay_mult: 0
  }
  bn_param {
    scale_filler {
      type: "constant"
      value: 1
    }
    shift_filler {
      type: "constant"
      value: 0.001
    }
  }
}
layer {
  name: "relu5_1_D"
  type: "ReLU"
  bottom: "conv5_1_D"
  top: "conv5_1_D"
}
layer {
  name: "upsample4"
  type: "Upsample"
  bottom: "conv5_1_D"
  bottom: "pool4_mask"
  top: "pool4_D"
  upsample_param {
    scale: 2
    upsample_h: 45
    upsample_w: 60
  }
}
layer {
  name: "conv4_3_D"
  type: "Convolution"
  bottom: "pool4_D"
  top: "conv4_3_D"
  param {
    lr_mult: 1
    decay_mult: 1
  }
  param {
    lr_mult: 2
    decay_mult: 0
  }
  convolution_param {
    num_output: 512
    pad: 1
    kernel_size: 3
    weight_filler {
      type: "msra"
    }
    bias_filler {
      type: "constant"
    }
  }
}
layer {
  name: "conv4_3_D_bn"
  type: "BN"
  bottom: "conv4_3_D"
  top: "conv4_3_D"
  param {
    lr_mult: 1
    decay_mult: 1
  }
  param {
    lr_mult: 1
    decay_mult: 0
  }
  bn_param {
    scale_filler {
      type: "constant"
      value: 1
    }
    shift_filler {
      type: "constant"
      value: 0.001
    }
  }
}
layer {
  name: "relu4_3_D"
  type: "ReLU"
  bottom: "conv4_3_D"
  top: "conv4_3_D"
}
layer {
  name: "conv4_2_D"
  type: "Convolution"
  bottom: "conv4_3_D"
  top: "conv4_2_D"
  param {
    lr_mult: 1
    decay_mult: 1
  }
  param {
    lr_mult: 2
    decay_mult: 0
  }
  convolution_param {
    num_output: 512
    pad: 1
    kernel_size: 3
    weight_filler {
      type: "msra"
    }
    bias_filler {
      type: "constant"
    }
  }
}
layer {
  name: "conv4_2_D_bn"
  type: "BN"
  bottom: "conv4_2_D"
  top: "conv4_2_D"
  param {
    lr_mult: 1
    decay_mult: 1
  }
  param {
    lr_mult: 1
    decay_mult: 0
  }
  bn_param {
    scale_filler {
      type: "constant"
      value: 1
    }
    shift_filler {
      type: "constant"
      value: 0.001
    }
  }
}
layer {
  name: "relu4_2_D"
  type: "ReLU"
  bottom: "conv4_2_D"
  top: "conv4_2_D"
}
layer {
  name: "conv4_1_D"
  type: "Convolution"
  bottom: "conv4_2_D"
  top: "conv4_1_D"
  param {
    lr_mult: 1
    decay_mult: 1
  }
  param {
    lr_mult: 2
    decay_mult: 0
  }
  convolution_param {
    num_output: 256
    pad: 1
    kernel_size: 3
    weight_filler {
      type: "msra"
    }
    bias_filler {
      type: "constant"
    }
  }
}
layer {
  name: "conv4_1_D_bn"
  type: "BN"
  bottom: "conv4_1_D"
  top: "conv4_1_D"
  param {
    lr_mult: 1
    decay_mult: 1
  }
  param {
    lr_mult: 1
    decay_mult: 0
  }
  bn_param {
    scale_filler {
      type: "constant"
      value: 1
    }
    shift_filler {
      type: "constant"
      value: 0.001
    }
  }
}
layer {
  name: "relu4_1_D"
  type: "ReLU"
  bottom: "conv4_1_D"
  top: "conv4_1_D"
}
layer {
  name: "upsample3"
  type: "Upsample"
  bottom: "conv4_1_D"
  bottom: "pool3_mask"
  top: "pool3_D"
  upsample_param {
    scale: 2
  }
}
layer {
  name: "conv3_3_D"
  type: "Convolution"
  bottom: "pool3_D"
  top: "conv3_3_D"
  param {
    lr_mult: 1
    decay_mult: 1
  }
  param {
    lr_mult: 2
    decay_mult: 0
  }
  convolution_param {
    num_output: 256
    pad: 1
    kernel_size: 3
    weight_filler {
      type: "msra"
    }
    bias_filler {
      type: "constant"
    }
  }
}
layer {
  name: "conv3_3_D_bn"
  type: "BN"
  bottom: "conv3_3_D"
  top: "conv3_3_D"
  param {
    lr_mult: 1
    decay_mult: 1
  }
  param {
    lr_mult: 1
    decay_mult: 0
  }
  bn_param {
    scale_filler {
      type: "constant"
      value: 1
    }
    shift_filler {
      type: "constant"
      value: 0.001
    }
  }
}
layer {
  name: "relu3_3_D"
  type: "ReLU"
  bottom: "conv3_3_D"
  top: "conv3_3_D"
}
layer {
  name: "conv3_2_D"
  type: "Convolution"
  bottom: "conv3_3_D"
  top: "conv3_2_D"
  param {
    lr_mult: 1
    decay_mult: 1
  }
  param {
    lr_mult: 2
    decay_mult: 0
  }
  convolution_param {
    num_output: 256
    pad: 1
    kernel_size: 3
    weight_filler {
      type: "msra"
    }
    bias_filler {
      type: "constant"
    }
  }
}
layer {
  name: "conv3_2_D_bn"
  type: "BN"
  bottom: "conv3_2_D"
  top: "conv3_2_D"
  param {
    lr_mult: 1
    decay_mult: 1
  }
  param {
    lr_mult: 1
    decay_mult: 0
  }
  bn_param {
    scale_filler {
      type: "constant"
      value: 1
    }
    shift_filler {
      type: "constant"
      value: 0.001
    }
  }
}
layer {
  name: "relu3_2_D"
  type: "ReLU"
  bottom: "conv3_2_D"
  top: "conv3_2_D"
}
layer {
  name: "conv3_1_D"
  type: "Convolution"
  bottom: "conv3_2_D"
  top: "conv3_1_D"
  param {
    lr_mult: 1
    decay_mult: 1
  }
  param {
    lr_mult: 2
    decay_mult: 0
  }
  convolution_param {
    num_output: 128
    pad: 1
    kernel_size: 3
    weight_filler {
      type: "msra"
    }
    bias_filler {
      type: "constant"
    }
  }
}
layer {
  name: "conv3_1_D_bn"
  type: "BN"
  bottom: "conv3_1_D"
  top: "conv3_1_D"
  param {
    lr_mult: 1
    decay_mult: 1
  }
  param {
    lr_mult: 1
    decay_mult: 0
  }
  bn_param {
    scale_filler {
      type: "constant"
      value: 1
    }
    shift_filler {
      type: "constant"
      value: 0.001
    }
  }
}
layer {
  name: "relu3_1_D"
  type: "ReLU"
  bottom: "conv3_1_D"
  top: "conv3_1_D"
}
layer {
  name: "upsample2"
  type: "Upsample"
  bottom: "conv3_1_D"
  bottom: "pool2_mask"
  top: "pool2_D"
  upsample_param {
    scale: 2
  }
}
layer {
  name: "conv2_2_D"
  type: "Convolution"
  bottom: "pool2_D"
  top: "conv2_2_D"
  param {
    lr_mult: 1
    decay_mult: 1
  }
  param {
    lr_mult: 2
    decay_mult: 0
  }
  convolution_param {
    num_output: 128
    pad: 1
    kernel_size: 3
    weight_filler {
      type: "msra"
    }
    bias_filler {
      type: "constant"
    }
  }
}
layer {
  name: "conv2_2_D_bn"
  type: "BN"
  bottom: "conv2_2_D"
  top: "conv2_2_D"
  param {
    lr_mult: 1
    decay_mult: 1
  }
  param {
    lr_mult: 1
    decay_mult: 0
  }
  bn_param {
    scale_filler {
      type: "constant"
      value: 1
    }
    shift_filler {
      type: "constant"
      value: 0.001
    }
  }
}
layer {
  name: "relu2_2_D"
  type: "ReLU"
  bottom: "conv2_2_D"
  top: "conv2_2_D"
}
layer {
  name: "conv2_1_D"
  type: "Convolution"
  bottom: "conv2_2_D"
  top: "conv2_1_D"
  param {
    lr_mult: 1
    decay_mult: 1
  }
  param {
    lr_mult: 2
    decay_mult: 0
  }
  convolution_param {
    num_output: 64
    pad: 1
    kernel_size: 3
    weight_filler {
      type: "msra"
    }
    bias_filler {
      type: "constant"
    }
  }
}
layer {
  name: "conv2_1_D_bn"
  type: "BN"
  bottom: "conv2_1_D"
  top: "conv2_1_D"
  param {
    lr_mult: 1
    decay_mult: 1
  }
  param {
    lr_mult: 1
    decay_mult: 0
  }
  bn_param {
    scale_filler {
      type: "constant"
      value: 1
    }
    shift_filler {
      type: "constant"
      value: 0.001
    }
  }
}
layer {
  name: "relu2_1_D"
  type: "ReLU"
  bottom: "conv2_1_D"
  top: "conv2_1_D"
}
layer {
  name: "upsample1"
  type: "Upsample"
  bottom: "conv2_1_D"
  bottom: "pool1_mask"
  top: "pool1_D"
  upsample_param {
    scale: 2
  }
}
layer {
  name: "conv1_2_D"
  type: "Convolution"
  bottom: "pool1_D"
  top: "conv1_2_D"
  param {
    lr_mult: 1
    decay_mult: 1
  }
  param {
    lr_mult: 2
    decay_mult: 0
  }
  convolution_param {
    num_output: 64
    pad: 1
    kernel_size: 3
    weight_filler {
      type: "msra"
    }
    bias_filler {
      type: "constant"
    }
  }
}
layer {
  name: "conv1_2_D_bn"
  type: "BN"
  bottom: "conv1_2_D"
  top: "conv1_2_D"
  param {
    lr_mult: 1
    decay_mult: 1
  }
  param {
    lr_mult: 1
    decay_mult: 0
  }
  bn_param {
    scale_filler {
      type: "constant"
      value: 1
    }
    shift_filler {
      type: "constant"
      value: 0.001
    }
  }
}
layer {
  name: "relu1_2_D"
  type: "ReLU"
  bottom: "conv1_2_D"
  top: "conv1_2_D"
}
layer {
  name: "conv1_1_D"
  type: "Convolution"
  bottom: "conv1_2_D"
  top: "conv1_1_D"
  param {
    lr_mult: 1
    decay_mult: 1
  }
  param {
    lr_mult: 2
    decay_mult: 0
  }
  convolution_param {
    num_output: 4
    pad: 1
    kernel_size: 3
    weight_filler {
      type: "msra"
    }
    bias_filler {
      type: "constant"
    }
  }
}
layer {
  name: "loss"
  type: "SoftmaxWithLoss"
  bottom: "conv1_1_D"
  bottom: "label"
  top: "loss"
  loss_param {
    ignore_label: 11
    weight_by_label_freqs: true
    class_weighting: 0.2595
    class_weighting: 0.1826
    class_weighting: 4.564
    class_weighting: 7.1417
  }
  softmax_param {
    engine: CAFFE
  }
}
layer {
  name: "accuracy"
  type: "Accuracy"
  bottom: "conv1_1_D"
  bottom: "label"
  top: "accuracy"
  top: "per_class_accuracy"
}
I0331 15:27:51.995337 15916 layer_factory.hpp:74] Creating layer data
I0331 15:27:51.997963 15916 net.cpp:90] Creating Layer data
I0331 15:27:51.998392 15916 net.cpp:368] data -> data
I0331 15:27:51.998653 15916 net.cpp:368] data -> label
I0331 15:27:51.998988 15916 net.cpp:120] Setting up data
I0331 15:27:51.999238 15916 dense_image_data_layer.cpp:41] Opening file /SegNet_copy/AnhLua/train.txt
I0331 15:27:51.999831 15916 dense_image_data_layer.cpp:51] Shuffling data
I0331 15:27:52.001634 15916 dense_image_data_layer.cpp:56] A total of 103 examples.
I0331 15:27:52.012145 15916 dense_image_data_layer.cpp:109] output data size: 12,3,360,480
I0331 15:27:52.012625 15916 net.cpp:127] Top shape: 12 3 360 480 (6220800)
I0331 15:27:52.012688 15916 net.cpp:127] Top shape: 12 1 360 480 (2073600)
I0331 15:27:52.012953 15916 layer_factory.hpp:74] Creating layer label_data_1_split
I0331 15:27:52.013008 15916 net.cpp:90] Creating Layer label_data_1_split
I0331 15:27:52.013061 15916 net.cpp:410] label_data_1_split <- label
I0331 15:27:52.013133 15916 net.cpp:368] label_data_1_split -> label_data_1_split_0
I0331 15:27:52.013202 15916 net.cpp:368] label_data_1_split -> label_data_1_split_1
I0331 15:27:52.013280 15916 net.cpp:120] Setting up label_data_1_split
I0331 15:27:52.013350 15916 net.cpp:127] Top shape: 12 1 360 480 (2073600)
I0331 15:27:52.013429 15916 net.cpp:127] Top shape: 12 1 360 480 (2073600)
I0331 15:27:52.013474 15916 layer_factory.hpp:74] Creating layer conv1_1
I0331 15:27:52.013558 15916 net.cpp:90] Creating Layer conv1_1
I0331 15:27:52.013607 15916 net.cpp:410] conv1_1 <- data
I0331 15:27:52.013656 15916 net.cpp:368] conv1_1 -> conv1_1
I0331 15:27:52.013730 15916 net.cpp:120] Setting up conv1_1
I0331 15:27:52.014892 15916 net.cpp:127] Top shape: 12 64 360 480 (132710400)
I0331 15:27:52.014974 15916 layer_factory.hpp:74] Creating layer conv1_1_bn
I0331 15:27:52.015051 15916 net.cpp:90] Creating Layer conv1_1_bn
I0331 15:27:52.015122 15916 net.cpp:410] conv1_1_bn <- conv1_1
I0331 15:27:52.015182 15916 net.cpp:357] conv1_1_bn -> conv1_1 (in-place)
I0331 15:27:52.015300 15916 net.cpp:120] Setting up conv1_1_bn
I0331 15:27:52.017446 15916 net.cpp:127] Top shape: 12 64 360 480 (132710400)
I0331 15:27:52.017519 15916 layer_factory.hpp:74] Creating layer relu1_1
I0331 15:27:52.017614 15916 net.cpp:90] Creating Layer relu1_1
I0331 15:27:52.017665 15916 net.cpp:410] relu1_1 <- conv1_1
I0331 15:27:52.017721 15916 net.cpp:357] relu1_1 -> conv1_1 (in-place)
I0331 15:27:52.017776 15916 net.cpp:120] Setting up relu1_1
I0331 15:27:52.017834 15916 net.cpp:127] Top shape: 12 64 360 480 (132710400)
I0331 15:27:52.017880 15916 layer_factory.hpp:74] Creating layer conv1_2
I0331 15:27:52.017940 15916 net.cpp:90] Creating Layer conv1_2
I0331 15:27:52.017988 15916 net.cpp:410] conv1_2 <- conv1_1
I0331 15:27:52.018046 15916 net.cpp:368] conv1_2 -> conv1_2
I0331 15:27:52.018107 15916 net.cpp:120] Setting up conv1_2
I0331 15:27:52.021003 15916 net.cpp:127] Top shape: 12 64 360 480 (132710400)
I0331 15:27:52.021085 15916 layer_factory.hpp:74] Creating layer conv1_2_bn
I0331 15:27:52.021139 15916 net.cpp:90] Creating Layer conv1_2_bn
I0331 15:27:52.021186 15916 net.cpp:410] conv1_2_bn <- conv1_2
I0331 15:27:52.021252 15916 net.cpp:357] conv1_2_bn -> conv1_2 (in-place)
I0331 15:27:52.021314 15916 net.cpp:120] Setting up conv1_2_bn
I0331 15:27:52.023532 15916 net.cpp:127] Top shape: 12 64 360 480 (132710400)
I0331 15:27:52.023618 15916 layer_factory.hpp:74] Creating layer relu1_2
I0331 15:27:52.023666 15916 net.cpp:90] Creating Layer relu1_2
I0331 15:27:52.023703 15916 net.cpp:410] relu1_2 <- conv1_2
I0331 15:27:52.023752 15916 net.cpp:357] relu1_2 -> conv1_2 (in-place)
I0331 15:27:52.023795 15916 net.cpp:120] Setting up relu1_2
I0331 15:27:52.023850 15916 net.cpp:127] Top shape: 12 64 360 480 (132710400)
I0331 15:27:52.023898 15916 layer_factory.hpp:74] Creating layer pool1
I0331 15:27:52.023944 15916 net.cpp:90] Creating Layer pool1
I0331 15:27:52.023979 15916 net.cpp:410] pool1 <- conv1_2
I0331 15:27:52.024027 15916 net.cpp:368] pool1 -> pool1
I0331 15:27:52.024080 15916 net.cpp:368] pool1 -> pool1_mask
I0331 15:27:52.024142 15916 net.cpp:120] Setting up pool1
I0331 15:27:52.024204 15916 net.cpp:127] Top shape: 12 64 180 240 (33177600)
I0331 15:27:52.024255 15916 net.cpp:127] Top shape: 12 64 180 240 (33177600)
I0331 15:27:52.024288 15916 layer_factory.hpp:74] Creating layer conv2_1
I0331 15:27:52.024333 15916 net.cpp:90] Creating Layer conv2_1
I0331 15:27:52.024380 15916 net.cpp:410] conv2_1 <- pool1
I0331 15:27:52.024417 15916 net.cpp:368] conv2_1 -> conv2_1
I0331 15:27:52.024519 15916 net.cpp:120] Setting up conv2_1
I0331 15:27:52.028771 15916 net.cpp:127] Top shape: 12 128 180 240 (66355200)
I0331 15:27:52.028851 15916 layer_factory.hpp:74] Creating layer conv2_1_bn
I0331 15:27:52.028900 15916 net.cpp:90] Creating Layer conv2_1_bn
I0331 15:27:52.028936 15916 net.cpp:410] conv2_1_bn <- conv2_1
I0331 15:27:52.028986 15916 net.cpp:357] conv2_1_bn -> conv2_1 (in-place)
I0331 15:27:52.029033 15916 net.cpp:120] Setting up conv2_1_bn
I0331 15:27:52.029602 15916 net.cpp:127] Top shape: 12 128 180 240 (66355200)
I0331 15:27:52.029660 15916 layer_factory.hpp:74] Creating layer relu2_1
I0331 15:27:52.030045 15916 net.cpp:90] Creating Layer relu2_1
I0331 15:27:52.030078 15916 net.cpp:410] relu2_1 <- conv2_1
I0331 15:27:52.030124 15916 net.cpp:357] relu2_1 -> conv2_1 (in-place)
I0331 15:27:52.030165 15916 net.cpp:120] Setting up relu2_1
I0331 15:27:52.030205 15916 net.cpp:127] Top shape: 12 128 180 240 (66355200)
I0331 15:27:52.030236 15916 layer_factory.hpp:74] Creating layer conv2_2
I0331 15:27:52.030272 15916 net.cpp:90] Creating Layer conv2_2
I0331 15:27:52.030303 15916 net.cpp:410] conv2_2 <- conv2_1
I0331 15:27:52.030351 15916 net.cpp:368] conv2_2 -> conv2_2
I0331 15:27:52.030396 15916 net.cpp:120] Setting up conv2_2
I0331 15:27:52.037420 15916 net.cpp:127] Top shape: 12 128 180 240 (66355200)
I0331 15:27:52.037490 15916 layer_factory.hpp:74] Creating layer conv2_2_bn
I0331 15:27:52.037545 15916 net.cpp:90] Creating Layer conv2_2_bn
I0331 15:27:52.037598 15916 net.cpp:410] conv2_2_bn <- conv2_2
I0331 15:27:52.037642 15916 net.cpp:357] conv2_2_bn -> conv2_2 (in-place)
I0331 15:27:52.037698 15916 net.cpp:120] Setting up conv2_2_bn
I0331 15:27:52.038889 15916 net.cpp:127] Top shape: 12 128 180 240 (66355200)
I0331 15:27:52.038997 15916 layer_factory.hpp:74] Creating layer relu2_2
I0331 15:27:52.039043 15916 net.cpp:90] Creating Layer relu2_2
I0331 15:27:52.039077 15916 net.cpp:410] relu2_2 <- conv2_2
I0331 15:27:52.039115 15916 net.cpp:357] relu2_2 -> conv2_2 (in-place)
I0331 15:27:52.039155 15916 net.cpp:120] Setting up relu2_2
I0331 15:27:52.039194 15916 net.cpp:127] Top shape: 12 128 180 240 (66355200)
I0331 15:27:52.039227 15916 layer_factory.hpp:74] Creating layer pool2
I0331 15:27:52.039264 15916 net.cpp:90] Creating Layer pool2
I0331 15:27:52.039295 15916 net.cpp:410] pool2 <- conv2_2
I0331 15:27:52.039332 15916 net.cpp:368] pool2 -> pool2
I0331 15:27:52.039376 15916 net.cpp:368] pool2 -> pool2_mask
I0331 15:27:52.039417 15916 net.cpp:120] Setting up pool2
I0331 15:27:52.039463 15916 net.cpp:127] Top shape: 12 128 90 120 (16588800)
I0331 15:27:52.039500 15916 net.cpp:127] Top shape: 12 128 90 120 (16588800)
I0331 15:27:52.039523 15916 layer_factory.hpp:74] Creating layer conv3_1
I0331 15:27:52.039592 15916 net.cpp:90] Creating Layer conv3_1
I0331 15:27:52.039626 15916 net.cpp:410] conv3_1 <- pool2
I0331 15:27:52.039667 15916 net.cpp:368] conv3_1 -> conv3_1
I0331 15:27:52.039710 15916 net.cpp:120] Setting up conv3_1
I0331 15:27:52.053103 15916 net.cpp:127] Top shape: 12 256 90 120 (33177600)
I0331 15:27:52.053176 15916 layer_factory.hpp:74] Creating layer conv3_1_bn
I0331 15:27:52.053230 15916 net.cpp:90] Creating Layer conv3_1_bn
I0331 15:27:52.053262 15916 net.cpp:410] conv3_1_bn <- conv3_1
I0331 15:27:52.053314 15916 net.cpp:357] conv3_1_bn -> conv3_1 (in-place)
I0331 15:27:52.053359 15916 net.cpp:120] Setting up conv3_1_bn
I0331 15:27:52.053549 15916 net.cpp:127] Top shape: 12 256 90 120 (33177600)
I0331 15:27:52.053601 15916 layer_factory.hpp:74] Creating layer relu3_1
I0331 15:27:52.053639 15916 net.cpp:90] Creating Layer relu3_1
I0331 15:27:52.053695 15916 net.cpp:410] relu3_1 <- conv3_1
I0331 15:27:52.053731 15916 net.cpp:357] relu3_1 -> conv3_1 (in-place)
I0331 15:27:52.053767 15916 net.cpp:120] Setting up relu3_1
I0331 15:27:52.053807 15916 net.cpp:127] Top shape: 12 256 90 120 (33177600)
I0331 15:27:52.053836 15916 layer_factory.hpp:74] Creating layer conv3_2
I0331 15:27:52.053875 15916 net.cpp:90] Creating Layer conv3_2
I0331 15:27:52.053905 15916 net.cpp:410] conv3_2 <- conv3_1
I0331 15:27:52.053944 15916 net.cpp:368] conv3_2 -> conv3_2
I0331 15:27:52.053990 15916 net.cpp:120] Setting up conv3_2
I0331 15:27:52.080796 15916 net.cpp:127] Top shape: 12 256 90 120 (33177600)
I0331 15:27:52.080870 15916 layer_factory.hpp:74] Creating layer conv3_2_bn
I0331 15:27:52.080924 15916 net.cpp:90] Creating Layer conv3_2_bn
I0331 15:27:52.080958 15916 net.cpp:410] conv3_2_bn <- conv3_2
I0331 15:27:52.081006 15916 net.cpp:357] conv3_2_bn -> conv3_2 (in-place)
I0331 15:27:52.081049 15916 net.cpp:120] Setting up conv3_2_bn
I0331 15:27:52.081244 15916 net.cpp:127] Top shape: 12 256 90 120 (33177600)
I0331 15:27:52.081297 15916 layer_factory.hpp:74] Creating layer relu3_2
I0331 15:27:52.081336 15916 net.cpp:90] Creating Layer relu3_2
I0331 15:27:52.081374 15916 net.cpp:410] relu3_2 <- conv3_2
I0331 15:27:52.081449 15916 net.cpp:357] relu3_2 -> conv3_2 (in-place)
I0331 15:27:52.081496 15916 net.cpp:120] Setting up relu3_2
I0331 15:27:52.081537 15916 net.cpp:127] Top shape: 12 256 90 120 (33177600)
I0331 15:27:52.081567 15916 layer_factory.hpp:74] Creating layer conv3_3
I0331 15:27:52.081607 15916 net.cpp:90] Creating Layer conv3_3
I0331 15:27:52.081639 15916 net.cpp:410] conv3_3 <- conv3_2
I0331 15:27:52.081684 15916 net.cpp:368] conv3_3 -> conv3_3
I0331 15:27:52.081728 15916 net.cpp:120] Setting up conv3_3
I0331 15:27:52.100605 15916 net.cpp:127] Top shape: 12 256 90 120 (33177600)
I0331 15:27:52.100680 15916 layer_factory.hpp:74] Creating layer conv3_3_bn
I0331 15:27:52.100729 15916 net.cpp:90] Creating Layer conv3_3_bn
I0331 15:27:52.100749 15916 net.cpp:410] conv3_3_bn <- conv3_3
I0331 15:27:52.100775 15916 net.cpp:357] conv3_3_bn -> conv3_3 (in-place)
I0331 15:27:52.100800 15916 net.cpp:120] Setting up conv3_3_bn
I0331 15:27:52.100956 15916 net.cpp:127] Top shape: 12 256 90 120 (33177600)
I0331 15:27:52.101003 15916 layer_factory.hpp:74] Creating layer relu3_3
I0331 15:27:52.101027 15916 net.cpp:90] Creating Layer relu3_3
I0331 15:27:52.101042 15916 net.cpp:410] relu3_3 <- conv3_3
I0331 15:27:52.101073 15916 net.cpp:357] relu3_3 -> conv3_3 (in-place)
I0331 15:27:52.101096 15916 net.cpp:120] Setting up relu3_3
I0331 15:27:52.101117 15916 net.cpp:127] Top shape: 12 256 90 120 (33177600)
I0331 15:27:52.101138 15916 layer_factory.hpp:74] Creating layer pool3
I0331 15:27:52.101161 15916 net.cpp:90] Creating Layer pool3
I0331 15:27:52.101182 15916 net.cpp:410] pool3 <- conv3_3
I0331 15:27:52.101204 15916 net.cpp:368] pool3 -> pool3
I0331 15:27:52.101233 15916 net.cpp:368] pool3 -> pool3_mask
I0331 15:27:52.101266 15916 net.cpp:120] Setting up pool3
I0331 15:27:52.101303 15916 net.cpp:127] Top shape: 12 256 45 60 (8294400)
I0331 15:27:52.101326 15916 net.cpp:127] Top shape: 12 256 45 60 (8294400)
I0331 15:27:52.101347 15916 layer_factory.hpp:74] Creating layer conv4_1
I0331 15:27:52.101372 15916 net.cpp:90] Creating Layer conv4_1
I0331 15:27:52.101395 15916 net.cpp:410] conv4_1 <- pool3
I0331 15:27:52.101418 15916 net.cpp:368] conv4_1 -> conv4_1
I0331 15:27:52.101455 15916 net.cpp:120] Setting up conv4_1
I0331 15:27:52.135372 15916 net.cpp:127] Top shape: 12 512 45 60 (16588800)
I0331 15:27:52.135450 15916 layer_factory.hpp:74] Creating layer conv4_1_bn
I0331 15:27:52.135490 15916 net.cpp:90] Creating Layer conv4_1_bn
I0331 15:27:52.135510 15916 net.cpp:410] conv4_1_bn <- conv4_1
I0331 15:27:52.135534 15916 net.cpp:357] conv4_1_bn -> conv4_1 (in-place)
I0331 15:27:52.135562 15916 net.cpp:120] Setting up conv4_1_bn
I0331 15:27:52.135623 15916 net.cpp:127] Top shape: 12 512 45 60 (16588800)
I0331 15:27:52.135663 15916 layer_factory.hpp:74] Creating layer relu4_1
I0331 15:27:52.135689 15916 net.cpp:90] Creating Layer relu4_1
I0331 15:27:52.135710 15916 net.cpp:410] relu4_1 <- conv4_1
I0331 15:27:52.135735 15916 net.cpp:357] relu4_1 -> conv4_1 (in-place)
I0331 15:27:52.135761 15916 net.cpp:120] Setting up relu4_1
I0331 15:27:52.135789 15916 net.cpp:127] Top shape: 12 512 45 60 (16588800)
I0331 15:27:52.135807 15916 layer_factory.hpp:74] Creating layer conv4_2
I0331 15:27:52.135833 15916 net.cpp:90] Creating Layer conv4_2
I0331 15:27:52.135849 15916 net.cpp:410] conv4_2 <- conv4_1
I0331 15:27:52.135879 15916 net.cpp:368] conv4_2 -> conv4_2
I0331 15:27:52.135902 15916 net.cpp:120] Setting up conv4_2
I0331 15:27:52.176295 15916 net.cpp:127] Top shape: 12 512 45 60 (16588800)
I0331 15:27:52.176362 15916 layer_factory.hpp:74] Creating layer conv4_2_bn
I0331 15:27:52.176383 15916 net.cpp:90] Creating Layer conv4_2_bn
I0331 15:27:52.176393 15916 net.cpp:410] conv4_2_bn <- conv4_2
I0331 15:27:52.176409 15916 net.cpp:357] conv4_2_bn -> conv4_2 (in-place)
I0331 15:27:52.176424 15916 net.cpp:120] Setting up conv4_2_bn
I0331 15:27:52.176457 15916 net.cpp:127] Top shape: 12 512 45 60 (16588800)
I0331 15:27:52.176471 15916 layer_factory.hpp:74] Creating layer relu4_2
I0331 15:27:52.176497 15916 net.cpp:90] Creating Layer relu4_2
I0331 15:27:52.176508 15916 net.cpp:410] relu4_2 <- conv4_2
I0331 15:27:52.176535 15916 net.cpp:357] relu4_2 -> conv4_2 (in-place)
I0331 15:27:52.176554 15916 net.cpp:120] Setting up relu4_2
I0331 15:27:52.176566 15916 net.cpp:127] Top shape: 12 512 45 60 (16588800)
I0331 15:27:52.176574 15916 layer_factory.hpp:74] Creating layer conv4_3
I0331 15:27:52.176595 15916 net.cpp:90] Creating Layer conv4_3
I0331 15:27:52.176617 15916 net.cpp:410] conv4_3 <- conv4_2
I0331 15:27:52.176631 15916 net.cpp:368] conv4_3 -> conv4_3
I0331 15:27:52.176647 15916 net.cpp:120] Setting up conv4_3
I0331 15:27:52.225515 15916 net.cpp:127] Top shape: 12 512 45 60 (16588800)
I0331 15:27:52.225565 15916 layer_factory.hpp:74] Creating layer conv4_3_bn
I0331 15:27:52.225594 15916 net.cpp:90] Creating Layer conv4_3_bn
I0331 15:27:52.225605 15916 net.cpp:410] conv4_3_bn <- conv4_3
I0331 15:27:52.225617 15916 net.cpp:357] conv4_3_bn -> conv4_3 (in-place)
I0331 15:27:52.225644 15916 net.cpp:120] Setting up conv4_3_bn
I0331 15:27:52.225677 15916 net.cpp:127] Top shape: 12 512 45 60 (16588800)
I0331 15:27:52.225697 15916 layer_factory.hpp:74] Creating layer relu4_3
I0331 15:27:52.225708 15916 net.cpp:90] Creating Layer relu4_3
I0331 15:27:52.225716 15916 net.cpp:410] relu4_3 <- conv4_3
I0331 15:27:52.225728 15916 net.cpp:357] relu4_3 -> conv4_3 (in-place)
I0331 15:27:52.225742 15916 net.cpp:120] Setting up relu4_3
I0331 15:27:52.225754 15916 net.cpp:127] Top shape: 12 512 45 60 (16588800)
I0331 15:27:52.225764 15916 layer_factory.hpp:74] Creating layer pool4
I0331 15:27:52.225775 15916 net.cpp:90] Creating Layer pool4
I0331 15:27:52.225785 15916 net.cpp:410] pool4 <- conv4_3
I0331 15:27:52.225795 15916 net.cpp:368] pool4 -> pool4
I0331 15:27:52.225808 15916 net.cpp:368] pool4 -> pool4_mask
I0331 15:27:52.225821 15916 net.cpp:120] Setting up pool4
I0331 15:27:52.225837 15916 net.cpp:127] Top shape: 12 512 23 30 (4239360)
I0331 15:27:52.225853 15916 net.cpp:127] Top shape: 12 512 23 30 (4239360)
I0331 15:27:52.225862 15916 layer_factory.hpp:74] Creating layer conv5_1
I0331 15:27:52.225875 15916 net.cpp:90] Creating Layer conv5_1
I0331 15:27:52.225888 15916 net.cpp:410] conv5_1 <- pool4
I0331 15:27:52.225903 15916 net.cpp:368] conv5_1 -> conv5_1
I0331 15:27:52.225919 15916 net.cpp:120] Setting up conv5_1
I0331 15:27:52.255853 15916 net.cpp:127] Top shape: 12 512 23 30 (4239360)
I0331 15:27:52.255897 15916 layer_factory.hpp:74] Creating layer conv5_1_bn
I0331 15:27:52.255915 15916 net.cpp:90] Creating Layer conv5_1_bn
I0331 15:27:52.255925 15916 net.cpp:410] conv5_1_bn <- conv5_1
I0331 15:27:52.255935 15916 net.cpp:357] conv5_1_bn -> conv5_1 (in-place)
I0331 15:27:52.255946 15916 net.cpp:120] Setting up conv5_1_bn
I0331 15:27:52.255975 15916 net.cpp:127] Top shape: 12 512 23 30 (4239360)
I0331 15:27:52.255990 15916 layer_factory.hpp:74] Creating layer relu5_1
I0331 15:27:52.256000 15916 net.cpp:90] Creating Layer relu5_1
I0331 15:27:52.256008 15916 net.cpp:410] relu5_1 <- conv5_1
I0331 15:27:52.256017 15916 net.cpp:357] relu5_1 -> conv5_1 (in-place)
I0331 15:27:52.256027 15916 net.cpp:120] Setting up relu5_1
I0331 15:27:52.256039 15916 net.cpp:127] Top shape: 12 512 23 30 (4239360)
I0331 15:27:52.256047 15916 layer_factory.hpp:74] Creating layer conv5_2
I0331 15:27:52.256060 15916 net.cpp:90] Creating Layer conv5_2
I0331 15:27:52.256072 15916 net.cpp:410] conv5_2 <- conv5_1
I0331 15:27:52.256084 15916 net.cpp:368] conv5_2 -> conv5_2
I0331 15:27:52.256103 15916 net.cpp:120] Setting up conv5_2
I0331 15:27:52.317353 15916 net.cpp:127] Top shape: 12 512 23 30 (4239360)
I0331 15:27:52.317445 15916 layer_factory.hpp:74] Creating layer conv5_2_bn
I0331 15:27:52.317489 15916 net.cpp:90] Creating Layer conv5_2_bn
I0331 15:27:52.317504 15916 net.cpp:410] conv5_2_bn <- conv5_2
I0331 15:27:52.317528 15916 net.cpp:357] conv5_2_bn -> conv5_2 (in-place)
I0331 15:27:52.317548 15916 net.cpp:120] Setting up conv5_2_bn
I0331 15:27:52.317595 15916 net.cpp:127] Top shape: 12 512 23 30 (4239360)
I0331 15:27:52.317620 15916 layer_factory.hpp:74] Creating layer relu5_2
I0331 15:27:52.317638 15916 net.cpp:90] Creating Layer relu5_2
I0331 15:27:52.317659 15916 net.cpp:410] relu5_2 <- conv5_2
I0331 15:27:52.317679 15916 net.cpp:357] relu5_2 -> conv5_2 (in-place)
I0331 15:27:52.317704 15916 net.cpp:120] Setting up relu5_2
I0331 15:27:52.317723 15916 net.cpp:127] Top shape: 12 512 23 30 (4239360)
I0331 15:27:52.317739 15916 layer_factory.hpp:74] Creating layer conv5_3
I0331 15:27:52.317757 15916 net.cpp:90] Creating Layer conv5_3
I0331 15:27:52.317770 15916 net.cpp:410] conv5_3 <- conv5_2
I0331 15:27:52.317786 15916 net.cpp:368] conv5_3 -> conv5_3
I0331 15:27:52.317813 15916 net.cpp:120] Setting up conv5_3
I0331 15:27:52.381801 15916 net.cpp:127] Top shape: 12 512 23 30 (4239360)
I0331 15:27:52.381912 15916 layer_factory.hpp:74] Creating layer conv5_3_bn
I0331 15:27:52.381939 15916 net.cpp:90] Creating Layer conv5_3_bn
I0331 15:27:52.381953 15916 net.cpp:410] conv5_3_bn <- conv5_3
I0331 15:27:52.382107 15916 net.cpp:357] conv5_3_bn -> conv5_3 (in-place)
I0331 15:27:52.382139 15916 net.cpp:120] Setting up conv5_3_bn
I0331 15:27:52.382200 15916 net.cpp:127] Top shape: 12 512 23 30 (4239360)
I0331 15:27:52.382236 15916 layer_factory.hpp:74] Creating layer relu5_3
I0331 15:27:52.382257 15916 net.cpp:90] Creating Layer relu5_3
I0331 15:27:52.382279 15916 net.cpp:410] relu5_3 <- conv5_3
I0331 15:27:52.382300 15916 net.cpp:357] relu5_3 -> conv5_3 (in-place)
I0331 15:27:52.382319 15916 net.cpp:120] Setting up relu5_3
I0331 15:27:52.382345 15916 net.cpp:127] Top shape: 12 512 23 30 (4239360)
I0331 15:27:52.382362 15916 layer_factory.hpp:74] Creating layer pool5
I0331 15:27:52.382388 15916 net.cpp:90] Creating Layer pool5
I0331 15:27:52.382411 15916 net.cpp:410] pool5 <- conv5_3
I0331 15:27:52.382433 15916 net.cpp:368] pool5 -> pool5
I0331 15:27:52.382459 15916 net.cpp:368] pool5 -> pool5_mask
I0331 15:27:52.382500 15916 net.cpp:120] Setting up pool5
I0331 15:27:52.382549 15916 net.cpp:127] Top shape: 12 512 12 15 (1105920)
I0331 15:27:52.382586 15916 net.cpp:127] Top shape: 12 512 12 15 (1105920)
I0331 15:27:52.382603 15916 layer_factory.hpp:74] Creating layer upsample5
I0331 15:27:52.382633 15916 net.cpp:90] Creating Layer upsample5
I0331 15:27:52.382663 15916 net.cpp:410] upsample5 <- pool5
I0331 15:27:52.382695 15916 net.cpp:410] upsample5 <- pool5_mask
I0331 15:27:52.382756 15916 net.cpp:368] upsample5 -> pool5_D
I0331 15:27:52.382799 15916 net.cpp:120] Setting up upsample5
I0331 15:27:52.382838 15916 net.cpp:127] Top shape: 12 512 23 30 (4239360)
I0331 15:27:52.382875 15916 layer_factory.hpp:74] Creating layer conv5_3_D
I0331 15:27:52.382921 15916 net.cpp:90] Creating Layer conv5_3_D
I0331 15:27:52.382964 15916 net.cpp:410] conv5_3_D <- pool5_D
I0331 15:27:52.383005 15916 net.cpp:368] conv5_3_D -> conv5_3_D
I0331 15:27:52.383049 15916 net.cpp:120] Setting up conv5_3_D
I0331 15:27:52.439234 15916 net.cpp:127] Top shape: 12 512 23 30 (4239360)
I0331 15:27:52.439297 15916 layer_factory.hpp:74] Creating layer conv5_3_D_bn
I0331 15:27:52.439338 15916 net.cpp:90] Creating Layer conv5_3_D_bn
I0331 15:27:52.439357 15916 net.cpp:410] conv5_3_D_bn <- conv5_3_D
I0331 15:27:52.439376 15916 net.cpp:357] conv5_3_D_bn -> conv5_3_D (in-place)
I0331 15:27:52.439398 15916 net.cpp:120] Setting up conv5_3_D_bn
I0331 15:27:52.439450 15916 net.cpp:127] Top shape: 12 512 23 30 (4239360)
I0331 15:27:52.439476 15916 layer_factory.hpp:74] Creating layer relu5_3_D
I0331 15:27:52.439501 15916 net.cpp:90] Creating Layer relu5_3_D
I0331 15:27:52.439517 15916 net.cpp:410] relu5_3_D <- conv5_3_D
I0331 15:27:52.439532 15916 net.cpp:357] relu5_3_D -> conv5_3_D (in-place)
I0331 15:27:52.439550 15916 net.cpp:120] Setting up relu5_3_D
I0331 15:27:52.439574 15916 net.cpp:127] Top shape: 12 512 23 30 (4239360)
I0331 15:27:52.439587 15916 layer_factory.hpp:74] Creating layer conv5_2_D
I0331 15:27:52.439613 15916 net.cpp:90] Creating Layer conv5_2_D
I0331 15:27:52.439659 15916 net.cpp:410] conv5_2_D <- conv5_3_D
I0331 15:27:52.439713 15916 net.cpp:368] conv5_2_D -> conv5_2_D
I0331 15:27:52.439764 15916 net.cpp:120] Setting up conv5_2_D
I0331 15:27:52.497915 15916 net.cpp:127] Top shape: 12 512 23 30 (4239360)
I0331 15:27:52.498008 15916 layer_factory.hpp:74] Creating layer conv5_2_D_bn
I0331 15:27:52.498042 15916 net.cpp:90] Creating Layer conv5_2_D_bn
I0331 15:27:52.498060 15916 net.cpp:410] conv5_2_D_bn <- conv5_2_D
I0331 15:27:52.498100 15916 net.cpp:357] conv5_2_D_bn -> conv5_2_D (in-place)
I0331 15:27:52.498144 15916 net.cpp:120] Setting up conv5_2_D_bn
I0331 15:27:52.498250 15916 net.cpp:127] Top shape: 12 512 23 30 (4239360)
I0331 15:27:52.498350 15916 layer_factory.hpp:74] Creating layer relu5_2_D
I0331 15:27:52.498394 15916 net.cpp:90] Creating Layer relu5_2_D
I0331 15:27:52.498443 15916 net.cpp:410] relu5_2_D <- conv5_2_D
I0331 15:27:52.498517 15916 net.cpp:357] relu5_2_D -> conv5_2_D (in-place)
I0331 15:27:52.498558 15916 net.cpp:120] Setting up relu5_2_D
I0331 15:27:52.498605 15916 net.cpp:127] Top shape: 12 512 23 30 (4239360)
I0331 15:27:52.498680 15916 layer_factory.hpp:74] Creating layer conv5_1_D
I0331 15:27:52.498735 15916 net.cpp:90] Creating Layer conv5_1_D
I0331 15:27:52.498801 15916 net.cpp:410] conv5_1_D <- conv5_2_D
I0331 15:27:52.498864 15916 net.cpp:368] conv5_1_D -> conv5_1_D
I0331 15:27:52.498942 15916 net.cpp:120] Setting up conv5_1_D
I0331 15:27:52.562582 15916 net.cpp:127] Top shape: 12 512 23 30 (4239360)
I0331 15:27:52.562654 15916 layer_factory.hpp:74] Creating layer conv5_1_D_bn
I0331 15:27:52.562685 15916 net.cpp:90] Creating Layer conv5_1_D_bn
I0331 15:27:52.562705 15916 net.cpp:410] conv5_1_D_bn <- conv5_1_D
I0331 15:27:52.562726 15916 net.cpp:357] conv5_1_D_bn -> conv5_1_D (in-place)
I0331 15:27:52.562757 15916 net.cpp:120] Setting up conv5_1_D_bn
I0331 15:27:52.562818 15916 net.cpp:127] Top shape: 12 512 23 30 (4239360)
I0331 15:27:52.562851 15916 layer_factory.hpp:74] Creating layer relu5_1_D
I0331 15:27:52.562875 15916 net.cpp:90] Creating Layer relu5_1_D
I0331 15:27:52.562891 15916 net.cpp:410] relu5_1_D <- conv5_1_D
I0331 15:27:52.562914 15916 net.cpp:357] relu5_1_D -> conv5_1_D (in-place)
I0331 15:27:52.562952 15916 net.cpp:120] Setting up relu5_1_D
I0331 15:27:52.562978 15916 net.cpp:127] Top shape: 12 512 23 30 (4239360)
I0331 15:27:52.562994 15916 layer_factory.hpp:74] Creating layer upsample4
I0331 15:27:52.563022 15916 net.cpp:90] Creating Layer upsample4
I0331 15:27:52.563040 15916 net.cpp:410] upsample4 <- conv5_1_D
I0331 15:27:52.563064 15916 net.cpp:410] upsample4 <- pool4_mask
I0331 15:27:52.563086 15916 net.cpp:368] upsample4 -> pool4_D
I0331 15:27:52.563109 15916 net.cpp:120] Setting up upsample4
I0331 15:27:52.563141 15916 net.cpp:127] Top shape: 12 512 45 60 (16588800)
I0331 15:27:52.563158 15916 layer_factory.hpp:74] Creating layer conv4_3_D
I0331 15:27:52.563181 15916 net.cpp:90] Creating Layer conv4_3_D
I0331 15:27:52.563204 15916 net.cpp:410] conv4_3_D <- pool4_D
I0331 15:27:52.563232 15916 net.cpp:368] conv4_3_D -> conv4_3_D
I0331 15:27:52.563271 15916 net.cpp:120] Setting up conv4_3_D
I0331 15:27:52.629405 15916 net.cpp:127] Top shape: 12 512 45 60 (16588800)
I0331 15:27:52.629518 15916 layer_factory.hpp:74] Creating layer conv4_3_D_bn
I0331 15:27:52.629559 15916 net.cpp:90] Creating Layer conv4_3_D_bn
I0331 15:27:52.629580 15916 net.cpp:410] conv4_3_D_bn <- conv4_3_D
I0331 15:27:52.629603 15916 net.cpp:357] conv4_3_D_bn -> conv4_3_D (in-place)
I0331 15:27:52.629628 15916 net.cpp:120] Setting up conv4_3_D_bn
I0331 15:27:52.629694 15916 net.cpp:127] Top shape: 12 512 45 60 (16588800)
I0331 15:27:52.629743 15916 layer_factory.hpp:74] Creating layer relu4_3_D
I0331 15:27:52.629768 15916 net.cpp:90] Creating Layer relu4_3_D
I0331 15:27:52.629791 15916 net.cpp:410] relu4_3_D <- conv4_3_D
I0331 15:27:52.629812 15916 net.cpp:357] relu4_3_D -> conv4_3_D (in-place)
I0331 15:27:52.629832 15916 net.cpp:120] Setting up relu4_3_D
I0331 15:27:52.629859 15916 net.cpp:127] Top shape: 12 512 45 60 (16588800)
I0331 15:27:52.629876 15916 layer_factory.hpp:74] Creating layer conv4_2_D
I0331 15:27:52.629906 15916 net.cpp:90] Creating Layer conv4_2_D
I0331 15:27:52.629923 15916 net.cpp:410] conv4_2_D <- conv4_3_D
I0331 15:27:52.629956 15916 net.cpp:368] conv4_2_D -> conv4_2_D
I0331 15:27:52.629981 15916 net.cpp:120] Setting up conv4_2_D
I0331 15:27:52.673444 15916 net.cpp:127] Top shape: 12 512 45 60 (16588800)
I0331 15:27:52.673485 15916 layer_factory.hpp:74] Creating layer conv4_2_D_bn
I0331 15:27:52.673502 15916 net.cpp:90] Creating Layer conv4_2_D_bn
I0331 15:27:52.673513 15916 net.cpp:410] conv4_2_D_bn <- conv4_2_D
I0331 15:27:52.673530 15916 net.cpp:357] conv4_2_D_bn -> conv4_2_D (in-place)
I0331 15:27:52.673549 15916 net.cpp:120] Setting up conv4_2_D_bn
I0331 15:27:52.673579 15916 net.cpp:127] Top shape: 12 512 45 60 (16588800)
I0331 15:27:52.673598 15916 layer_factory.hpp:74] Creating layer relu4_2_D
I0331 15:27:52.673619 15916 net.cpp:90] Creating Layer relu4_2_D
I0331 15:27:52.673636 15916 net.cpp:410] relu4_2_D <- conv4_2_D
I0331 15:27:52.673650 15916 net.cpp:357] relu4_2_D -> conv4_2_D (in-place)
I0331 15:27:52.673671 15916 net.cpp:120] Setting up relu4_2_D
I0331 15:27:52.673681 15916 net.cpp:127] Top shape: 12 512 45 60 (16588800)
I0331 15:27:52.673687 15916 layer_factory.hpp:74] Creating layer conv4_1_D
I0331 15:27:52.673698 15916 net.cpp:90] Creating Layer conv4_1_D
I0331 15:27:52.673705 15916 net.cpp:410] conv4_1_D <- conv4_2_D
I0331 15:27:52.673715 15916 net.cpp:368] conv4_1_D -> conv4_1_D
I0331 15:27:52.673729 15916 net.cpp:120] Setting up conv4_1_D
I0331 15:27:52.689102 15916 net.cpp:127] Top shape: 12 256 45 60 (8294400)
I0331 15:27:52.689133 15916 layer_factory.hpp:74] Creating layer conv4_1_D_bn
I0331 15:27:52.689160 15916 net.cpp:90] Creating Layer conv4_1_D_bn
I0331 15:27:52.689170 15916 net.cpp:410] conv4_1_D_bn <- conv4_1_D
I0331 15:27:52.689180 15916 net.cpp:357] conv4_1_D_bn -> conv4_1_D (in-place)
I0331 15:27:52.689191 15916 net.cpp:120] Setting up conv4_1_D_bn
I0331 15:27:52.689218 15916 net.cpp:127] Top shape: 12 256 45 60 (8294400)
I0331 15:27:52.689239 15916 layer_factory.hpp:74] Creating layer relu4_1_D
I0331 15:27:52.689252 15916 net.cpp:90] Creating Layer relu4_1_D
I0331 15:27:52.689260 15916 net.cpp:410] relu4_1_D <- conv4_1_D
I0331 15:27:52.689270 15916 net.cpp:357] relu4_1_D -> conv4_1_D (in-place)
I0331 15:27:52.689280 15916 net.cpp:120] Setting up relu4_1_D
I0331 15:27:52.689290 15916 net.cpp:127] Top shape: 12 256 45 60 (8294400)
I0331 15:27:52.689304 15916 layer_factory.hpp:74] Creating layer upsample3
I0331 15:27:52.689316 15916 net.cpp:90] Creating Layer upsample3
I0331 15:27:52.689323 15916 net.cpp:410] upsample3 <- conv4_1_D
I0331 15:27:52.689333 15916 net.cpp:410] upsample3 <- pool3_mask
I0331 15:27:52.689345 15916 net.cpp:368] upsample3 -> pool3_D
I0331 15:27:52.689363 15916 net.cpp:120] Setting up upsample3
I0331 15:27:52.689378 15916 upsample_layer.cpp:31] Params 'pad_out_{}_' are deprecated. Please declare upsample height and width useing the upsample_h, upsample_w parameters.
I0331 15:27:52.689391 15916 net.cpp:127] Top shape: 12 256 90 120 (33177600)
I0331 15:27:52.689405 15916 layer_factory.hpp:74] Creating layer conv3_3_D
I0331 15:27:52.689417 15916 net.cpp:90] Creating Layer conv3_3_D
I0331 15:27:52.689425 15916 net.cpp:410] conv3_3_D <- pool3_D
I0331 15:27:52.689436 15916 net.cpp:368] conv3_3_D -> conv3_3_D
I0331 15:27:52.689452 15916 net.cpp:120] Setting up conv3_3_D
I0331 15:27:52.697369 15916 net.cpp:127] Top shape: 12 256 90 120 (33177600)
I0331 15:27:52.697405 15916 layer_factory.hpp:74] Creating layer conv3_3_D_bn
I0331 15:27:52.697422 15916 net.cpp:90] Creating Layer conv3_3_D_bn
I0331 15:27:52.697432 15916 net.cpp:410] conv3_3_D_bn <- conv3_3_D
I0331 15:27:52.697441 15916 net.cpp:357] conv3_3_D_bn -> conv3_3_D (in-place)
I0331 15:27:52.697458 15916 net.cpp:120] Setting up conv3_3_D_bn
I0331 15:27:52.697517 15916 net.cpp:127] Top shape: 12 256 90 120 (33177600)
I0331 15:27:52.697540 15916 layer_factory.hpp:74] Creating layer relu3_3_D
I0331 15:27:52.697556 15916 net.cpp:90] Creating Layer relu3_3_D
I0331 15:27:52.697564 15916 net.cpp:410] relu3_3_D <- conv3_3_D
I0331 15:27:52.697579 15916 net.cpp:357] relu3_3_D -> conv3_3_D (in-place)
I0331 15:27:52.697589 15916 net.cpp:120] Setting up relu3_3_D
I0331 15:27:52.697599 15916 net.cpp:127] Top shape: 12 256 90 120 (33177600)
I0331 15:27:52.697607 15916 layer_factory.hpp:74] Creating layer conv3_2_D
I0331 15:27:52.697618 15916 net.cpp:90] Creating Layer conv3_2_D
I0331 15:27:52.697631 15916 net.cpp:410] conv3_2_D <- conv3_3_D
I0331 15:27:52.697646 15916 net.cpp:368] conv3_2_D -> conv3_2_D
I0331 15:27:52.697657 15916 net.cpp:120] Setting up conv3_2_D
I0331 15:27:52.705576 15916 net.cpp:127] Top shape: 12 256 90 120 (33177600)
I0331 15:27:52.705605 15916 layer_factory.hpp:74] Creating layer conv3_2_D_bn
I0331 15:27:52.705622 15916 net.cpp:90] Creating Layer conv3_2_D_bn
I0331 15:27:52.705631 15916 net.cpp:410] conv3_2_D_bn <- conv3_2_D
I0331 15:27:52.705653 15916 net.cpp:357] conv3_2_D_bn -> conv3_2_D (in-place)
I0331 15:27:52.705668 15916 net.cpp:120] Setting up conv3_2_D_bn
I0331 15:27:52.705732 15916 net.cpp:127] Top shape: 12 256 90 120 (33177600)
I0331 15:27:52.705763 15916 layer_factory.hpp:74] Creating layer relu3_2_D
I0331 15:27:52.705780 15916 net.cpp:90] Creating Layer relu3_2_D
I0331 15:27:52.705786 15916 net.cpp:410] relu3_2_D <- conv3_2_D
I0331 15:27:52.705796 15916 net.cpp:357] relu3_2_D -> conv3_2_D (in-place)
I0331 15:27:52.705804 15916 net.cpp:120] Setting up relu3_2_D
I0331 15:27:52.705814 15916 net.cpp:127] Top shape: 12 256 90 120 (33177600)
I0331 15:27:52.705821 15916 layer_factory.hpp:74] Creating layer conv3_1_D
I0331 15:27:52.705837 15916 net.cpp:90] Creating Layer conv3_1_D
I0331 15:27:52.705847 15916 net.cpp:410] conv3_1_D <- conv3_2_D
I0331 15:27:52.705857 15916 net.cpp:368] conv3_1_D -> conv3_1_D
I0331 15:27:52.705876 15916 net.cpp:120] Setting up conv3_1_D
I0331 15:27:52.709866 15916 net.cpp:127] Top shape: 12 128 90 120 (16588800)
I0331 15:27:52.709894 15916 layer_factory.hpp:74] Creating layer conv3_1_D_bn
I0331 15:27:52.709910 15916 net.cpp:90] Creating Layer conv3_1_D_bn
I0331 15:27:52.709919 15916 net.cpp:410] conv3_1_D_bn <- conv3_1_D
I0331 15:27:52.709939 15916 net.cpp:357] conv3_1_D_bn -> conv3_1_D (in-place)
I0331 15:27:52.709950 15916 net.cpp:120] Setting up conv3_1_D_bn
I0331 15:27:52.710017 15916 net.cpp:127] Top shape: 12 128 90 120 (16588800)
I0331 15:27:52.710041 15916 layer_factory.hpp:74] Creating layer relu3_1_D
I0331 15:27:52.710052 15916 net.cpp:90] Creating Layer relu3_1_D
I0331 15:27:52.710060 15916 net.cpp:410] relu3_1_D <- conv3_1_D
I0331 15:27:52.710078 15916 net.cpp:357] relu3_1_D -> conv3_1_D (in-place)
I0331 15:27:52.710089 15916 net.cpp:120] Setting up relu3_1_D
I0331 15:27:52.710103 15916 net.cpp:127] Top shape: 12 128 90 120 (16588800)
I0331 15:27:52.710113 15916 layer_factory.hpp:74] Creating layer upsample2
I0331 15:27:52.710121 15916 net.cpp:90] Creating Layer upsample2
I0331 15:27:52.710131 15916 net.cpp:410] upsample2 <- conv3_1_D
I0331 15:27:52.710141 15916 net.cpp:410] upsample2 <- pool2_mask
I0331 15:27:52.710151 15916 net.cpp:368] upsample2 -> pool2_D
I0331 15:27:52.710168 15916 net.cpp:120] Setting up upsample2
I0331 15:27:52.710176 15916 upsample_layer.cpp:31] Params 'pad_out_{}_' are deprecated. Please declare upsample height and width useing the upsample_h, upsample_w parameters.
I0331 15:27:52.710186 15916 net.cpp:127] Top shape: 12 128 180 240 (66355200)
I0331 15:27:52.710201 15916 layer_factory.hpp:74] Creating layer conv2_2_D
I0331 15:27:52.710213 15916 net.cpp:90] Creating Layer conv2_2_D
I0331 15:27:52.710222 15916 net.cpp:410] conv2_2_D <- pool2_D
I0331 15:27:52.710235 15916 net.cpp:368] conv2_2_D -> conv2_2_D
I0331 15:27:52.710247 15916 net.cpp:120] Setting up conv2_2_D
I0331 15:27:52.712334 15916 net.cpp:127] Top shape: 12 128 180 240 (66355200)
I0331 15:27:52.712364 15916 layer_factory.hpp:74] Creating layer conv2_2_D_bn
I0331 15:27:52.712380 15916 net.cpp:90] Creating Layer conv2_2_D_bn
I0331 15:27:52.712388 15916 net.cpp:410] conv2_2_D_bn <- conv2_2_D
I0331 15:27:52.712405 15916 net.cpp:357] conv2_2_D_bn -> conv2_2_D (in-place)
I0331 15:27:52.712417 15916 net.cpp:120] Setting up conv2_2_D_bn
I0331 15:27:52.712599 15916 net.cpp:127] Top shape: 12 128 180 240 (66355200)
I0331 15:27:52.712622 15916 layer_factory.hpp:74] Creating layer relu2_2_D
I0331 15:27:52.712635 15916 net.cpp:90] Creating Layer relu2_2_D
I0331 15:27:52.712642 15916 net.cpp:410] relu2_2_D <- conv2_2_D
I0331 15:27:52.712658 15916 net.cpp:357] relu2_2_D -> conv2_2_D (in-place)
I0331 15:27:52.712669 15916 net.cpp:120] Setting up relu2_2_D
I0331 15:27:52.712684 15916 net.cpp:127] Top shape: 12 128 180 240 (66355200)
I0331 15:27:52.712692 15916 layer_factory.hpp:74] Creating layer conv2_1_D
I0331 15:27:52.712702 15916 net.cpp:90] Creating Layer conv2_1_D
I0331 15:27:52.712716 15916 net.cpp:410] conv2_1_D <- conv2_2_D
I0331 15:27:52.712730 15916 net.cpp:368] conv2_1_D -> conv2_1_D
I0331 15:27:52.712757 15916 net.cpp:120] Setting up conv2_1_D
I0331 15:27:52.713852 15916 net.cpp:127] Top shape: 12 64 180 240 (33177600)
I0331 15:27:52.713879 15916 layer_factory.hpp:74] Creating layer conv2_1_D_bn
I0331 15:27:52.713904 15916 net.cpp:90] Creating Layer conv2_1_D_bn
I0331 15:27:52.713919 15916 net.cpp:410] conv2_1_D_bn <- conv2_1_D
I0331 15:27:52.713932 15916 net.cpp:357] conv2_1_D_bn -> conv2_1_D (in-place)
I0331 15:27:52.713942 15916 net.cpp:120] Setting up conv2_1_D_bn
I0331 15:27:52.714110 15916 net.cpp:127] Top shape: 12 64 180 240 (33177600)
I0331 15:27:52.714133 15916 layer_factory.hpp:74] Creating layer relu2_1_D
I0331 15:27:52.714148 15916 net.cpp:90] Creating Layer relu2_1_D
I0331 15:27:52.714154 15916 net.cpp:410] relu2_1_D <- conv2_1_D
I0331 15:27:52.714166 15916 net.cpp:357] relu2_1_D -> conv2_1_D (in-place)
I0331 15:27:52.714181 15916 net.cpp:120] Setting up relu2_1_D
I0331 15:27:52.714192 15916 net.cpp:127] Top shape: 12 64 180 240 (33177600)
I0331 15:27:52.714200 15916 layer_factory.hpp:74] Creating layer upsample1
I0331 15:27:52.714208 15916 net.cpp:90] Creating Layer upsample1
I0331 15:27:52.714215 15916 net.cpp:410] upsample1 <- conv2_1_D
I0331 15:27:52.714223 15916 net.cpp:410] upsample1 <- pool1_mask
I0331 15:27:52.714241 15916 net.cpp:368] upsample1 -> pool1_D
I0331 15:27:52.714252 15916 net.cpp:120] Setting up upsample1
I0331 15:27:52.714259 15916 upsample_layer.cpp:31] Params 'pad_out_{}_' are deprecated. Please declare upsample height and width useing the upsample_h, upsample_w parameters.
I0331 15:27:52.714270 15916 net.cpp:127] Top shape: 12 64 360 480 (132710400)
I0331 15:27:52.714282 15916 layer_factory.hpp:74] Creating layer conv1_2_D
I0331 15:27:52.714293 15916 net.cpp:90] Creating Layer conv1_2_D
I0331 15:27:52.714306 15916 net.cpp:410] conv1_2_D <- pool1_D
I0331 15:27:52.714320 15916 net.cpp:368] conv1_2_D -> conv1_2_D
I0331 15:27:52.714331 15916 net.cpp:120] Setting up conv1_2_D
I0331 15:27:52.715147 15916 net.cpp:127] Top shape: 12 64 360 480 (132710400)
I0331 15:27:52.715169 15916 layer_factory.hpp:74] Creating layer conv1_2_D_bn
I0331 15:27:52.715184 15916 net.cpp:90] Creating Layer conv1_2_D_bn
I0331 15:27:52.715193 15916 net.cpp:410] conv1_2_D_bn <- conv1_2_D
I0331 15:27:52.715204 15916 net.cpp:357] conv1_2_D_bn -> conv1_2_D (in-place)
I0331 15:27:52.715220 15916 net.cpp:120] Setting up conv1_2_D_bn
I0331 15:27:52.715764 15916 net.cpp:127] Top shape: 12 64 360 480 (132710400)
I0331 15:27:52.715787 15916 layer_factory.hpp:74] Creating layer relu1_2_D
I0331 15:27:52.715798 15916 net.cpp:90] Creating Layer relu1_2_D
I0331 15:27:52.715806 15916 net.cpp:410] relu1_2_D <- conv1_2_D
I0331 15:27:52.715821 15916 net.cpp:357] relu1_2_D -> conv1_2_D (in-place)
I0331 15:27:52.715832 15916 net.cpp:120] Setting up relu1_2_D
I0331 15:27:52.715842 15916 net.cpp:127] Top shape: 12 64 360 480 (132710400)
I0331 15:27:52.715849 15916 layer_factory.hpp:74] Creating layer conv1_1_D
I0331 15:27:52.715865 15916 net.cpp:90] Creating Layer conv1_1_D
I0331 15:27:52.715878 15916 net.cpp:410] conv1_1_D <- conv1_2_D
I0331 15:27:52.715893 15916 net.cpp:368] conv1_1_D -> conv1_1_D
I0331 15:27:52.715906 15916 net.cpp:120] Setting up conv1_1_D
I0331 15:27:52.716250 15916 net.cpp:127] Top shape: 12 4 360 480 (8294400)
I0331 15:27:52.716279 15916 layer_factory.hpp:74] Creating layer conv1_1_D_conv1_1_D_0_split
I0331 15:27:52.716294 15916 net.cpp:90] Creating Layer conv1_1_D_conv1_1_D_0_split
I0331 15:27:52.716306 15916 net.cpp:410] conv1_1_D_conv1_1_D_0_split <- conv1_1_D
I0331 15:27:52.716317 15916 net.cpp:368] conv1_1_D_conv1_1_D_0_split -> conv1_1_D_conv1_1_D_0_split_0
I0331 15:27:52.716333 15916 net.cpp:368] conv1_1_D_conv1_1_D_0_split -> conv1_1_D_conv1_1_D_0_split_1
I0331 15:27:52.716349 15916 net.cpp:120] Setting up conv1_1_D_conv1_1_D_0_split
I0331 15:27:52.716362 15916 net.cpp:127] Top shape: 12 4 360 480 (8294400)
I0331 15:27:52.716372 15916 net.cpp:127] Top shape: 12 4 360 480 (8294400)
I0331 15:27:52.716379 15916 layer_factory.hpp:74] Creating layer loss
I0331 15:27:52.716392 15916 net.cpp:90] Creating Layer loss
I0331 15:27:52.716411 15916 net.cpp:410] loss <- conv1_1_D_conv1_1_D_0_split_0
I0331 15:27:52.716421 15916 net.cpp:410] loss <- label_data_1_split_0
I0331 15:27:52.716444 15916 net.cpp:368] loss -> loss
I0331 15:27:52.716476 15916 net.cpp:120] Setting up loss
I0331 15:27:52.716506 15916 layer_factory.hpp:74] Creating layer loss
I0331 15:27:52.724737 15916 net.cpp:127] Top shape: (1)
I0331 15:27:52.724798 15916 net.cpp:129]     with loss weight 1
I0331 15:27:52.724839 15916 layer_factory.hpp:74] Creating layer accuracy
I0331 15:27:52.724856 15916 net.cpp:90] Creating Layer accuracy
I0331 15:27:52.724872 15916 net.cpp:410] accuracy <- conv1_1_D_conv1_1_D_0_split_1
I0331 15:27:52.724886 15916 net.cpp:410] accuracy <- label_data_1_split_1
I0331 15:27:52.724905 15916 net.cpp:368] accuracy -> accuracy
I0331 15:27:52.724920 15916 net.cpp:368] accuracy -> per_class_accuracy
I0331 15:27:52.724938 15916 net.cpp:120] Setting up accuracy
I0331 15:27:52.724947 15916 accuracy_layer.cpp:24] Per-class accuracies currently only work on TRAIN phase only.
I0331 15:27:52.724958 15916 net.cpp:127] Top shape: (1)
I0331 15:27:52.724967 15916 net.cpp:127] Top shape: 4 1 1 1 (4)
I0331 15:27:52.724979 15916 net.cpp:194] accuracy does not need backward computation.
I0331 15:27:52.724987 15916 net.cpp:192] loss needs backward computation.
I0331 15:27:52.724995 15916 net.cpp:192] conv1_1_D_conv1_1_D_0_split needs backward computation.
I0331 15:27:52.725008 15916 net.cpp:192] conv1_1_D needs backward computation.
I0331 15:27:52.725016 15916 net.cpp:192] relu1_2_D needs backward computation.
…
snapshot_prefix: "/SegNet_copy/Models/Training/segnet_"
solver_mode: CPU
net: "/SegNet_copy/Models/segnet_train.prototxt"
test_initialization: false
I0331 15:36:00.827168 15973 solver.cpp:70] Creating training net from net file: /SegNet_copy/Models/segnet_train.prototxt
I0331 15:36:00.830536 15973 net.cpp:42] Initializing net from parameters: 
name: "VGG_ILSVRC_16_layer"
state {
  phase: TRAIN
}
layer {
  name: "data"
  type: "DenseImageData"
  top: "data"
  top: "label"
  dense_image_data_param {
    source: "/SegNet_copy/AnhLua/train.txt"
    batch_size: 30
    shuffle: true
  }
}
layer {
  name: "conv1_1"
  type: "Convolution"
  bottom: "data"
  top: "conv1_1"
  param {
    lr_mult: 1
    decay_mult: 1
  }
  param {
    lr_mult: 2
    decay_mult: 0
  }
  convolution_param {
    num_output: 64
    pad: 1
    kernel_size: 3
    weight_filler {
      type: "msra"
    }
    bias_filler {
      type: "constant"
    }
  }
}
layer {
  name: "conv1_1_bn"
  type: "BN"
  bottom: "conv1_1"
  top: "conv1_1"
  param {
    lr_mult: 1
    decay_mult: 1
  }
  param {
    lr_mult: 1
    decay_mult: 0
  }
  bn_param {
    scale_filler {
      type: "constant"
      value: 1
    }
    shift_filler {
      type: "constant"
      value: 0.001
    }
  }
}
layer {
  name: "relu1_1"
  type: "ReLU"
  bottom: "conv1_1"
  top: "conv1_1"
}
layer {
  name: "conv1_2"
  type: "Convolution"
  bottom: "conv1_1"
  top: "conv1_2"
  param {
    lr_mult: 1
    decay_mult: 1
  }
  param {
    lr_mult: 2
    decay_mult: 0
  }
  convolution_param {
    num_output: 64
    pad: 1
    kernel_size: 3
    weight_filler {
      type: "msra"
    }
    bias_filler {
      type: "constant"
    }
  }
}
layer {
  name: "conv1_2_bn"
  type: "BN"
  bottom: "conv1_2"
  top: "conv1_2"
  param {
    lr_mult: 1
    decay_mult: 1
  }
  param {
    lr_mult: 1
    decay_mult: 0
  }
  bn_param {
    scale_filler {
      type: "constant"
      value: 1
    }
    shift_filler {
      type: "constant"
      value: 0.001
    }
  }
}
layer {
  name: "relu1_2"
  type: "ReLU"
  bottom: "conv1_2"
  top: "conv1_2"
}
layer {
  name: "pool1"
  type: "Pooling"
  bottom: "conv1_2"
  top: "pool1"
  top: "pool1_mask"
  pooling_param {
    pool: MAX
    kernel_size: 2
    stride: 2
  }
}
layer {
  name: "conv2_1"
  type: "Convolution"
  bottom: "pool1"
  top: "conv2_1"
  param {
    lr_mult: 1
    decay_mult: 1
  }
  param {
    lr_mult: 2
    decay_mult: 0
  }
  convolution_param {
    num_output: 128
    pad: 1
    kernel_size: 3
    weight_filler {
      type: "msra"
    }
    bias_filler {
      type: "constant"
    }
  }
}
layer {
  name: "conv2_1_bn"
  type: "BN"
  bottom: "conv2_1"
  top: "conv2_1"
  param {
    lr_mult: 1
    decay_mult: 1
  }
  param {
    lr_mult: 1
    decay_mult: 0
  }
  bn_param {
    scale_filler {
      type: "constant"
      value: 1
    }
    shift_filler {
      type: "constant"
      value: 0.001
    }
  }
}
layer {
  name: "relu2_1"
  type: "ReLU"
  bottom: "conv2_1"
  top: "conv2_1"
}
layer {
  name: "conv2_2"
  type: "Convolution"
  bottom: "conv2_1"
  top: "conv2_2"
  param {
    lr_mult: 1
    decay_mult: 1
  }
  param {
    lr_mult: 2
    decay_mult: 0
  }
  convolution_param {
    num_output: 128
    pad: 1
    kernel_size: 3
    weight_filler {
      type: "msra"
    }
    bias_filler {
      type: "constant"
    }
  }
}
layer {
  name: "conv2_2_bn"
  type: "BN"
  bottom: "conv2_2"
  top: "conv2_2"
  param {
    lr_mult: 1
    decay_mult: 1
  }
  param {
    lr_mult: 1
    decay_mult: 0
  }
  bn_param {
    scale_filler {
      type: "constant"
      value: 1
    }
    shift_filler {
      type: "constant"
      value: 0.001
    }
  }
}
layer {
  name: "relu2_2"
  type: "ReLU"
  bottom: "conv2_2"
  top: "conv2_2"
}
layer {
  name: "pool2"
  type: "Pooling"
  bottom: "conv2_2"
  top: "pool2"
  top: "pool2_mask"
  pooling_param {
    pool: MAX
    kernel_size: 2
    stride: 2
  }
}
layer {
  name: "conv3_1"
  type: "Convolution"
  bottom: "pool2"
  top: "conv3_1"
  param {
    lr_mult: 1
    decay_mult: 1
  }
  param {
    lr_mult: 2
    decay_mult: 0
  }
  convolution_param {
    num_output: 256
    pad: 1
    kernel_size: 3
    weight_filler {
      type: "msra"
    }
    bias_filler {
      type: "constant"
    }
  }
}
layer {
  name: "conv3_1_bn"
  type: "BN"
  bottom: "conv3_1"
  top: "conv3_1"
  param {
    lr_mult: 1
    decay_mult: 1
  }
  param {
    lr_mult: 1
    decay_mult: 0
  }
  bn_param {
    scale_filler {
      type: "constant"
      value: 1
    }
    shift_filler {
      type: "constant"
      value: 0.001
    }
  }
}
layer {
  name: "relu3_1"
  type: "ReLU"
  bottom: "conv3_1"
  top: "conv3_1"
}
layer {
  name: "conv3_2"
  type: "Convolution"
  bottom: "conv3_1"
  top: "conv3_2"
  param {
    lr_mult: 1
    decay_mult: 1
  }
  param {
    lr_mult: 2
    decay_mult: 0
  }
  convolution_param {
    num_output: 256
    pad: 1
    kernel_size: 3
    weight_filler {
      type: "msra"
    }
    bias_filler {
      type: "constant"
    }
  }
}
layer {
  name: "conv3_2_bn"
  type: "BN"
  bottom: "conv3_2"
  top: "conv3_2"
  param {
    lr_mult: 1
    decay_mult: 1
  }
  param {
    lr_mult: 1
    decay_mult: 0
  }
  bn_param {
    scale_filler {
      type: "constant"
      value: 1
    }
    shift_filler {
      type: "constant"
      value: 0.001
    }
  }
}
layer {
  name: "relu3_2"
  type: "ReLU"
  bottom: "conv3_2"
  top: "conv3_2"
}
layer {
  name: "conv3_3"
  type: "Convolution"
  bottom: "conv3_2"
  top: "conv3_3"
  param {
    lr_mult: 1
    decay_mult: 1
  }
  param {
    lr_mult: 2
    decay_mult: 0
  }
  convolution_param {
    num_output: 256
    pad: 1
    kernel_size: 3
    weight_filler {
      type: "msra"
    }
    bias_filler {
      type: "constant"
    }
  }
}
layer {
  name: "conv3_3_bn"
  type: "BN"
  bottom: "conv3_3"
  top: "conv3_3"
  param {
    lr_mult: 1
    decay_mult: 1
  }
  param {
    lr_mult: 1
    decay_mult: 0
  }
  bn_param {
    scale_filler {
      type: "constant"
      value: 1
    }
    shift_filler {
      type: "constant"
      value: 0.001
    }
  }
}
layer {
  name: "relu3_3"
  type: "ReLU"
  bottom: "conv3_3"
  top: "conv3_3"
}
layer {
  name: "pool3"
  type: "Pooling"
  bottom: "conv3_3"
  top: "pool3"
  top: "pool3_mask"
  pooling_param {
    pool: MAX
    kernel_size: 2
    stride: 2
  }
}
layer {
  name: "conv4_1"
  type: "Convolution"
  bottom: "pool3"
  top: "conv4_1"
  param {
    lr_mult: 1
    decay_mult: 1
  }
  param {
    lr_mult: 2
    decay_mult: 0
  }
  convolution_param {
    num_output: 512
    pad: 1
    kernel_size: 3
    weight_filler {
      type: "msra"
    }
    bias_filler {
      type: "constant"
    }
  }
}
layer {
  name: "conv4_1_bn"
  type: "BN"
  bottom: "conv4_1"
  top: "conv4_1"
  param {
    lr_mult: 1
    decay_mult: 1
  }
  param {
    lr_mult: 1
    decay_mult: 0
  }
  bn_param {
    scale_filler {
      type: "constant"
      value: 1
    }
    shift_filler {
      type: "constant"
      value: 0.001
    }
  }
}
layer {
  name: "relu4_1"
  type: "ReLU"
  bottom: "conv4_1"
  top: "conv4_1"
}
layer {
  name: "conv4_2"
  type: "Convolution"
  bottom: "conv4_1"
  top: "conv4_2"
  param {
    lr_mult: 1
    decay_mult: 1
  }
  param {
    lr_mult: 2
    decay_mult: 0
  }
  convolution_param {
    num_output: 512
    pad: 1
    kernel_size: 3
    weight_filler {
      type: "msra"
    }
    bias_filler {
      type: "constant"
    }
  }
}
layer {
  name: "conv4_2_bn"
  type: "BN"
  bottom: "conv4_2"
  top: "conv4_2"
  param {
    lr_mult: 1
    decay_mult: 1
  }
  param {
    lr_mult: 1
    decay_mult: 0
  }
  bn_param {
    scale_filler {
      type: "constant"
      value: 1
    }
    shift_filler {
      type: "constant"
      value: 0.001
    }
  }
}
layer {
  name: "relu4_2"
  type: "ReLU"
  bottom: "conv4_2"
  top: "conv4_2"
}
layer {
  name: "conv4_3"
  type: "Convolution"
  bottom: "conv4_2"
  top: "conv4_3"
  param {
    lr_mult: 1
    decay_mult: 1
  }
  param {
    lr_mult: 2
    decay_mult: 0
  }
  convolution_param {
    num_output: 512
    pad: 1
    kernel_size: 3
    weight_filler {
      type: "msra"
    }
    bias_filler {
      type: "constant"
    }
  }
}
layer {
  name: "conv4_3_bn"
  type: "BN"
  bottom: "conv4_3"
  top: "conv4_3"
  param {
    lr_mult: 1
    decay_mult: 1
  }
  param {
    lr_mult: 1
    decay_mult: 0
  }
  bn_param {
    scale_filler {
      type: "constant"
      value: 1
    }
    shift_filler {
      type: "constant"
      value: 0.001
    }
  }
}
layer {
  name: "relu4_3"
  type: "ReLU"
  bottom: "conv4_3"
  top: "conv4_3"
}
layer {
  name: "pool4"
  type: "Pooling"
  bottom: "conv4_3"
  top: "pool4"
  top: "pool4_mask"
  pooling_param {
    pool: MAX
    kernel_size: 2
    stride: 2
  }
}
layer {
  name: "conv5_1"
  type: "Convolution"
  bottom: "pool4"
  top: "conv5_1"
  param {
    lr_mult: 1
    decay_mult: 1
  }
  param {
    lr_mult: 2
    decay_mult: 0
  }
  convolution_param {
    num_output: 512
    pad: 1
    kernel_size: 3
    weight_filler {
      type: "msra"
    }
    bias_filler {
      type: "constant"
    }
  }
}
layer {
  name: "conv5_1_bn"
  type: "BN"
  bottom: "conv5_1"
  top: "conv5_1"
  param {
    lr_mult: 1
    decay_mult: 1
  }
  param {
    lr_mult: 1
    decay_mult: 0
  }
  bn_param {
    scale_filler {
      type: "constant"
      value: 1
    }
    shift_filler {
      type: "constant"
      value: 0.001
    }
  }
}
layer {
  name: "relu5_1"
  type: "ReLU"
  bottom: "conv5_1"
  top: "conv5_1"
}
layer {
  name: "conv5_2"
  type: "Convolution"
  bottom: "conv5_1"
  top: "conv5_2"
  param {
    lr_mult: 1
    decay_mult: 1
  }
  param {
    lr_mult: 2
    decay_mult: 0
  }
  convolution_param {
    num_output: 512
    pad: 1
    kernel_size: 3
    weight_filler {
      type: "msra"
    }
    bias_filler {
      type: "constant"
    }
  }
}
layer {
  name: "conv5_2_bn"
  type: "BN"
  bottom: "conv5_2"
  top: "conv5_2"
  param {
    lr_mult: 1
    decay_mult: 1
  }
  param {
    lr_mult: 1
    decay_mult: 0
  }
  bn_param {
    scale_filler {
      type: "constant"
      value: 1
    }
    shift_filler {
      type: "constant"
      value: 0.001
    }
  }
}
layer {
  name: "relu5_2"
  type: "ReLU"
  bottom: "conv5_2"
  top: "conv5_2"
}
layer {
  name: "conv5_3"
  type: "Convolution"
  bottom: "conv5_2"
  top: "conv5_3"
  param {
    lr_mult: 1
    decay_mult: 1
  }
  param {
    lr_mult: 2
    decay_mult: 0
  }
  convolution_param {
    num_output: 512
    pad: 1
    kernel_size: 3
    weight_filler {
      type: "msra"
    }
    bias_filler {
      type: "constant"
    }
  }
}
layer {
  name: "conv5_3_bn"
  type: "BN"
  bottom: "conv5_3"
  top: "conv5_3"
  param {
    lr_mult: 1
    decay_mult: 1
  }
  param {
    lr_mult: 1
    decay_mult: 0
  }
  bn_param {
    scale_filler {
      type: "constant"
      value: 1
    }
    shift_filler {
      type: "constant"
      value: 0.001
    }
  }
}
layer {
  name: "relu5_3"
  type: "ReLU"
  bottom: "conv5_3"
  top: "conv5_3"
}
layer {
  name: "pool5"
  type: "Pooling"
  bottom: "conv5_3"
  top: "pool5"
  top: "pool5_mask"
  pooling_param {
    pool: MAX
    kernel_size: 2
    stride: 2
  }
}
layer {
  name: "upsample5"
  type: "Upsample"
  bottom: "pool5"
  bottom: "pool5_mask"
  top: "pool5_D"
  upsample_param {
    scale: 2
    upsample_h: 23
    upsample_w: 30
  }
}
layer {
  name: "conv5_3_D"
  type: "Convolution"
  bottom: "pool5_D"
  top: "conv5_3_D"
  param {
    lr_mult: 1
    decay_mult: 1
  }
  param {
    lr_mult: 2
    decay_mult: 0
  }
  convolution_param {
    num_output: 512
    pad: 1
    kernel_size: 3
    weight_filler {
      type: "msra"
    }
    bias_filler {
      type: "constant"
    }
  }
}
layer {
  name: "conv5_3_D_bn"
  type: "BN"
  bottom: "conv5_3_D"
  top: "conv5_3_D"
  param {
    lr_mult: 1
    decay_mult: 1
  }
  param {
    lr_mult: 1
    decay_mult: 0
  }
  bn_param {
    scale_filler {
      type: "constant"
      value: 1
    }
    shift_filler {
      type: "constant"
      value: 0.001
    }
  }
}
layer {
  name: "relu5_3_D"
  type: "ReLU"
  bottom: "conv5_3_D"
  top: "conv5_3_D"
}
layer {
  name: "conv5_2_D"
  type: "Convolution"
  bottom: "conv5_3_D"
  top: "conv5_2_D"
  param {
    lr_mult: 1
    decay_mult: 1
  }
  param {
    lr_mult: 2
    decay_mult: 0
  }
  convolution_param {
    num_output: 512
    pad: 1
    kernel_size: 3
    weight_filler {
      type: "msra"
    }
    bias_filler {
      type: "constant"
    }
  }
}
layer {
  name: "conv5_2_D_bn"
  type: "BN"
  bottom: "conv5_2_D"
  top: "conv5_2_D"
  param {
    lr_mult: 1
    decay_mult: 1
  }
  param {
    lr_mult: 1
    decay_mult: 0
  }
  bn_param {
    scale_filler {
      type: "constant"
      value: 1
    }
    shift_filler {
      type: "constant"
      value: 0.001
    }
  }
}
layer {
  name: "relu5_2_D"
  type: "ReLU"
  bottom: "conv5_2_D"
  top: "conv5_2_D"
}
layer {
  name: "conv5_1_D"
  type: "Convolution"
  bottom: "conv5_2_D"
  top: "conv5_1_D"
  param {
    lr_mult: 1
    decay_mult: 1
  }
  param {
    lr_mult: 2
    decay_mult: 0
  }
  convolution_param {
    num_output: 512
    pad: 1
    kernel_size: 3
    weight_filler {
      type: "msra"
    }
    bias_filler {
      type: "constant"
    }
  }
}
layer {
  name: "conv5_1_D_bn"
  type: "BN"
  bottom: "conv5_1_D"
  top: "conv5_1_D"
  param {
    lr_mult: 1
    decay_mult: 1
  }
  param {
    lr_mult: 1
    decay_mult: 0
  }
  bn_param {
    scale_filler {
      type: "constant"
      value: 1
    }
    shift_filler {
      type: "constant"
      value: 0.001
    }
  }
}
layer {
  name: "relu5_1_D"
  type: "ReLU"
  bottom: "conv5_1_D"
  top: "conv5_1_D"
}
layer {
  name: "upsample4"
  type: "Upsample"
  bottom: "conv5_1_D"
  bottom: "pool4_mask"
  top: "pool4_D"
  upsample_param {
    scale: 2
    upsample_h: 45
    upsample_w: 60
  }
}
layer {
  name: "conv4_3_D"
  type: "Convolution"
  bottom: "pool4_D"
  top: "conv4_3_D"
  param {
    lr_mult: 1
    decay_mult: 1
  }
  param {
    lr_mult: 2
    decay_mult: 0
  }
  convolution_param {
    num_output: 512
    pad: 1
    kernel_size: 3
    weight_filler {
      type: "msra"
    }
    bias_filler {
      type: "constant"
    }
  }
}
layer {
  name: "conv4_3_D_bn"
  type: "BN"
  bottom: "conv4_3_D"
  top: "conv4_3_D"
  param {
    lr_mult: 1
    decay_mult: 1
  }
  param {
    lr_mult: 1
    decay_mult: 0
  }
  bn_param {
    scale_filler {
      type: "constant"
      value: 1
    }
    shift_filler {
      type: "constant"
      value: 0.001
    }
  }
}
layer {
  name: "relu4_3_D"
  type: "ReLU"
  bottom: "conv4_3_D"
  top: "conv4_3_D"
}
layer {
  name: "conv4_2_D"
  type: "Convolution"
  bottom: "conv4_3_D"
  top: "conv4_2_D"
  param {
    lr_mult: 1
    decay_mult: 1
  }
  param {
    lr_mult: 2
    decay_mult: 0
  }
  convolution_param {
    num_output: 512
    pad: 1
    kernel_size: 3
    weight_filler {
      type: "msra"
    }
    bias_filler {
      type: "constant"
    }
  }
}
layer {
  name: "conv4_2_D_bn"
  type: "BN"
  bottom: "conv4_2_D"
  top: "conv4_2_D"
  param {
    lr_mult: 1
    decay_mult: 1
  }
  param {
    lr_mult: 1
    decay_mult: 0
  }
  bn_param {
    scale_filler {
      type: "constant"
      value: 1
    }
    shift_filler {
      type: "constant"
      value: 0.001
    }
  }
}
layer {
  name: "relu4_2_D"
  type: "ReLU"
  bottom: "conv4_2_D"
  top: "conv4_2_D"
}
layer {
  name: "conv4_1_D"
  type: "Convolution"
  bottom: "conv4_2_D"
  top: "conv4_1_D"
  param {
    lr_mult: 1
    decay_mult: 1
  }
  param {
    lr_mult: 2
    decay_mult: 0
  }
  convolution_param {
    num_output: 256
    pad: 1
    kernel_size: 3
    weight_filler {
      type: "msra"
    }
    bias_filler {
      type: "constant"
    }
  }
}
layer {
  name: "conv4_1_D_bn"
  type: "BN"
  bottom: "conv4_1_D"
  top: "conv4_1_D"
  param {
    lr_mult: 1
    decay_mult: 1
  }
  param {
    lr_mult: 1
    decay_mult: 0
  }
  bn_param {
    scale_filler {
      type: "constant"
      value: 1
    }
    shift_filler {
      type: "constant"
      value: 0.001
    }
  }
}
layer {
  name: "relu4_1_D"
  type: "ReLU"
  bottom: "conv4_1_D"
  top: "conv4_1_D"
}
layer {
  name: "upsample3"
  type: "Upsample"
  bottom: "conv4_1_D"
  bottom: "pool3_mask"
  top: "pool3_D"
  upsample_param {
    scale: 2
  }
}
layer {
  name: "conv3_3_D"
  type: "Convolution"
  bottom: "pool3_D"
  top: "conv3_3_D"
  param {
    lr_mult: 1
    decay_mult: 1
  }
  param {
    lr_mult: 2
    decay_mult: 0
  }
  convolution_param {
    num_output: 256
    pad: 1
    kernel_size: 3
    weight_filler {
      type: "msra"
    }
    bias_filler {
      type: "constant"
    }
  }
}
layer {
  name: "conv3_3_D_bn"
  type: "BN"
  bottom: "conv3_3_D"
  top: "conv3_3_D"
  param {
    lr_mult: 1
    decay_mult: 1
  }
  param {
    lr_mult: 1
    decay_mult: 0
  }
  bn_param {
    scale_filler {
      type: "constant"
      value: 1
    }
    shift_filler {
      type: "constant"
      value: 0.001
    }
  }
}
layer {
  name: "relu3_3_D"
  type: "ReLU"
  bottom: "conv3_3_D"
  top: "conv3_3_D"
}
layer {
  name: "conv3_2_D"
  type: "Convolution"
  bottom: "conv3_3_D"
  top: "conv3_2_D"
  param {
    lr_mult: 1
    decay_mult: 1
  }
  param {
    lr_mult: 2
    decay_mult: 0
  }
  convolution_param {
    num_output: 256
    pad: 1
    kernel_size: 3
    weight_filler {
      type: "msra"
    }
    bias_filler {
      type: "constant"
    }
  }
}
layer {
  name: "conv3_2_D_bn"
  type: "BN"
  bottom: "conv3_2_D"
  top: "conv3_2_D"
  param {
    lr_mult: 1
    decay_mult: 1
  }
  param {
    lr_mult: 1
    decay_mult: 0
  }
  bn_param {
    scale_filler {
      type: "constant"
      value: 1
    }
    shift_filler {
      type: "constant"
      value: 0.001
    }
  }
}
layer {
  name: "relu3_2_D"
  type: "ReLU"
  bottom: "conv3_2_D"
  top: "conv3_2_D"
}
layer {
  name: "conv3_1_D"
  type: "Convolution"
  bottom: "conv3_2_D"
  top: "conv3_1_D"
  param {
    lr_mult: 1
    decay_mult: 1
  }
  param {
    lr_mult: 2
    decay_mult: 0
  }
  convolution_param {
    num_output: 128
    pad: 1
    kernel_size: 3
    weight_filler {
      type: "msra"
    }
    bias_filler {
      type: "constant"
    }
  }
}
layer {
  name: "conv3_1_D_bn"
  type: "BN"
  bottom: "conv3_1_D"
  top: "conv3_1_D"
  param {
    lr_mult: 1
    decay_mult: 1
  }
  param {
    lr_mult: 1
    decay_mult: 0
  }
  bn_param {
    scale_filler {
      type: "constant"
      value: 1
    }
    shift_filler {
      type: "constant"
      value: 0.001
    }
  }
}
layer {
  name: "relu3_1_D"
  type: "ReLU"
  bottom: "conv3_1_D"
  top: "conv3_1_D"
}
layer {
  name: "upsample2"
  type: "Upsample"
  bottom: "conv3_1_D"
  bottom: "pool2_mask"
  top: "pool2_D"
  upsample_param {
    scale: 2
  }
}
layer {
  name: "conv2_2_D"
  type: "Convolution"
  bottom: "pool2_D"
  top: "conv2_2_D"
  param {
    lr_mult: 1
    decay_mult: 1
  }
  param {
    lr_mult: 2
    decay_mult: 0
  }
  convolution_param {
    num_output: 128
    pad: 1
    kernel_size: 3
    weight_filler {
      type: "msra"
    }
    bias_filler {
      type: "constant"
    }
  }
}
layer {
  name: "conv2_2_D_bn"
  type: "BN"
  bottom: "conv2_2_D"
  top: "conv2_2_D"
  param {
    lr_mult: 1
    decay_mult: 1
  }
  param {
    lr_mult: 1
    decay_mult: 0
  }
  bn_param {
    scale_filler {
      type: "constant"
      value: 1
    }
    shift_filler {
      type: "constant"
      value: 0.001
    }
  }
}
layer {
  name: "relu2_2_D"
  type: "ReLU"
  bottom: "conv2_2_D"
  top: "conv2_2_D"
}
layer {
  name: "conv2_1_D"
  type: "Convolution"
  bottom: "conv2_2_D"
  top: "conv2_1_D"
  param {
    lr_mult: 1
    decay_mult: 1
  }
  param {
    lr_mult: 2
    decay_mult: 0
  }
  convolution_param {
    num_output: 64
    pad: 1
    kernel_size: 3
    weight_filler {
      type: "msra"
    }
    bias_filler {
      type: "constant"
    }
  }
}
layer {
  name: "conv2_1_D_bn"
  type: "BN"
  bottom: "conv2_1_D"
  top: "conv2_1_D"
  param {
    lr_mult: 1
    decay_mult: 1
  }
  param {
    lr_mult: 1
    decay_mult: 0
  }
  bn_param {
    scale_filler {
      type: "constant"
      value: 1
    }
    shift_filler {
      type: "constant"
      value: 0.001
    }
  }
}
layer {
  name: "relu2_1_D"
  type: "ReLU"
  bottom: "conv2_1_D"
  top: "conv2_1_D"
}
layer {
  name: "upsample1"
  type: "Upsample"
  bottom: "conv2_1_D"
  bottom: "pool1_mask"
  top: "pool1_D"
  upsample_param {
    scale: 2
  }
}
layer {
  name: "conv1_2_D"
  type: "Convolution"
  bottom: "pool1_D"
  top: "conv1_2_D"
  param {
    lr_mult: 1
    decay_mult: 1
  }
  param {
    lr_mult: 2
    decay_mult: 0
  }
  convolution_param {
    num_output: 64
    pad: 1
    kernel_size: 3
    weight_filler {
      type: "msra"
    }
    bias_filler {
      type: "constant"
    }
  }
}
layer {
  name: "conv1_2_D_bn"
  type: "BN"
  bottom: "conv1_2_D"
  top: "conv1_2_D"
  param {
    lr_mult: 1
    decay_mult: 1
  }
  param {
    lr_mult: 1
    decay_mult: 0
  }
  bn_param {
    scale_filler {
      type: "constant"
      value: 1
    }
    shift_filler {
      type: "constant"
      value: 0.001
    }
  }
}
layer {
  name: "relu1_2_D"
  type: "ReLU"
  bottom: "conv1_2_D"
  top: "conv1_2_D"
}
layer {
  name: "conv1_1_D"
  type: "Convolution"
  bottom: "conv1_2_D"
  top: "conv1_1_D"
  param {
    lr_mult: 1
    decay_mult: 1
  }
  param {
    lr_mult: 2
    decay_mult: 0
  }
  convolution_param {
    num_output: 4
    pad: 1
    kernel_size: 3
    weight_filler {
      type: "msra"
    }
    bias_filler {
      type: "constant"
    }
  }
}
layer {
  name: "loss"
  type: "SoftmaxWithLoss"
  bottom: "conv1_1_D"
  bottom: "label"
  top: "loss"
  loss_param {
    ignore_label: 11
    weight_by_label_freqs: true
    class_weighting: 0.2595
    class_weighting: 0.1826
    class_weighting: 4.564
    class_weighting: 7.1417
  }
  softmax_param {
    engine: CAFFE
  }
}
layer {
  name: "accuracy"
  type: "Accuracy"
  bottom: "conv1_1_D"
  bottom: "label"
  top: "accuracy"
  top: "per_class_accuracy"
}
I0331 15:36:00.833745 15973 layer_factory.hpp:74] Creating layer data
I0331 15:36:00.833870 15973 net.cpp:90] Creating Layer data
I0331 15:36:00.833963 15973 net.cpp:368] data -> data
I0331 15:36:00.834055 15973 net.cpp:368] data -> label
I0331 15:36:00.834120 15973 net.cpp:120] Setting up data
I0331 15:36:00.834173 15973 dense_image_data_layer.cpp:41] Opening file /SegNet_copy/AnhLua/train.txt
I0331 15:36:00.834725 15973 dense_image_data_layer.cpp:51] Shuffling data
I0331 15:36:00.835808 15973 dense_image_data_layer.cpp:56] A total of 103 examples.
I0331 15:36:00.847465 15973 dense_image_data_layer.cpp:109] output data size: 30,3,360,480
I0331 15:36:00.848032 15973 net.cpp:127] Top shape: 30 3 360 480 (15552000)
I0331 15:36:00.848127 15973 net.cpp:127] Top shape: 30 1 360 480 (5184000)
I0331 15:36:00.848162 15973 layer_factory.hpp:74] Creating layer label_data_1_split
I0331 15:36:00.848213 15973 net.cpp:90] Creating Layer label_data_1_split
I0331 15:36:00.848260 15973 net.cpp:410] label_data_1_split <- label
I0331 15:36:00.848320 15973 net.cpp:368] label_data_1_split -> label_data_1_split_0
I0331 15:36:00.848386 15973 net.cpp:368] label_data_1_split -> label_data_1_split_1
I0331 15:36:00.848423 15973 net.cpp:120] Setting up label_data_1_split
I0331 15:36:00.848467 15973 net.cpp:127] Top shape: 30 1 360 480 (5184000)
I0331 15:36:00.848529 15973 net.cpp:127] Top shape: 30 1 360 480 (5184000)
I0331 15:36:00.848562 15973 layer_factory.hpp:74] Creating layer conv1_1
I0331 15:36:00.848615 15973 net.cpp:90] Creating Layer conv1_1
I0331 15:36:00.848657 15973 net.cpp:410] conv1_1 <- data
I0331 15:36:00.848693 15973 net.cpp:368] conv1_1 -> conv1_1
I0331 15:36:00.848753 15973 net.cpp:120] Setting up conv1_1
I0331 15:36:00.849783 15973 net.cpp:127] Top shape: 30 64 360 480 (331776000)
I0331 15:36:00.849871 15973 layer_factory.hpp:74] Creating layer conv1_1_bn
I0331 15:36:00.849927 15973 net.cpp:90] Creating Layer conv1_1_bn
I0331 15:36:00.849967 15973 net.cpp:410] conv1_1_bn <- conv1_1
I0331 15:36:00.850003 15973 net.cpp:357] conv1_1_bn -> conv1_1 (in-place)
I0331 15:36:00.850055 15973 net.cpp:120] Setting up conv1_1_bn
I0331 15:36:00.851793 15973 net.cpp:127] Top shape: 30 64 360 480 (331776000)
I0331 15:36:00.851864 15973 layer_factory.hpp:74] Creating layer relu1_1
I0331 15:36:00.851953 15973 net.cpp:90] Creating Layer relu1_1
I0331 15:36:00.851994 15973 net.cpp:410] relu1_1 <- conv1_1
I0331 15:36:00.852027 15973 net.cpp:357] relu1_1 -> conv1_1 (in-place)
I0331 15:36:00.852071 15973 net.cpp:120] Setting up relu1_1
I0331 15:36:00.852118 15973 net.cpp:127] Top shape: 30 64 360 480 (331776000)
I0331 15:36:00.852156 15973 layer_factory.hpp:74] Creating layer conv1_2
I0331 15:36:00.852190 15973 net.cpp:90] Creating Layer conv1_2
I0331 15:36:00.852226 15973 net.cpp:410] conv1_2 <- conv1_1
I0331 15:36:00.852259 15973 net.cpp:368] conv1_2 -> conv1_2
I0331 15:36:00.852305 15973 net.cpp:120] Setting up conv1_2
I0331 15:36:00.854948 15973 net.cpp:127] Top shape: 30 64 360 480 (331776000)
…
  top: "conv5_2_D"
  param {
    lr_mult: 1
    decay_mult: 1
  }
  param {
    lr_mult: 1
    decay_mult: 0
  }
  bn_param {
    scale_filler {
      type: "constant"
      value: 1
    }
    shift_filler {
      type: "constant"
      value: 0.001
    }
  }
}
layer {
  name: "relu5_2_D"
  type: "ReLU"
  bottom: "conv5_2_D"
  top: "conv5_2_D"
}
layer {
  name: "conv5_1_D"
  type: "Convolution"
  bottom: "conv5_2_D"
  top: "conv5_1_D"
  param {
    lr_mult: 1
    decay_mult: 1
  }
  param {
    lr_mult: 2
    decay_mult: 0
  }
  convolution_param {
    num_output: 512
    pad: 1
    kernel_size: 3
    weight_filler {
      type: "msra"
    }
    bias_filler {
      type: "constant"
    }
  }
}
layer {
  name: "conv5_1_D_bn"
  type: "BN"
  bottom: "conv5_1_D"
  top: "conv5_1_D"
  param {
    lr_mult: 1
    decay_mult: 1
  }
  param {
    lr_mult: 1
    decay_mult: 0
  }
  bn_param {
    scale_filler {
      type: "constant"
      value: 1
    }
    shift_filler {
      type: "constant"
      value: 0.001
    }
  }
}
layer {
  name: "relu5_1_D"
  type: "ReLU"
  bottom: "conv5_1_D"
  top: "conv5_1_D"
}
layer {
  name: "upsample4"
  type: "Upsample"
  bottom: "conv5_1_D"
  bottom: "pool4_mask"
  top: "pool4_D"
  upsample_param {
    scale: 2
    upsample_h: 45
    upsample_w: 60
  }
}
layer {
  name: "conv4_3_D"
  type: "Convolution"
  bottom: "pool4_D"
  top: "conv4_3_D"
  param {
    lr_mult: 1
    decay_mult: 1
  }
  param {
    lr_mult: 2
    decay_mult: 0
  }
  convolution_param {
    num_output: 512
    pad: 1
    kernel_size: 3
    weight_filler {
      type: "msra"
    }
    bias_filler {
      type: "constant"
    }
  }
}
layer {
  name: "conv4_3_D_bn"
  type: "BN"
  bottom: "conv4_3_D"
  top: "conv4_3_D"
  param {
    lr_mult: 1
    decay_mult: 1
  }
  param {
    lr_mult: 1
    decay_mult: 0
  }
  bn_param {
    scale_filler {
      type: "constant"
      value: 1
    }
    shift_filler {
      type: "constant"
      value: 0.001
    }
  }
}
layer {
  name: "relu4_3_D"
  type: "ReLU"
  bottom: "conv4_3_D"
  top: "conv4_3_D"
}
layer {
  name: "conv4_2_D"
  type: "Convolution"
  bottom: "conv4_3_D"
  top: "conv4_2_D"
  param {
    lr_mult: 1
    decay_mult: 1
  }
  param {
    lr_mult: 2
    decay_mult: 0
  }
  convolution_param {
    num_output: 512
    pad: 1
    kernel_size: 3
    weight_filler {
      type: "msra"
    }
    bias_filler {
      type: "constant"
    }
  }
}
layer {
  name: "conv4_2_D_bn"
  type: "BN"
  bottom: "conv4_2_D"
  top: "conv4_2_D"
  param {
    lr_mult: 1
    decay_mult: 1
  }
  param {
    lr_mult: 1
    decay_mult: 0
  }
  bn_param {
    scale_filler {
      type: "constant"
      value: 1
    }
    shift_filler {
      type: "constant"
      value: 0.001
    }
  }
}
layer {
  name: "relu4_2_D"
  type: "ReLU"
  bottom: "conv4_2_D"
  top: "conv4_2_D"
}
layer {
  name: "conv4_1_D"
  type: "Convolution"
  bottom: "conv4_2_D"
  top: "conv4_1_D"
  param {
    lr_mult: 1
    decay_mult: 1
  }
  param {
    lr_mult: 2
    decay_mult: 0
  }
  convolution_param {
    num_output: 256
    pad: 1
    kernel_size: 3
    weight_filler {
      type: "msra"
    }
    bias_filler {
      type: "constant"
    }
  }
}
layer {
  name: "conv4_1_D_bn"
  type: "BN"
  bottom: "conv4_1_D"
  top: "conv4_1_D"
  param {
    lr_mult: 1
    decay_mult: 1
  }
  param {
    lr_mult: 1
    decay_mult: 0
  }
  bn_param {
    scale_filler {
      type: "constant"
      value: 1
    }
    shift_filler {
      type: "constant"
      value: 0.001
    }
  }
}
layer {
  name: "relu4_1_D"
  type: "ReLU"
  bottom: "conv4_1_D"
  top: "conv4_1_D"
}
layer {
  name: "upsample3"
  type: "Upsample"
  bottom: "conv4_1_D"
  bottom: "pool3_mask"
  top: "pool3_D"
  upsample_param {
    scale: 2
  }
}
layer {
  name: "conv3_3_D"
  type: "Convolution"
  bottom: "pool3_D"
  top: "conv3_3_D"
  param {
    lr_mult: 1
    decay_mult: 1
  }
  param {
    lr_mult: 2
    decay_mult: 0
  }
  convolution_param {
    num_output: 256
    pad: 1
    kernel_size: 3
    weight_filler {
      type: "msra"
    }
    bias_filler {
      type: "constant"
    }
  }
}
layer {
  name: "conv3_3_D_bn"
  type: "BN"
  bottom: "conv3_3_D"
  top: "conv3_3_D"
  param {
    lr_mult: 1
    decay_mult: 1
  }
  param {
    lr_mult: 1
    decay_mult: 0
  }
  bn_param {
    scale_filler {
      type: "constant"
      value: 1
    }
    shift_filler {
      type: "constant"
      value: 0.001
    }
  }
}
layer {
  name: "relu3_3_D"
  type: "ReLU"
  bottom: "conv3_3_D"
  top: "conv3_3_D"
}
layer {
  name: "conv3_2_D"
  type: "Convolution"
  bottom: "conv3_3_D"
  top: "conv3_2_D"
  param {
    lr_mult: 1
    decay_mult: 1
  }
  param {
    lr_mult: 2
    decay_mult: 0
  }
  convolution_param {
    num_output: 256
    pad: 1
    kernel_size: 3
    weight_filler {
      type: "msra"
    }
    bias_filler {
      type: "constant"
    }
  }
}
layer {
  name: "conv3_2_D_bn"
  type: "BN"
  bottom: "conv3_2_D"
  top: "conv3_2_D"
  param {
    lr_mult: 1
    decay_mult: 1
  }
  param {
    lr_mult: 1
    decay_mult: 0
  }
  bn_param {
    scale_filler {
      type: "constant"
      value: 1
    }
    shift_filler {
      type: "constant"
      value: 0.001
    }
  }
}
layer {
  name: "relu3_2_D"
  type: "ReLU"
  bottom: "conv3_2_D"
  top: "conv3_2_D"
}
layer {
  name: "conv3_1_D"
  type: "Convolution"
  bottom: "conv3_2_D"
  top: "conv3_1_D"
  param {
    lr_mult: 1
    decay_mult: 1
  }
  param {
    lr_mult: 2
    decay_mult: 0
  }
  convolution_param {
    num_output: 128
    pad: 1
    kernel_size: 3
    weight_filler {
      type: "msra"
    }
    bias_filler {
      type: "constant"
    }
  }
}
layer {
  name: "conv3_1_D_bn"
  type: "BN"
  bottom: "conv3_1_D"
  top: "conv3_1_D"
  param {
    lr_mult: 1
    decay_mult: 1
  }
  param {
    lr_mult: 1
    decay_mult: 0
  }
  bn_param {
    scale_filler {
      type: "constant"
      value: 1
    }
    shift_filler {
      type: "constant"
      value: 0.001
    }
  }
}
layer {
  name: "relu3_1_D"
  type: "ReLU"
  bottom: "conv3_1_D"
  top: "conv3_1_D"
}
layer {
  name: "upsample2"
  type: "Upsample"
  bottom: "conv3_1_D"
  bottom: "pool2_mask"
  top: "pool2_D"
  upsample_param {
    scale: 2
  }
}
layer {
  name: "conv2_2_D"
  type: "Convolution"
  bottom: "pool2_D"
  top: "conv2_2_D"
  param {
    lr_mult: 1
    decay_mult: 1
  }
  param {
    lr_mult: 2
    decay_mult: 0
  }
  convolution_param {
    num_output: 128
    pad: 1
    kernel_size: 3
    weight_filler {
      type: "msra"
    }
    bias_filler {
      type: "constant"
    }
  }
}
layer {
  name: "conv2_2_D_bn"
  type: "BN"
  bottom: "conv2_2_D"
  top: "conv2_2_D"
  param {
    lr_mult: 1
    decay_mult: 1
  }
  param {
    lr_mult: 1
    decay_mult: 0
  }
  bn_param {
    scale_filler {
      type: "constant"
      value: 1
    }
    shift_filler {
      type: "constant"
      value: 0.001
    }
  }
}
layer {
  name: "relu2_2_D"
  type: "ReLU"
  bottom: "conv2_2_D"
  top: "conv2_2_D"
}
layer {
  name: "conv2_1_D"
  type: "Convolution"
  bottom: "conv2_2_D"
  top: "conv2_1_D"
  param {
    lr_mult: 1
    decay_mult: 1
  }
  param {
    lr_mult: 2
    decay_mult: 0
  }
  convolution_param {
    num_output: 64
    pad: 1
    kernel_size: 3
    weight_filler {
      type: "msra"
    }
    bias_filler {
      type: "constant"
    }
  }
}
layer {
  name: "conv2_1_D_bn"
  type: "BN"
  bottom: "conv2_1_D"
  top: "conv2_1_D"
  param {
    lr_mult: 1
    decay_mult: 1
  }
  param {
    lr_mult: 1
    decay_mult: 0
  }
  bn_param {
    scale_filler {
      type: "constant"
      value: 1
    }
    shift_filler {
      type: "constant"
      value: 0.001
    }
  }
}
layer {
  name: "relu2_1_D"
  type: "ReLU"
  bottom: "conv2_1_D"
  top: "conv2_1_D"
}
layer {
  name: "upsample1"
  type: "Upsample"
  bottom: "conv2_1_D"
  bottom: "pool1_mask"
  top: "pool1_D"
  upsample_param {
    scale: 2
  }
}
layer {
  name: "conv1_2_D"
  type: "Convolution"
  bottom: "pool1_D"
  top: "conv1_2_D"
  param {
    lr_mult: 1
    decay_mult: 1
  }
  param {
    lr_mult: 2
    decay_mult: 0
  }
  convolution_param {
    num_output: 64
    pad: 1
    kernel_size: 3
    weight_filler {
      type: "msra"
    }
    bias_filler {
      type: "constant"
    }
  }
}
layer {
  name: "conv1_2_D_bn"
  type: "BN"
  bottom: "conv1_2_D"
  top: "conv1_2_D"
  param {
    lr_mult: 1
    decay_mult: 1
  }
  param {
    lr_mult: 1
    decay_mult: 0
  }
  bn_param {
    scale_filler {
      type: "constant"
      value: 1
    }
    shift_filler {
      type: "constant"
      value: 0.001
    }
  }
}
layer {
  name: "relu1_2_D"
  type: "ReLU"
  bottom: "conv1_2_D"
  top: "conv1_2_D"
}
layer {
  name: "conv1_1_D"
  type: "Convolution"
  bottom: "conv1_2_D"
  top: "conv1_1_D"
  param {
    lr_mult: 1
    decay_mult: 1
  }
  param {
    lr_mult: 2
    decay_mult: 0
  }
  convolution_param {
    num_output: 4
    pad: 1
    kernel_size: 3
    weight_filler {
      type: "msra"
    }
    bias_filler {
      type: "constant"
    }
  }
}
layer {
  name: "loss"
  type: "SoftmaxWithLoss"
  bottom: "conv1_1_D"
  bottom: "label"
  top: "loss"
  loss_param {
    ignore_label: 11
    weight_by_label_freqs: true
    class_weighting: 0.2595
    class_weighting: 0.1826
    class_weighting: 4.564
    class_weighting: 7.1417
  }
  softmax_param {
    engine: CAFFE
  }
}
layer {
  name: "accuracy"
  type: "Accuracy"
  bottom: "conv1_1_D"
  bottom: "label"
  top: "accuracy"
  top: "per_class_accuracy"
}
I0331 16:34:38.254211 16195 layer_factory.hpp:74] Creating layer data
I0331 16:34:38.254307 16195 net.cpp:90] Creating Layer data
I0331 16:34:38.254381 16195 net.cpp:368] data -> data
I0331 16:34:38.254475 16195 net.cpp:368] data -> label
I0331 16:34:38.254549 16195 net.cpp:120] Setting up data
I0331 16:34:38.254577 16195 dense_image_data_layer.cpp:41] Opening file /SegNet_copy/AnhLua/train.txt
I0331 16:34:38.254905 16195 dense_image_data_layer.cpp:51] Shuffling data
I0331 16:34:38.255446 16195 dense_image_data_layer.cpp:56] A total of 103 examples.
I0331 16:34:38.259842 16195 dense_image_data_layer.cpp:109] output data size: 20,3,360,480
I0331 16:34:38.260099 16195 net.cpp:127] Top shape: 20 3 360 480 (10368000)
I0331 16:34:38.260123 16195 net.cpp:127] Top shape: 20 1 360 480 (3456000)
I0331 16:34:38.260198 16195 layer_factory.hpp:74] Creating layer label_data_1_split
I0331 16:34:38.260313 16195 net.cpp:90] Creating Layer label_data_1_split
I0331 16:34:38.260336 16195 net.cpp:410] label_data_1_split <- label
I0331 16:34:38.267407 16195 net.cpp:368] label_data_1_split -> label_data_1_split_0
I0331 16:34:38.267473 16195 net.cpp:368] label_data_1_split -> label_data_1_split_1
I0331 16:34:38.267499 16195 net.cpp:120] Setting up label_data_1_split
I0331 16:34:38.267611 16195 net.cpp:127] Top shape: 20 1 360 480 (3456000)
I0331 16:34:38.267633 16195 net.cpp:127] Top shape: 20 1 360 480 (3456000)
I0331 16:34:38.267698 16195 layer_factory.hpp:74] Creating layer conv1_1
I0331 16:34:38.267817 16195 net.cpp:90] Creating Layer conv1_1
I0331 16:34:38.267838 16195 net.cpp:410] conv1_1 <- data
I0331 16:34:38.267940 16195 net.cpp:368] conv1_1 -> conv1_1
I0331 16:34:38.268018 16195 net.cpp:120] Setting up conv1_1
I0331 16:34:38.268527 16195 net.cpp:127] Top shape: 20 64 360 480 (221184000)
I0331 16:34:38.268617 16195 layer_factory.hpp:74] Creating layer conv1_1_bn
I0331 16:34:38.268687 16195 net.cpp:90] Creating Layer conv1_1_bn
I0331 16:34:38.268709 16195 net.cpp:410] conv1_1_bn <- conv1_1
I0331 16:34:38.268815 16195 net.cpp:357] conv1_1_bn -> conv1_1 (in-place)
I0331 16:34:38.268887 16195 net.cpp:120] Setting up conv1_1_bn
I0331 16:34:38.269625 16195 net.cpp:127] Top shape: 20 64 360 480 (221184000)
I0331 16:34:38.269703 16195 layer_factory.hpp:74] Creating layer relu1_1
I0331 16:34:38.269795 16195 net.cpp:90] Creating Layer relu1_1
I0331 16:34:38.269816 16195 net.cpp:410] relu1_1 <- conv1_1
I0331 16:34:38.269920 16195 net.cpp:357] relu1_1 -> conv1_1 (in-place)
I0331 16:34:38.269945 16195 net.cpp:120] Setting up relu1_1
I0331 16:34:38.270051 16195 net.cpp:127] Top shape: 20 64 360 480 (221184000)
I0331 16:34:38.270073 16195 layer_factory.hpp:74] Creating layer conv1_2
I0331 16:34:38.270179 16195 net.cpp:90] Creating Layer conv1_2
I0331 16:34:38.270200 16195 net.cpp:410] conv1_2 <- conv1_1
I0331 16:34:38.270308 16195 net.cpp:368] conv1_2 -> conv1_2
I0331 16:34:38.270376 16195 net.cpp:120] Setting up conv1_2
I0331 16:34:38.271469 16195 net.cpp:127] Top shape: 20 64 360 480 (221184000)
I0331 16:34:38.271499 16195 layer_factory.hpp:74] Creating layer conv1_2_bn
I0331 16:34:38.271618 16195 net.cpp:90] Creating Layer conv1_2_bn
I0331 16:34:38.271639 16195 net.cpp:410] conv1_2_bn <- conv1_2
I0331 16:34:38.271741 16195 net.cpp:357] conv1_2_bn -> conv1_2 (in-place)
I0331 16:34:38.271766 16195 net.cpp:120] Setting up conv1_2_bn
I0331 16:34:38.275723 16195 net.cpp:127] Top shape: 20 64 360 480 (221184000)
I0331 16:34:38.275758 16195 layer_factory.hpp:74] Creating layer relu1_2
I0331 16:34:38.275832 16195 net.cpp:90] Creating Layer relu1_2
I0331 16:34:38.275853 16195 net.cpp:410] relu1_2 <- conv1_2
I0331 16:34:38.275920 16195 net.cpp:357] relu1_2 -> conv1_2 (in-place)
I0331 16:34:38.275943 16195 net.cpp:120] Setting up relu1_2
I0331 16:34:38.276049 16195 net.cpp:127] Top shape: 20 64 360 480 (221184000)
I0331 16:34:38.276072 16195 layer_factory.hpp:74] Creating layer pool1
I0331 16:34:38.276182 16195 net.cpp:90] Creating Layer pool1
I0331 16:34:38.276203 16195 net.cpp:410] pool1 <- conv1_2
I0331 16:34:38.276307 16195 net.cpp:368] pool1 -> pool1
I0331 16:34:38.276386 16195 net.cpp:368] pool1 -> pool1_mask
I0331 16:34:38.276412 16195 net.cpp:120] Setting up pool1
I0331 16:34:38.276554 16195 net.cpp:127] Top shape: 20 64 180 240 (55296000)
I0331 16:34:38.276578 16195 net.cpp:127] Top shape: 20 64 180 240 (55296000)
I0331 16:34:38.276638 16195 layer_factory.hpp:74] Creating layer conv2_1
I0331 16:34:38.276708 16195 net.cpp:90] Creating Layer conv2_1
I0331 16:34:38.276731 16195 net.cpp:410] conv2_1 <- pool1
I0331 16:34:38.276835 16195 net.cpp:368] conv2_1 -> conv2_1
I0331 16:34:38.276911 16195 net.cpp:120] Setting up conv2_1
I0331 16:34:38.278393 16195 net.cpp:127] Top shape: 20 128 180 240 (110592000)
I0331 16:34:38.278472 16195 layer_factory.hpp:74] Creating layer conv2_1_bn
I0331 16:34:38.278545 16195 net.cpp:90] Creating Layer conv2_1_bn
I0331 16:34:38.278566 16195 net.cpp:410] conv2_1_bn <- conv2_1
I0331 16:34:38.278671 16195 net.cpp:357] conv2_1_bn -> conv2_1 (in-place)
I0331 16:34:38.278744 16195 net.cpp:120] Setting up conv2_1_bn
I0331 16:34:38.279011 16195 net.cpp:127] Top shape: 20 128 180 240 (110592000)
I0331 16:34:38.279081 16195 layer_factory.hpp:74] Creating layer relu2_1
I0331 16:34:38.279105 16195 net.cpp:90] Creating Layer relu2_1
I0331 16:34:38.279177 16195 net.cpp:410] relu2_1 <- conv2_1
I0331 16:34:38.279278 16195 net.cpp:357] relu2_1 -> conv2_1 (in-place)
I0331 16:34:38.279304 16195 net.cpp:120] Setting up relu2_1
I0331 16:34:38.279407 16195 net.cpp:127] Top shape: 20 128 180 240 (110592000)
I0331 16:34:38.279429 16195 layer_factory.hpp:74] Creating layer conv2_2
I0331 16:34:38.279536 16195 net.cpp:90] Creating Layer conv2_2
I0331 16:34:38.279556 16195 net.cpp:410] conv2_2 <- conv2_1
I0331 16:34:38.279659 16195 net.cpp:368] conv2_2 -> conv2_2
I0331 16:34:38.279732 16195 net.cpp:120] Setting up conv2_2
I0331 16:34:38.282517 16195 net.cpp:127] Top shape: 20 128 180 240 (110592000)
I0331 16:34:38.282546 16195 layer_factory.hpp:74] Creating layer conv2_2_bn
I0331 16:34:38.282665 16195 net.cpp:90] Creating Layer conv2_2_bn
I0331 16:34:38.282687 16195 net.cpp:410] conv2_2_bn <- conv2_2
I0331 16:34:38.282794 16195 net.cpp:357] conv2_2_bn -> conv2_2 (in-place)
I0331 16:34:38.282860 16195 net.cpp:120] Setting up conv2_2_bn
I0331 16:34:38.284023 16195 net.cpp:127] Top shape: 20 128 180 240 (110592000)
I0331 16:34:38.284116 16195 layer_factory.hpp:74] Creating layer relu2_2
I0331 16:34:38.284144 16195 net.cpp:90] Creating Layer relu2_2
I0331 16:34:38.284157 16195 net.cpp:410] relu2_2 <- conv2_2
I0331 16:34:38.284173 16195 net.cpp:357] relu2_2 -> conv2_2 (in-place)
I0331 16:34:38.284281 16195 net.cpp:120] Setting up relu2_2
I0331 16:34:38.284304 16195 net.cpp:127] Top shape: 20 128 180 240 (110592000)
I0331 16:34:38.284366 16195 layer_factory.hpp:74] Creating layer pool2
I0331 16:34:38.284472 16195 net.cpp:90] Creating Layer pool2
I0331 16:34:38.284514 16195 net.cpp:410] pool2 <- conv2_2
I0331 16:34:38.284622 16195 net.cpp:368] pool2 -> pool2
I0331 16:34:38.284695 16195 net.cpp:368] pool2 -> pool2_mask
I0331 16:34:38.284720 16195 net.cpp:120] Setting up pool2
I0331 16:34:38.284833 16195 net.cpp:127] Top shape: 20 128 90 120 (27648000)
I0331 16:34:38.284855 16195 net.cpp:127] Top shape: 20 128 90 120 (27648000)
I0331 16:34:38.284914 16195 layer_factory.hpp:74] Creating layer conv3_1
I0331 16:34:38.285027 16195 net.cpp:90] Creating Layer conv3_1
I0331 16:34:38.285048 16195 net.cpp:410] conv3_1 <- pool2
I0331 16:34:38.285188 16195 net.cpp:368] conv3_1 -> conv3_1
I0331 16:34:38.285217 16195 net.cpp:120] Setting up conv3_1
I0331 16:34:38.290530 16195 net.cpp:127] Top shape: 20 256 90 120 (55296000)
I0331 16:34:38.290568 16195 layer_factory.hpp:74] Creating layer conv3_1_bn
I0331 16:34:38.292583 16195 net.cpp:90] Creating Layer conv3_1_bn
I0331 16:34:38.292701 16195 net.cpp:410] conv3_1_bn <- conv3_1
I0331 16:34:38.292872 16195 net.cpp:357] conv3_1_bn -> conv3_1 (in-place)
I0331 16:34:38.292979 16195 net.cpp:120] Setting up conv3_1_bn
I0331 16:34:38.293160 16195 net.cpp:127] Top shape: 20 256 90 120 (55296000)
I0331 16:34:38.293334 16195 layer_factory.hpp:74] Creating layer relu3_1
I0331 16:34:38.293362 16195 net.cpp:90] Creating Layer relu3_1
I0331 16:34:38.293457 16195 net.cpp:410] relu3_1 <- conv3_1
I0331 16:34:38.293623 16195 net.cpp:357] relu3_1 -> conv3_1 (in-place)
I0331 16:34:38.293648 16195 net.cpp:120] Setting up relu3_1
I0331 16:34:38.293822 16195 net.cpp:127] Top shape: 20 256 90 120 (55296000)
I0331 16:34:38.293843 16195 layer_factory.hpp:74] Creating layer conv3_2
I0331 16:34:38.294004 16195 net.cpp:90] Creating Layer conv3_2
I0331 16:34:38.294025 16195 net.cpp:410] conv3_2 <- conv3_1
I0331 16:34:38.294193 16195 net.cpp:368] conv3_2 -> conv3_2
I0331 16:34:38.294299 16195 net.cpp:120] Setting up conv3_2
I0331 16:34:38.314952 16195 net.cpp:127] Top shape: 20 256 90 120 (55296000)
I0331 16:34:38.315006 16195 layer_factory.hpp:74] Creating layer conv3_2_bn
I0331 16:34:38.315568 16195 net.cpp:90] Creating Layer conv3_2_bn
I0331 16:34:38.315593 16195 net.cpp:410] conv3_2_bn <- conv3_2
I0331 16:34:38.315778 16195 net.cpp:357] conv3_2_bn -> conv3_2 (in-place)
I0331 16:34:38.315891 16195 net.cpp:120] Setting up conv3_2_bn
I0331 16:34:38.316079 16195 net.cpp:127] Top shape: 20 256 90 120 (55296000)
I0331 16:34:38.316262 16195 layer_factory.hpp:74] Creating layer relu3_2
I0331 16:34:38.316368 16195 net.cpp:90] Creating Layer relu3_2
I0331 16:34:38.316390 16195 net.cpp:410] relu3_2 <- conv3_2
I0331 16:34:38.316565 16195 net.cpp:357] relu3_2 -> conv3_2 (in-place)
I0331 16:34:38.316591 16195 net.cpp:120] Setting up relu3_2
I0331 16:34:38.316768 16195 net.cpp:127] Top shape: 20 256 90 120 (55296000)
I0331 16:34:38.316790 16195 layer_factory.hpp:74] Creating layer conv3_3
I0331 16:34:38.316957 16195 net.cpp:90] Creating Layer conv3_3
I0331 16:34:38.316978 16195 net.cpp:410] conv3_3 <- conv3_2
I0331 16:34:38.317143 16195 net.cpp:368] conv3_3 -> conv3_3
I0331 16:34:38.317250 16195 net.cpp:120] Setting up conv3_3
I0331 16:34:38.327754 16195 net.cpp:127] Top shape: 20 256 90 120 (55296000)
I0331 16:34:38.327798 16195 layer_factory.hpp:74] Creating layer conv3_3_bn
I0331 16:34:38.342344 16195 net.cpp:90] Creating Layer conv3_3_bn
I0331 16:34:38.342402 16195 net.cpp:410] conv3_3_bn <- conv3_3
I0331 16:34:38.342429 16195 net.cpp:357] conv3_3_bn -> conv3_3 (in-place)
I0331 16:34:38.342633 16195 net.cpp:120] Setting up conv3_3_bn
I0331 16:34:38.342785 16195 net.cpp:127] Top shape: 20 256 90 120 (55296000)
I0331 16:34:38.342859 16195 layer_factory.hpp:74] Creating layer relu3_3
I0331 16:34:38.342885 16195 net.cpp:90] Creating Layer relu3_3
I0331 16:34:38.342947 16195 net.cpp:410] relu3_3 <- conv3_3
I0331 16:34:38.343049 16195 net.cpp:357] relu3_3 -> conv3_3 (in-place)
I0331 16:34:38.343073 16195 net.cpp:120] Setting up relu3_3
I0331 16:34:38.343179 16195 net.cpp:127] Top shape: 20 256 90 120 (55296000)
I0331 16:34:38.343200 16195 layer_factory.hpp:74] Creating layer pool3
I0331 16:34:38.343304 16195 net.cpp:90] Creating Layer pool3
I0331 16:34:38.343324 16195 net.cpp:410] pool3 <- conv3_3
I0331 16:34:38.343430 16195 net.cpp:368] pool3 -> pool3
I0331 16:34:38.343499 16195 net.cpp:368] pool3 -> pool3_mask
I0331 16:34:38.343574 16195 net.cpp:120] Setting up pool3
I0331 16:34:38.343644 16195 net.cpp:127] Top shape: 20 256 45 60 (13824000)
I0331 16:34:38.343667 16195 net.cpp:127] Top shape: 20 256 45 60 (13824000)
I0331 16:34:38.343726 16195 layer_factory.hpp:74] Creating layer conv4_1
I0331 16:34:38.343832 16195 net.cpp:90] Creating Layer conv4_1
I0331 16:34:38.343852 16195 net.cpp:410] conv4_1 <- pool3
I0331 16:34:38.343958 16195 net.cpp:368] conv4_1 -> conv4_1
I0331 16:34:38.344029 16195 net.cpp:120] Setting up conv4_1
I0331 16:34:38.381002 16195 net.cpp:127] Top shape: 20 512 45 60 (27648000)
I0331 16:34:38.381058 16195 layer_factory.hpp:74] Creating layer conv4_1_bn
I0331 16:34:38.383729 16195 net.cpp:90] Creating Layer conv4_1_bn
I0331 16:34:38.383754 16195 net.cpp:410] conv4_1_bn <- conv4_1
I0331 16:34:38.383874 16195 net.cpp:357] conv4_1_bn -> conv4_1 (in-place)
I0331 16:34:38.383945 16195 net.cpp:120] Setting up conv4_1_bn
I0331 16:34:38.384043 16195 net.cpp:127] Top shape: 20 512 45 60 (27648000)
I0331 16:34:38.384110 16195 layer_factory.hpp:74] Creating layer relu4_1
I0331 16:34:38.384181 16195 net.cpp:90] Creating Layer relu4_1
I0331 16:34:38.384202 16195 net.cpp:410] relu4_1 <- conv4_1
I0331 16:34:38.384302 16195 net.cpp:357] relu4_1 -> conv4_1 (in-place)
I0331 16:34:38.384326 16195 net.cpp:120] Setting up relu4_1
I0331 16:34:38.384429 16195 net.cpp:127] Top shape: 20 512 45 60 (27648000)
I0331 16:34:38.384451 16195 layer_factory.hpp:74] Creating layer conv4_2
I0331 16:34:38.384573 16195 net.cpp:90] Creating Layer conv4_2
I0331 16:34:38.384595 16195 net.cpp:410] conv4_2 <- conv4_1
I0331 16:34:38.384699 16195 net.cpp:368] conv4_2 -> conv4_2
I0331 16:34:38.384769 16195 net.cpp:120] Setting up conv4_2
I0331 16:34:38.460075 16195 net.cpp:127] Top shape: 20 512 45 60 (27648000)
I0331 16:34:38.460139 16195 layer_factory.hpp:74] Creating layer conv4_2_bn
I0331 16:34:38.471573 16195 net.cpp:90] Creating Layer conv4_2_bn
I0331 16:34:38.471621 16195 net.cpp:410] conv4_2_bn <- conv4_2
I0331 16:34:38.471644 16195 net.cpp:357] conv4_2_bn -> conv4_2 (in-place)
I0331 16:34:38.471963 16195 net.cpp:120] Setting up conv4_2_bn
I0331 16:34:38.472113 16195 net.cpp:127] Top shape: 20 512 45 60 (27648000)
I0331 16:34:38.472266 16195 layer_factory.hpp:74] Creating layer relu4_2
I0331 16:34:38.472291 16195 net.cpp:90] Creating Layer relu4_2
I0331 16:34:38.472388 16195 net.cpp:410] relu4_2 <- conv4_2
I0331 16:34:38.472559 16195 net.cpp:357] relu4_2 -> conv4_2 (in-place)
I0331 16:34:38.472587 16195 net.cpp:120] Setting up relu4_2
I0331 16:34:38.472749 16195 net.cpp:127] Top shape: 20 512 45 60 (27648000)
I0331 16:34:38.472772 16195 layer_factory.hpp:74] Creating layer conv4_3
I0331 16:34:38.472941 16195 net.cpp:90] Creating Layer conv4_3
I0331 16:34:38.472961 16195 net.cpp:410] conv4_3 <- conv4_2
I0331 16:34:38.473127 16195 net.cpp:368] conv4_3 -> conv4_3
I0331 16:34:38.473237 16195 net.cpp:120] Setting up conv4_3
I0331 16:34:38.561885 16195 net.cpp:127] Top shape: 20 512 45 60 (27648000)
I0331 16:34:38.561949 16195 layer_factory.hpp:74] Creating layer conv4_3_bn
I0331 16:34:38.561974 16195 net.cpp:90] Creating Layer conv4_3_bn
I0331 16:34:38.561990 16195 net.cpp:410] conv4_3_bn <- conv4_3
I0331 16:34:38.562006 16195 net.cpp:357] conv4_3_bn -> conv4_3 (in-place)
I0331 16:34:38.562050 16195 net.cpp:120] Setting up conv4_3_bn
I0331 16:34:38.562095 16195 net.cpp:127] Top shape: 20 512 45 60 (27648000)
I0331 16:34:38.562115 16195 layer_factory.hpp:74] Creating layer relu4_3
I0331 16:34:38.562136 16195 net.cpp:90] Creating Layer relu4_3
I0331 16:34:38.562150 16195 net.cpp:410] relu4_3 <- conv4_3
I0331 16:34:38.562161 16195 net.cpp:357] relu4_3 -> conv4_3 (in-place)
I0331 16:34:38.562175 16195 net.cpp:120] Setting up relu4_3
I0331 16:34:38.562188 16195 net.cpp:127] Top shape: 20 512 45 60 (27648000)
I0331 16:34:38.562201 16195 layer_factory.hpp:74] Creating layer pool4
I0331 16:34:38.562214 16195 net.cpp:90] Creating Layer pool4
I0331 16:34:38.562225 16195 net.cpp:410] pool4 <- conv4_3
I0331 16:34:38.562238 16195 net.cpp:368] pool4 -> pool4
I0331 16:34:38.562257 16195 net.cpp:368] pool4 -> pool4_mask
I0331 16:34:38.562273 16195 net.cpp:120] Setting up pool4
I0331 16:34:38.562292 16195 net.cpp:127] Top shape: 20 512 23 30 (7065600)
I0331 16:34:38.562307 16195 net.cpp:127] Top shape: 20 512 23 30 (7065600)
I0331 16:34:38.562319 16195 layer_factory.hpp:74] Creating layer conv5_1
I0331 16:34:38.562340 16195 net.cpp:90] Creating Layer conv5_1
I0331 16:34:38.562352 16195 net.cpp:410] conv5_1 <- pool4
I0331 16:34:38.562368 16195 net.cpp:368] conv5_1 -> conv5_1
I0331 16:34:38.562386 16195 net.cpp:120] Setting up conv5_1
I0331 16:34:38.641021 16195 net.cpp:127] Top shape: 20 512 23 30 (7065600)
I0331 16:34:38.641086 16195 layer_factory.hpp:74] Creating layer conv5_1_bn
I0331 16:34:38.641110 16195 net.cpp:90] Creating Layer conv5_1_bn
I0331 16:34:38.641131 16195 net.cpp:410] conv5_1_bn <- conv5_1
I0331 16:34:38.641154 16195 net.cpp:357] conv5_1_bn -> conv5_1 (in-place)
I0331 16:34:38.641173 16195 net.cpp:120] Setting up conv5_1_bn
I0331 16:34:38.641211 16195 net.cpp:127] Top shape: 20 512 23 30 (7065600)
I0331 16:34:38.641232 16195 layer_factory.hpp:74] Creating layer relu5_1
I0331 16:34:38.641248 16195 net.cpp:90] Creating Layer relu5_1
I0331 16:34:38.641260 16195 net.cpp:410] relu5_1 <- conv5_1
I0331 16:34:38.641273 16195 net.cpp:357] relu5_1 -> conv5_1 (in-place)
I0331 16:34:38.641288 16195 net.cpp:120] Setting up relu5_1
I0331 16:34:38.641300 16195 net.cpp:127] Top shape: 20 512 23 30 (7065600)
I0331 16:34:38.641312 16195 layer_factory.hpp:74] Creating layer conv5_2
I0331 16:34:38.641327 16195 net.cpp:90] Creating Layer conv5_2
I0331 16:34:38.641340 16195 net.cpp:410] conv5_2 <- conv5_1
I0331 16:34:38.641357 16195 net.cpp:368] conv5_2 -> conv5_2
I0331 16:34:38.641376 16195 net.cpp:120] Setting up conv5_2
I0331 16:34:38.703981 16195 net.cpp:127] Top shape: 20 512 23 30 (7065600)
I0331 16:34:38.704044 16195 layer_factory.hpp:74] Creating layer conv5_2_bn
I0331 16:34:38.704068 16195 net.cpp:90] Creating Layer conv5_2_bn
I0331 16:34:38.704080 16195 net.cpp:410] conv5_2_bn <- conv5_2
I0331 16:34:38.704102 16195 net.cpp:357] conv5_2_bn -> conv5_2 (in-place)
I0331 16:34:38.704128 16195 net.cpp:120] Setting up conv5_2_bn
I0331 16:34:38.704167 16195 net.cpp:127] Top shape: 20 512 23 30 (7065600)
I0331 16:34:38.704190 16195 layer_factory.hpp:74] Creating layer relu5_2
I0331 16:34:38.704208 16195 net.cpp:90] Creating Layer relu5_2
I0331 16:34:38.704221 16195 net.cpp:410] relu5_2 <- conv5_2
I0331 16:34:38.704236 16195 net.cpp:357] relu5_2 -> conv5_2 (in-place)
I0331 16:34:38.704252 16195 net.cpp:120] Setting up relu5_2
I0331 16:34:38.704264 16195 net.cpp:127] Top shape: 20 512 23 30 (7065600)
I0331 16:34:38.704277 16195 layer_factory.hpp:74] Creating layer conv5_3
I0331 16:34:38.704291 16195 net.cpp:90] Creating Layer conv5_3
I0331 16:34:38.704303 16195 net.cpp:410] conv5_3 <- conv5_2
I0331 16:34:38.704320 16195 net.cpp:368] conv5_3 -> conv5_3
I0331 16:34:38.704339 16195 net.cpp:120] Setting up conv5_3
I0331 16:34:38.748577 16195 net.cpp:127] Top shape: 20 512 23 30 (7065600)
I0331 16:34:38.748641 16195 layer_factory.hpp:74] Creating layer conv5_3_bn
I0331 16:34:38.748663 16195 net.cpp:90] Creating Layer conv5_3_bn
I0331 16:34:38.748679 16195 net.cpp:410] conv5_3_bn <- conv5_3
I0331 16:34:38.748726 16195 net.cpp:357] conv5_3_bn -> conv5_3 (in-place)
I0331 16:34:38.748747 16195 net.cpp:120] Setting up conv5_3_bn
I0331 16:34:38.748785 16195 net.cpp:127] Top shape: 20 512 23 30 (7065600)
I0331 16:34:38.748803 16195 layer_factory.hpp:74] Creating layer relu5_3
I0331 16:34:38.748823 16195 net.cpp:90] Creating Layer relu5_3
I0331 16:34:38.748836 16195 net.cpp:410] relu5_3 <- conv5_3
I0331 16:34:38.748848 16195 net.cpp:357] relu5_3 -> conv5_3 (in-place)
I0331 16:34:38.748862 16195 net.cpp:120] Setting up relu5_3
I0331 16:34:38.748878 16195 net.cpp:127] Top shape: 20 512 23 30 (7065600)
I0331 16:34:38.748891 16195 layer_factory.hpp:74] Creating layer pool5
I0331 16:34:38.748904 16195 net.cpp:90] Creating Layer pool5
I0331 16:34:38.748916 16195 net.cpp:410] pool5 <- conv5_3
I0331 16:34:38.748931 16195 net.cpp:368] pool5 -> pool5
I0331 16:34:38.748950 16195 net.cpp:368] pool5 -> pool5_mask
I0331 16:34:38.748967 16195 net.cpp:120] Setting up pool5
I0331 16:34:38.748986 16195 net.cpp:127] Top shape: 20 512 12 15 (1843200)
I0331 16:34:38.749001 16195 net.cpp:127] Top shape: 20 512 12 15 (1843200)
I0331 16:34:38.749011 16195 layer_factory.hpp:74] Creating layer upsample5
I0331 16:34:38.749027 16195 net.cpp:90] Creating Layer upsample5
I0331 16:34:38.749039 16195 net.cpp:410] upsample5 <- pool5
I0331 16:34:38.749049 16195 net.cpp:410] upsample5 <- pool5_mask
I0331 16:34:38.749068 16195 net.cpp:368] upsample5 -> pool5_D
I0331 16:34:38.749090 16195 net.cpp:120] Setting up upsample5
I0331 16:34:38.749111 16195 net.cpp:127] Top shape: 20 512 23 30 (7065600)
I0331 16:34:38.749125 16195 layer_factory.hpp:74] Creating layer conv5_3_D
I0331 16:34:38.749142 16195 net.cpp:90] Creating Layer conv5_3_D
I0331 16:34:38.749155 16195 net.cpp:410] conv5_3_D <- pool5_D
I0331 16:34:38.749171 16195 net.cpp:368] conv5_3_D -> conv5_3_D
I0331 16:34:38.749188 16195 net.cpp:120] Setting up conv5_3_D
I0331 16:34:38.792868 16195 net.cpp:127] Top shape: 20 512 23 30 (7065600)
I0331 16:34:38.792934 16195 layer_factory.hpp:74] Creating layer conv5_3_D_bn
I0331 16:34:38.792956 16195 net.cpp:90] Creating Layer conv5_3_D_bn
I0331 16:34:38.792971 16195 net.cpp:410] conv5_3_D_bn <- conv5_3_D
I0331 16:34:38.792989 16195 net.cpp:357] conv5_3_D_bn -> conv5_3_D (in-place)
I0331 16:34:38.793007 16195 net.cpp:120] Setting up conv5_3_D_bn
I0331 16:34:38.793046 16195 net.cpp:127] Top shape: 20 512 23 30 (7065600)
I0331 16:34:38.793066 16195 layer_factory.hpp:74] Creating layer relu5_3_D
I0331 16:34:38.793082 16195 net.cpp:90] Creating Layer relu5_3_D
I0331 16:34:38.793095 16195 net.cpp:410] relu5_3_D <- conv5_3_D
I0331 16:34:38.793107 16195 net.cpp:357] relu5_3_D -> conv5_3_D (in-place)
I0331 16:34:38.793121 16195 net.cpp:120] Setting up relu5_3_D
I0331 16:34:38.793138 16195 net.cpp:127] Top shape: 20 512 23 30 (7065600)
I0331 16:34:38.793150 16195 layer_factory.hpp:74] Creating layer conv5_2_D
I0331 16:34:38.793167 16195 net.cpp:90] Creating Layer conv5_2_D
I0331 16:34:38.793180 16195 net.cpp:410] conv5_2_D <- conv5_3_D
I0331 16:34:38.793196 16195 net.cpp:368] conv5_2_D -> conv5_2_D
I0331 16:34:38.793215 16195 net.cpp:120] Setting up conv5_2_D
I0331 16:34:38.837020 16195 net.cpp:127] Top shape: 20 512 23 30 (7065600)
I0331 16:34:38.837081 16195 layer_factory.hpp:74] Creating layer conv5_2_D_bn
I0331 16:34:38.837105 16195 net.cpp:90] Creating Layer conv5_2_D_bn
I0331 16:34:38.837121 16195 net.cpp:410] conv5_2_D_bn <- conv5_2_D
I0331 16:34:38.837137 16195 net.cpp:357] conv5_2_D_bn -> conv5_2_D (in-place)
I0331 16:34:38.837157 16195 net.cpp:120] Setting up conv5_2_D_bn
I0331 16:34:38.837194 16195 net.cpp:127] Top shape: 20 512 23 30 (7065600)
I0331 16:34:38.837213 16195 layer_factory.hpp:74] Creating layer relu5_2_D
I0331 16:34:38.837234 16195 net.cpp:90] Creating Layer relu5_2_D
I0331 16:34:38.837247 16195 net.cpp:410] relu5_2_D <- conv5_2_D
I0331 16:34:38.837260 16195 net.cpp:357] relu5_2_D -> conv5_2_D (in-place)
I0331 16:34:38.837273 16195 net.cpp:120] Setting up relu5_2_D
I0331 16:34:38.837290 16195 net.cpp:127] Top shape: 20 512 23 30 (7065600)
I0331 16:34:38.837324 16195 layer_factory.hpp:74] Creating layer conv5_1_D
I0331 16:34:38.837340 16195 net.cpp:90] Creating Layer conv5_1_D
I0331 16:34:38.837353 16195 net.cpp:410] conv5_1_D <- conv5_2_D
I0331 16:34:38.837369 16195 net.cpp:368] conv5_1_D -> conv5_1_D
I0331 16:34:38.837388 16195 net.cpp:120] Setting up conv5_1_D
I0331 16:34:38.878170 16195 net.cpp:127] Top shape: 20 512 23 30 (7065600)
I0331 16:34:38.878232 16195 layer_factory.hpp:74] Creating layer conv5_1_D_bn
I0331 16:34:38.878254 16195 net.cpp:90] Creating Layer conv5_1_D_bn
I0331 16:34:38.878268 16195 net.cpp:410] conv5_1_D_bn <- conv5_1_D
I0331 16:34:38.878286 16195 net.cpp:357] conv5_1_D_bn -> conv5_1_D (in-place)
I0331 16:34:38.878306 16195 net.cpp:120] Setting up conv5_1_D_bn
I0331 16:34:38.878342 16195 net.cpp:127] Top shape: 20 512 23 30 (7065600)
I0331 16:34:38.878363 16195 layer_factory.hpp:74] Creating layer relu5_1_D
I0331 16:34:38.878381 16195 net.cpp:90] Creating Layer relu5_1_D
I0331 16:34:38.878394 16195 net.cpp:410] relu5_1_D <- conv5_1_D
I0331 16:34:38.878409 16195 net.cpp:357] relu5_1_D -> conv5_1_D (in-place)
I0331 16:34:38.878424 16195 net.cpp:120] Setting up relu5_1_D
I0331 16:34:38.878442 16195 net.cpp:127] Top shape: 20 512 23 30 (7065600)
I0331 16:34:38.878453 16195 layer_factory.hpp:74] Creating layer upsample4
I0331 16:34:38.878468 16195 net.cpp:90] Creating Layer upsample4
I0331 16:34:38.878479 16195 net.cpp:410] upsample4 <- conv5_1_D
I0331 16:34:38.878490 16195 net.cpp:410] upsample4 <- pool4_mask
I0331 16:34:38.878506 16195 net.cpp:368] upsample4 -> pool4_D
I0331 16:34:38.878523 16195 net.cpp:120] Setting up upsample4
I0331 16:34:38.878541 16195 net.cpp:127] Top shape: 20 512 45 60 (27648000)
I0331 16:34:38.878554 16195 layer_factory.hpp:74] Creating layer conv4_3_D
I0331 16:34:38.878571 16195 net.cpp:90] Creating Layer conv4_3_D
I0331 16:34:38.878584 16195 net.cpp:410] conv4_3_D <- pool4_D
I0331 16:34:38.878598 16195 net.cpp:368] conv4_3_D -> conv4_3_D
I0331 16:34:38.878623 16195 net.cpp:120] Setting up conv4_3_D
I0331 16:34:38.919883 16195 net.cpp:127] Top shape: 20 512 45 60 (27648000)
I0331 16:34:38.919961 16195 layer_factory.hpp:74] Creating layer conv4_3_D_bn
I0331 16:34:38.919988 16195 net.cpp:90] Creating Layer conv4_3_D_bn
I0331 16:34:38.920004 16195 net.cpp:410] conv4_3_D_bn <- conv4_3_D
I0331 16:34:38.920024 16195 net.cpp:357] conv4_3_D_bn -> conv4_3_D (in-place)
I0331 16:34:38.920044 16195 net.cpp:120] Setting up conv4_3_D_bn
I0331 16:34:38.920086 16195 net.cpp:127] Top shape: 20 512 45 60 (27648000)
I0331 16:34:38.920106 16195 layer_factory.hpp:74] Creating layer relu4_3_D
I0331 16:34:38.920123 16195 net.cpp:90] Creating Layer relu4_3_D
I0331 16:34:38.920136 16195 net.cpp:410] relu4_3_D <- conv4_3_D
I0331 16:34:38.920148 16195 net.cpp:357] relu4_3_D -> conv4_3_D (in-place)
I0331 16:34:38.920163 16195 net.cpp:120] Setting up relu4_3_D
I0331 16:34:38.920176 16195 net.cpp:127] Top shape: 20 512 45 60 (27648000)
I0331 16:34:38.920188 16195 layer_factory.hpp:74] Creating layer conv4_2_D
I0331 16:34:38.920205 16195 net.cpp:90] Creating Layer conv4_2_D
I0331 16:34:38.920218 16195 net.cpp:410] conv4_2_D <- conv4_3_D
I0331 16:34:38.920233 16195 net.cpp:368] conv4_2_D -> conv4_2_D
I0331 16:34:38.920253 16195 net.cpp:120] Setting up conv4_2_D
I0331 16:34:38.950556 16195 net.cpp:127] Top shape: 20 512 45 60 (27648000)
I0331 16:34:38.950634 16195 layer_factory.hpp:74] Creating layer conv4_2_D_bn
I0331 16:34:38.950662 16195 net.cpp:90] Creating Layer conv4_2_D_bn
I0331 16:34:38.950673 16195 net.cpp:410] conv4_2_D_bn <- conv4_2_D
I0331 16:34:38.950687 16195 net.cpp:357] conv4_2_D_bn -> conv4_2_D (in-place)
I0331 16:34:38.950700 16195 net.cpp:120] Setting up conv4_2_D_bn
I0331 16:34:38.950727 16195 net.cpp:127] Top shape: 20 512 45 60 (27648000)
I0331 16:34:38.950747 16195 layer_factory.hpp:74] Creating layer relu4_2_D
I0331 16:34:38.950764 16195 net.cpp:90] Creating Layer relu4_2_D
I0331 16:34:38.950773 16195 net.cpp:410] relu4_2_D <- conv4_2_D
I0331 16:34:38.950791 16195 net.cpp:357] relu4_2_D -> conv4_2_D (in-place)
I0331 16:34:38.950824 16195 net.cpp:120] Setting up relu4_2_D
I0331 16:34:38.950834 16195 net.cpp:127] Top shape: 20 512 45 60 (27648000)
I0331 16:34:38.950841 16195 layer_factory.hpp:74] Creating layer conv4_1_D
I0331 16:34:38.950853 16195 net.cpp:90] Creating Layer conv4_1_D
I0331 16:34:38.950865 16195 net.cpp:410] conv4_1_D <- conv4_2_D
I0331 16:34:38.950876 16195 net.cpp:368] conv4_1_D -> conv4_1_D
I0331 16:34:38.950891 16195 net.cpp:120] Setting up conv4_1_D
I0331 16:34:38.964617 16195 net.cpp:127] Top shape: 20 256 45 60 (13824000)
I0331 16:34:38.964670 16195 layer_factory.hpp:74] Creating layer conv4_1_D_bn
I0331 16:34:38.964701 16195 net.cpp:90] Creating Layer conv4_1_D_bn
I0331 16:34:38.964711 16195 net.cpp:410] conv4_1_D_bn <- conv4_1_D
I0331 16:34:38.964722 16195 net.cpp:357] conv4_1_D_bn -> conv4_1_D (in-place)
I0331 16:34:38.964740 16195 net.cpp:120] Setting up conv4_1_D_bn
I0331 16:34:38.964766 16195 net.cpp:127] Top shape: 20 256 45 60 (13824000)
I0331 16:34:38.964781 16195 layer_factory.hpp:74] Creating layer relu4_1_D
I0331 16:34:38.964792 16195 net.cpp:90] Creating Layer relu4_1_D
I0331 16:34:38.964804 16195 net.cpp:410] relu4_1_D <- conv4_1_D
I0331 16:34:38.964814 16195 net.cpp:357] relu4_1_D -> conv4_1_D (in-place)
I0331 16:34:38.964828 16195 net.cpp:120] Setting up relu4_1_D
I0331 16:34:38.964838 16195 net.cpp:127] Top shape: 20 256 45 60 (13824000)
I0331 16:34:38.964849 16195 layer_factory.hpp:74] Creating layer upsample3
I0331 16:34:38.964860 16195 net.cpp:90] Creating Layer upsample3
I0331 16:34:38.964866 16195 net.cpp:410] upsample3 <- conv4_1_D
I0331 16:34:38.964877 16195 net.cpp:410] upsample3 <- pool3_mask
I0331 16:34:38.964886 16195 net.cpp:368] upsample3 -> pool3_D
I0331 16:34:38.964900 16195 net.cpp:120] Setting up upsample3
I0331 16:34:38.964906 16195 upsample_layer.cpp:31] Params 'pad_out_{}_' are deprecated. Please declare upsample height and width useing the upsample_h, upsample_w parameters.
I0331 16:34:38.964916 16195 net.cpp:127] Top shape: 20 256 90 120 (55296000)
I0331 16:34:38.964922 16195 layer_factory.hpp:74] Creating layer conv3_3_D
I0331 16:34:38.964932 16195 net.cpp:90] Creating Layer conv3_3_D
I0331 16:34:38.964938 16195 net.cpp:410] conv3_3_D <- pool3_D
I0331 16:34:38.964951 16195 net.cpp:368] conv3_3_D -> conv3_3_D
I0331 16:34:38.964964 16195 net.cpp:120] Setting up conv3_3_D
I0331 16:34:38.972014 16195 net.cpp:127] Top shape: 20 256 90 120 (55296000)
I0331 16:34:38.972050 16195 layer_factory.hpp:74] Creating layer conv3_3_D_bn
I0331 16:34:38.972065 16195 net.cpp:90] Creating Layer conv3_3_D_bn
I0331 16:34:38.972074 16195 net.cpp:410] conv3_3_D_bn <- conv3_3_D
I0331 16:34:38.972084 16195 net.cpp:357] conv3_3_D_bn -> conv3_3_D (in-place)
I0331 16:34:38.972100 16195 net.cpp:120] Setting up conv3_3_D_bn
I0331 16:34:38.972156 16195 net.cpp:127] Top shape: 20 256 90 120 (55296000)
I0331 16:34:38.972175 16195 layer_factory.hpp:74] Creating layer relu3_3_D
I0331 16:34:38.972185 16195 net.cpp:90] Creating Layer relu3_3_D
I0331 16:34:38.972192 16195 net.cpp:410] relu3_3_D <- conv3_3_D
I0331 16:34:38.972203 16195 net.cpp:357] relu3_3_D -> conv3_3_D (in-place)
I0331 16:34:38.972211 16195 net.cpp:120] Setting up relu3_3_D
I0331 16:34:38.972219 16195 net.cpp:127] Top shape: 20 256 90 120 (55296000)
I0331 16:34:38.972230 16195 layer_factory.hpp:74] Creating layer conv3_2_D
I0331 16:34:38.972240 16195 net.cpp:90] Creating Layer conv3_2_D
I0331 16:34:38.972252 16195 net.cpp:410] conv3_2_D <- conv3_3_D
I0331 16:34:38.972265 16195 net.cpp:368] conv3_2_D -> conv3_2_D
I0331 16:34:38.972275 16195 net.cpp:120] Setting up conv3_2_D
I0331 16:34:38.979308 16195 net.cpp:127] Top shape: 20 256 90 120 (55296000)
I0331 16:34:38.979338 16195 layer_factory.hpp:74] Creating layer conv3_2_D_bn
I0331 16:34:38.979353 16195 net.cpp:90] Creating Layer conv3_2_D_bn
I0331 16:34:38.979360 16195 net.cpp:410] conv3_2_D_bn <- conv3_2_D
I0331 16:34:38.979372 16195 net.cpp:357] conv3_2_D_bn -> conv3_2_D (in-place)
I0331 16:34:38.979382 16195 net.cpp:120] Setting up conv3_2_D_bn
I0331 16:34:38.979436 16195 net.cpp:127] Top shape: 20 256 90 120 (55296000)
I0331 16:34:38.979473 16195 layer_factory.hpp:74] Creating layer relu3_2_D
I0331 16:34:38.979485 16195 net.cpp:90] Creating Layer relu3_2_D
I0331 16:34:38.979491 16195 net.cpp:410] relu3_2_D <- conv3_2_D
I0331 16:34:38.979499 16195 net.cpp:357] relu3_2_D -> conv3_2_D (in-place)
I0331 16:34:38.979509 16195 net.cpp:120] Setting up relu3_2_D
I0331 16:34:38.979517 16195 net.cpp:127] Top shape: 20 256 90 120 (55296000)
I0331 16:34:38.979526 16195 layer_factory.hpp:74] Creating layer conv3_1_D
I0331 16:34:38.979540 16195 net.cpp:90] Creating Layer conv3_1_D
I0331 16:34:38.979547 16195 net.cpp:410] conv3_1_D <- conv3_2_D
I0331 16:34:38.979557 16195 net.cpp:368] conv3_1_D -> conv3_1_D
I0331 16:34:38.979574 16195 net.cpp:120] Setting up conv3_1_D
I0331 16:34:38.983129 16195 net.cpp:127] Top shape: 20 128 90 120 (27648000)
I0331 16:34:38.983156 16195 layer_factory.hpp:74] Creating layer conv3_1_D_bn
I0331 16:34:38.983170 16195 net.cpp:90] Creating Layer conv3_1_D_bn
I0331 16:34:38.983178 16195 net.cpp:410] conv3_1_D_bn <- conv3_1_D
I0331 16:34:38.983186 16195 net.cpp:357] conv3_1_D_bn -> conv3_1_D (in-place)
I0331 16:34:38.983196 16195 net.cpp:120] Setting up conv3_1_D_bn
I0331 16:34:38.983253 16195 net.cpp:127] Top shape: 20 128 90 120 (27648000)
I0331 16:34:38.983273 16195 layer_factory.hpp:74] Creating layer relu3_1_D
I0331 16:34:38.983281 16195 net.cpp:90] Creating Layer relu3_1_D
I0331 16:34:38.983289 16195 net.cpp:410] relu3_1_D <- conv3_1_D
I0331 16:34:38.983302 16195 net.cpp:357] relu3_1_D -> conv3_1_D (in-place)
I0331 16:34:38.983312 16195 net.cpp:120] Setting up relu3_1_D
I0331 16:34:38.983325 16195 net.cpp:127] Top shape: 20 128 90 120 (27648000)
I0331 16:34:38.983332 16195 layer_factory.hpp:74] Creating layer upsample2
I0331 16:34:38.983342 16195 net.cpp:90] Creating Layer upsample2
I0331 16:34:38.983353 16195 net.cpp:410] upsample2 <- conv3_1_D
I0331 16:34:38.983362 16195 net.cpp:410] upsample2 <- pool2_mask
I0331 16:34:38.983371 16195 net.cpp:368] upsample2 -> pool2_D
I0331 16:34:38.983388 16195 net.cpp:120] Setting up upsample2
I0331 16:34:38.983397 16195 upsample_layer.cpp:31] Params 'pad_out_{}_' are deprecated. Please declare upsample height and width useing the upsample_h, upsample_w parameters.
I0331 16:34:38.983407 16195 net.cpp:127] Top shape: 20 128 180 240 (110592000)
I0331 16:34:38.983413 16195 layer_factory.hpp:74] Creating layer conv2_2_D
I0331 16:34:38.983425 16195 net.cpp:90] Creating Layer conv2_2_D
I0331 16:34:38.983433 16195 net.cpp:410] conv2_2_D <- pool2_D
I0331 16:34:38.983449 16195 net.cpp:368] conv2_2_D -> conv2_2_D
I0331 16:34:38.983460 16195 net.cpp:120] Setting up conv2_2_D
I0331 16:34:38.985323 16195 net.cpp:127] Top shape: 20 128 180 240 (110592000)
I0331 16:34:38.985347 16195 layer_factory.hpp:74] Creating layer conv2_2_D_bn
I0331 16:34:38.985360 16195 net.cpp:90] Creating Layer conv2_2_D_bn
I0331 16:34:38.985368 16195 net.cpp:410] conv2_2_D_bn <- conv2_2_D
I0331 16:34:38.985378 16195 net.cpp:357] conv2_2_D_bn -> conv2_2_D (in-place)
I0331 16:34:38.985393 16195 net.cpp:120] Setting up conv2_2_D_bn
I0331 16:34:38.985538 16195 net.cpp:127] Top shape: 20 128 180 240 (110592000)
I0331 16:34:38.985558 16195 layer_factory.hpp:74] Creating layer relu2_2_D
I0331 16:34:38.985566 16195 net.cpp:90] Creating Layer relu2_2_D
I0331 16:34:38.985574 16195 net.cpp:410] relu2_2_D <- conv2_2_D
I0331 16:34:38.985584 16195 net.cpp:357] relu2_2_D -> conv2_2_D (in-place)
I0331 16:34:38.985597 16195 net.cpp:120] Setting up relu2_2_D
I0331 16:34:38.985606 16195 net.cpp:127] Top shape: 20 128 180 240 (110592000)
I0331 16:34:38.985617 16195 layer_factory.hpp:74] Creating layer conv2_1_D
I0331 16:34:38.985627 16195 net.cpp:90] Creating Layer conv2_1_D
I0331 16:34:38.985633 16195 net.cpp:410] conv2_1_D <- conv2_2_D
I0331 16:34:38.985646 16195 net.cpp:368] conv2_1_D -> conv2_1_D
I0331 16:34:38.985656 16195 net.cpp:120] Setting up conv2_1_D
I0331 16:34:38.986626 16195 net.cpp:127] Top shape: 20 64 180 240 (55296000)
I0331 16:34:38.986651 16195 layer_factory.hpp:74] Creating layer conv2_1_D_bn
I0331 16:34:38.986711 16195 net.cpp:90] Creating Layer conv2_1_D_bn
I0331 16:34:38.986723 16195 net.cpp:410] conv2_1_D_bn <- conv2_1_D
I0331 16:34:38.986733 16195 net.cpp:357] conv2_1_D_bn -> conv2_1_D (in-place)
I0331 16:34:38.986743 16195 net.cpp:120] Setting up conv2_1_D_bn
I0331 16:34:38.986891 16195 net.cpp:127] Top shape: 20 64 180 240 (55296000)
I0331 16:34:38.986910 16195 layer_factory.hpp:74] Creating layer relu2_1_D
I0331 16:34:38.986920 16195 net.cpp:90] Creating Layer relu2_1_D
I0331 16:34:38.986927 16195 net.cpp:410] relu2_1_D <- conv2_1_D
I0331 16:34:38.986937 16195 net.cpp:357] relu2_1_D -> conv2_1_D (in-place)
I0331 16:34:38.986950 16195 net.cpp:120] Setting up relu2_1_D
I0331 16:34:38.986959 16195 net.cpp:127] Top shape: 20 64 180 240 (55296000)
I0331 16:34:38.986966 16195 layer_factory.hpp:74] Creating layer upsample1
I0331 16:34:38.986974 16195 net.cpp:90] Creating Layer upsample1
I0331 16:34:38.986979 16195 net.cpp:410] upsample1 <- conv2_1_D
I0331 16:34:38.986987 16195 net.cpp:410] upsample1 <- pool1_mask
I0331 16:34:38.986995 16195 net.cpp:368] upsample1 -> pool1_D
I0331 16:34:38.987020 16195 net.cpp:120] Setting up upsample1
I0331 16:34:38.987032 16195 upsample_layer.cpp:31] Params 'pad_out_{}_' are deprecated. Please declare upsample height and width useing the upsample_h, upsample_w parameters.
I0331 16:34:38.987042 16195 net.cpp:127] Top shape: 20 64 360 480 (221184000)
I0331 16:34:38.987053 16195 layer_factory.hpp:74] Creating layer conv1_2_D
I0331 16:34:38.987063 16195 net.cpp:90] Creating Layer conv1_2_D
I0331 16:34:38.987069 16195 net.cpp:410] conv1_2_D <- pool1_D
I0331 16:34:38.987082 16195 net.cpp:368] conv1_2_D -> conv1_2_D
I0331 16:34:38.987095 16195 net.cpp:120] Setting up conv1_2_D
I0331 16:34:38.987814 16195 net.cpp:127] Top shape: 20 64 360 480 (221184000)
I0331 16:34:38.987836 16195 layer_factory.hpp:74] Creating layer conv1_2_D_bn
I0331 16:34:38.987850 16195 net.cpp:90] Creating Layer conv1_2_D_bn
I0331 16:34:38.987857 16195 net.cpp:410] conv1_2_D_bn <- conv1_2_D
I0331 16:34:38.987869 16195 net.cpp:357] conv1_2_D_bn -> conv1_2_D (in-place)
I0331 16:34:38.987882 16195 net.cpp:120] Setting up conv1_2_D_bn
I0331 16:34:38.988356 16195 net.cpp:127] Top shape: 20 64 360 480 (221184000)
I0331 16:34:38.988378 16195 layer_factory.hpp:74] Creating layer relu1_2_D
I0331 16:34:38.988387 16195 net.cpp:90] Creating Layer relu1_2_D
I0331 16:34:38.988394 16195 net.cpp:410] relu1_2_D <- conv1_2_D
I0331 16:34:38.988402 16195 net.cpp:357] relu1_2_D -> conv1_2_D (in-place)
I0331 16:34:38.988418 16195 net.cpp:120] Setting up relu1_2_D
I0331 16:34:38.988428 16195 net.cpp:127] Top shape: 20 64 360 480 (221184000)
I0331 16:34:38.988438 16195 layer_factory.hpp:74] Creating layer conv1_1_D
I0331 16:34:38.988448 16195 net.cpp:90] Creating Layer conv1_1_D
I0331 16:34:38.988458 16195 net.cpp:410] conv1_1_D <- conv1_2_D
I0331 16:34:38.988471 16195 net.cpp:368] conv1_1_D -> conv1_1_D
I0331 16:34:38.988481 16195 net.cpp:120] Setting up conv1_1_D
I0331 16:34:38.988836 16195 net.cpp:127] Top shape: 20 4 360 480 (13824000)
I0331 16:34:38.988858 16195 layer_factory.hpp:74] Creating layer conv1_1_D_conv1_1_D_0_split
I0331 16:34:38.988869 16195 net.cpp:90] Creating Layer conv1_1_D_conv1_1_D_0_split
I0331 16:34:38.988878 16195 net.cpp:410] conv1_1_D_conv1_1_D_0_split <- conv1_1_D
I0331 16:34:38.988885 16195 net.cpp:368] conv1_1_D_conv1_1_D_0_split -> conv1_1_D_conv1_1_D_0_split_0
I0331 16:34:38.988899 16195 net.cpp:368] conv1_1_D_conv1_1_D_0_split -> conv1_1_D_conv1_1_D_0_split_1
I0331 16:34:38.988914 16195 net.cpp:120] Setting up conv1_1_D_conv1_1_D_0_split
I0331 16:34:38.988925 16195 net.cpp:127] Top shape: 20 4 360 480 (13824000)
I0331 16:34:38.988937 16195 net.cpp:127] Top shape: 20 4 360 480 (13824000)
I0331 16:34:38.988945 16195 layer_factory.hpp:74] Creating layer loss
I0331 16:34:38.988955 16195 net.cpp:90] Creating Layer loss
I0331 16:34:38.988965 16195 net.cpp:410] loss <- conv1_1_D_conv1_1_D_0_split_0
I0331 16:34:38.988975 16195 net.cpp:410] loss <- label_data_1_split_0
I0331 16:34:38.989001 16195 net.cpp:368] loss -> loss
I0331 16:34:38.989023 16195 net.cpp:120] Setting up loss
I0331 16:34:38.989040 16195 layer_factory.hpp:74] Creating layer loss
I0331 16:34:39.000929 16195 net.cpp:127] Top shape: (1)
I0331 16:34:39.000982 16195 net.cpp:129]     with loss weight 1
I0331 16:34:39.001034 16195 layer_factory.hpp:74] Creating layer accuracy
I0331 16:34:39.001049 16195 net.cpp:90] Creating Layer accuracy
I0331 16:34:39.001057 16195 net.cpp:410] accuracy <- conv1_1_D_conv1_1_D_0_split_1
I0331 16:34:39.001068 16195 net.cpp:410] accuracy <- label_data_1_split_1
I0331 16:34:39.001077 16195 net.cpp:368] accuracy -> accuracy
I0331 16:34:39.001090 16195 net.cpp:368] accuracy -> per_class_accuracy
I0331 16:34:39.001099 16195 net.cpp:120] Setting up accuracy
I0331 16:34:39.001106 16195 accuracy_layer.cpp:24] Per-class accuracies currently only work on TRAIN phase only.
I0331 16:34:39.001116 16195 net.cpp:127] Top shape: (1)
I0331 16:34:39.001123 16195 net.cpp:127] Top shape: 4 1 1 1 (4)
I0331 16:34:39.001137 16195 net.cpp:194] accuracy does not need backward computation.
I0331 16:34:39.001143 16195 net.cpp:192] loss needs backward computation.
I0331 16:34:39.001154 16195 net.cpp:192] conv1_1_D_conv1_1_D_0_split needs backward computation.
I0331 16:34:39.001161 16195 net.cpp:192] conv1_1_D needs backward computation.
I0331 16:34:39.001168 16195 net.cpp:192] relu1_2_D needs backward computation.
…
