…
snapshot_prefix: "SegNet/Models/Training/segnet"
solver_mode: CPU
net: "SegNet/Models/segnet_train.prototxt"
test_initialization: false
I0328 07:29:40.844053 35997 solver.cpp:70] Creating training net from net file: SegNet/Models/segnet_train.prototxt
I0328 07:29:40.848451 35997 net.cpp:42] Initializing net from parameters: 
name: "VGG_ILSVRC_16_layer"
state {
  phase: TRAIN
}
layer {
  name: "data"
  type: "DenseImageData"
  top: "data"
  top: "label"
  dense_image_data_param {
    source: "SegNet/AnhLua/train.txt"
    batch_size: 4
    shuffle: true
  }
}
layer {
  name: "conv1_1"
  type: "Convolution"
  bottom: "data"
  top: "conv1_1"
  param {
    lr_mult: 1
    decay_mult: 1
  }
  param {
    lr_mult: 2
    decay_mult: 0
  }
  convolution_param {
    num_output: 64
    pad: 1
    kernel_size: 3
    weight_filler {
      type: "msra"
    }
    bias_filler {
      type: "constant"
    }
  }
}
layer {
  name: "conv1_1_bn"
  type: "BN"
  bottom: "conv1_1"
  top: "conv1_1"
  param {
    lr_mult: 1
    decay_mult: 1
  }
  param {
    lr_mult: 1
    decay_mult: 0
  }
  bn_param {
    scale_filler {
      type: "constant"
      value: 1
    }
    shift_filler {
      type: "constant"
      value: 0.001
    }
  }
}
layer {
  name: "relu1_1"
  type: "ReLU"
  bottom: "conv1_1"
  top: "conv1_1"
}
layer {
  name: "conv1_2"
  type: "Convolution"
  bottom: "conv1_1"
  top: "conv1_2"
  param {
    lr_mult: 1
    decay_mult: 1
  }
  param {
    lr_mult: 2
    decay_mult: 0
  }
  convolution_param {
    num_output: 64
    pad: 1
    kernel_size: 3
    weight_filler {
      type: "msra"
    }
    bias_filler {
      type: "constant"
    }
  }
}
layer {
  name: "conv1_2_bn"
  type: "BN"
  bottom: "conv1_2"
  top: "conv1_2"
  param {
    lr_mult: 1
    decay_mult: 1
  }
  param {
    lr_mult: 1
    decay_mult: 0
  }
  bn_param {
    scale_filler {
      type: "constant"
      value: 1
    }
    shift_filler {
      type: "constant"
      value: 0.001
    }
  }
}
layer {
  name: "relu1_2"
  type: "ReLU"
  bottom: "conv1_2"
  top: "conv1_2"
}
layer {
  name: "pool1"
  type: "Pooling"
  bottom: "conv1_2"
  top: "pool1"
  top: "pool1_mask"
  pooling_param {
    pool: MAX
    kernel_size: 2
    stride: 2
  }
}
layer {
  name: "conv2_1"
  type: "Convolution"
  bottom: "pool1"
  top: "conv2_1"
  param {
    lr_mult: 1
    decay_mult: 1
  }
  param {
    lr_mult: 2
    decay_mult: 0
  }
  convolution_param {
    num_output: 128
    pad: 1
    kernel_size: 3
    weight_filler {
      type: "msra"
    }
    bias_filler {
      type: "constant"
    }
  }
}
layer {
  name: "conv2_1_bn"
  type: "BN"
  bottom: "conv2_1"
  top: "conv2_1"
  param {
    lr_mult: 1
    decay_mult: 1
  }
  param {
    lr_mult: 1
    decay_mult: 0
  }
  bn_param {
    scale_filler {
      type: "constant"
      value: 1
    }
    shift_filler {
      type: "constant"
      value: 0.001
    }
  }
}
layer {
  name: "relu2_1"
  type: "ReLU"
  bottom: "conv2_1"
  top: "conv2_1"
}
layer {
  name: "conv2_2"
  type: "Convolution"
  bottom: "conv2_1"
  top: "conv2_2"
  param {
    lr_mult: 1
    decay_mult: 1
  }
  param {
    lr_mult: 2
    decay_mult: 0
  }
  convolution_param {
    num_output: 128
    pad: 1
    kernel_size: 3
    weight_filler {
      type: "msra"
    }
    bias_filler {
      type: "constant"
    }
  }
}
layer {
  name: "conv2_2_bn"
  type: "BN"
  bottom: "conv2_2"
  top: "conv2_2"
  param {
    lr_mult: 1
    decay_mult: 1
  }
  param {
    lr_mult: 1
    decay_mult: 0
  }
  bn_param {
    scale_filler {
      type: "constant"
      value: 1
    }
    shift_filler {
      type: "constant"
      value: 0.001
    }
  }
}
layer {
  name: "relu2_2"
  type: "ReLU"
  bottom: "conv2_2"
  top: "conv2_2"
}
layer {
  name: "pool2"
  type: "Pooling"
  bottom: "conv2_2"
  top: "pool2"
  top: "pool2_mask"
  pooling_param {
    pool: MAX
    kernel_size: 2
    stride: 2
  }
}
layer {
  name: "conv3_1"
  type: "Convolution"
  bottom: "pool2"
  top: "conv3_1"
  param {
    lr_mult: 1
    decay_mult: 1
  }
  param {
    lr_mult: 2
    decay_mult: 0
  }
  convolution_param {
    num_output: 256
    pad: 1
    kernel_size: 3
    weight_filler {
      type: "msra"
    }
    bias_filler {
      type: "constant"
    }
  }
}
layer {
  name: "conv3_1_bn"
  type: "BN"
  bottom: "conv3_1"
  top: "conv3_1"
  param {
    lr_mult: 1
    decay_mult: 1
  }
  param {
    lr_mult: 1
    decay_mult: 0
  }
  bn_param {
    scale_filler {
      type: "constant"
      value: 1
    }
    shift_filler {
      type: "constant"
      value: 0.001
    }
  }
}
layer {
  name: "relu3_1"
  type: "ReLU"
  bottom: "conv3_1"
  top: "conv3_1"
}
layer {
  name: "conv3_2"
  type: "Convolution"
  bottom: "conv3_1"
  top: "conv3_2"
  param {
    lr_mult: 1
    decay_mult: 1
  }
  param {
    lr_mult: 2
    decay_mult: 0
  }
  convolution_param {
    num_output: 256
    pad: 1
    kernel_size: 3
    weight_filler {
      type: "msra"
    }
    bias_filler {
      type: "constant"
    }
  }
}
layer {
  name: "conv3_2_bn"
  type: "BN"
  bottom: "conv3_2"
  top: "conv3_2"
  param {
    lr_mult: 1
    decay_mult: 1
  }
  param {
    lr_mult: 1
    decay_mult: 0
  }
  bn_param {
    scale_filler {
      type: "constant"
      value: 1
    }
    shift_filler {
      type: "constant"
      value: 0.001
    }
  }
}
layer {
  name: "relu3_2"
  type: "ReLU"
  bottom: "conv3_2"
  top: "conv3_2"
}
layer {
  name: "conv3_3"
  type: "Convolution"
  bottom: "conv3_2"
  top: "conv3_3"
  param {
    lr_mult: 1
    decay_mult: 1
  }
  param {
    lr_mult: 2
    decay_mult: 0
  }
  convolution_param {
    num_output: 256
    pad: 1
    kernel_size: 3
    weight_filler {
      type: "msra"
    }
    bias_filler {
      type: "constant"
    }
  }
}
layer {
  name: "conv3_3_bn"
  type: "BN"
  bottom: "conv3_3"
  top: "conv3_3"
  param {
    lr_mult: 1
    decay_mult: 1
  }
  param {
    lr_mult: 1
    decay_mult: 0
  }
  bn_param {
    scale_filler {
      type: "constant"
      value: 1
    }
    shift_filler {
      type: "constant"
      value: 0.001
    }
  }
}
layer {
  name: "relu3_3"
  type: "ReLU"
  bottom: "conv3_3"
  top: "conv3_3"
}
layer {
  name: "pool3"
  type: "Pooling"
  bottom: "conv3_3"
  top: "pool3"
  top: "pool3_mask"
  pooling_param {
    pool: MAX
    kernel_size: 2
    stride: 2
  }
}
layer {
  name: "conv4_1"
  type: "Convolution"
  bottom: "pool3"
  top: "conv4_1"
  param {
    lr_mult: 1
    decay_mult: 1
  }
  param {
    lr_mult: 2
    decay_mult: 0
  }
  convolution_param {
    num_output: 512
    pad: 1
    kernel_size: 3
    weight_filler {
      type: "msra"
    }
    bias_filler {
      type: "constant"
    }
  }
}
layer {
  name: "conv4_1_bn"
  type: "BN"
  bottom: "conv4_1"
  top: "conv4_1"
  param {
    lr_mult: 1
    decay_mult: 1
  }
  param {
    lr_mult: 1
    decay_mult: 0
  }
  bn_param {
    scale_filler {
      type: "constant"
      value: 1
    }
    shift_filler {
      type: "constant"
      value: 0.001
    }
  }
}
layer {
  name: "relu4_1"
  type: "ReLU"
  bottom: "conv4_1"
  top: "conv4_1"
}
layer {
  name: "conv4_2"
  type: "Convolution"
  bottom: "conv4_1"
  top: "conv4_2"
  param {
    lr_mult: 1
    decay_mult: 1
  }
  param {
    lr_mult: 2
    decay_mult: 0
  }
  convolution_param {
    num_output: 512
    pad: 1
    kernel_size: 3
    weight_filler {
      type: "msra"
    }
    bias_filler {
      type: "constant"
    }
  }
}
layer {
  name: "conv4_2_bn"
  type: "BN"
  bottom: "conv4_2"
  top: "conv4_2"
  param {
    lr_mult: 1
    decay_mult: 1
  }
  param {
    lr_mult: 1
    decay_mult: 0
  }
  bn_param {
    scale_filler {
      type: "constant"
      value: 1
    }
    shift_filler {
      type: "constant"
      value: 0.001
    }
  }
}
layer {
  name: "relu4_2"
  type: "ReLU"
  bottom: "conv4_2"
  top: "conv4_2"
}
layer {
  name: "conv4_3"
  type: "Convolution"
  bottom: "conv4_2"
  top: "conv4_3"
  param {
    lr_mult: 1
    decay_mult: 1
  }
  param {
    lr_mult: 2
    decay_mult: 0
  }
  convolution_param {
    num_output: 512
    pad: 1
    kernel_size: 3
    weight_filler {
      type: "msra"
    }
    bias_filler {
      type: "constant"
    }
  }
}
layer {
  name: "conv4_3_bn"
  type: "BN"
  bottom: "conv4_3"
  top: "conv4_3"
  param {
    lr_mult: 1
    decay_mult: 1
  }
  param {
    lr_mult: 1
    decay_mult: 0
  }
  bn_param {
    scale_filler {
      type: "constant"
      value: 1
    }
    shift_filler {
      type: "constant"
      value: 0.001
    }
  }
}
layer {
  name: "relu4_3"
  type: "ReLU"
  bottom: "conv4_3"
  top: "conv4_3"
}
layer {
  name: "pool4"
  type: "Pooling"
  bottom: "conv4_3"
  top: "pool4"
  top: "pool4_mask"
  pooling_param {
    pool: MAX
    kernel_size: 2
    stride: 2
  }
}
layer {
  name: "conv5_1"
  type: "Convolution"
  bottom: "pool4"
  top: "conv5_1"
  param {
    lr_mult: 1
    decay_mult: 1
  }
  param {
    lr_mult: 2
    decay_mult: 0
  }
  convolution_param {
    num_output: 512
    pad: 1
    kernel_size: 3
    weight_filler {
      type: "msra"
    }
    bias_filler {
      type: "constant"
    }
  }
}
layer {
  name: "conv5_1_bn"
  type: "BN"
  bottom: "conv5_1"
  top: "conv5_1"
  param {
    lr_mult: 1
    decay_mult: 1
  }
  param {
    lr_mult: 1
    decay_mult: 0
  }
  bn_param {
    scale_filler {
      type: "constant"
      value: 1
    }
    shift_filler {
      type: "constant"
      value: 0.001
    }
  }
}
layer {
  name: "relu5_1"
  type: "ReLU"
  bottom: "conv5_1"
  top: "conv5_1"
}
layer {
  name: "conv5_2"
  type: "Convolution"
  bottom: "conv5_1"
  top: "conv5_2"
  param {
    lr_mult: 1
    decay_mult: 1
  }
  param {
    lr_mult: 2
    decay_mult: 0
  }
  convolution_param {
    num_output: 512
    pad: 1
    kernel_size: 3
    weight_filler {
      type: "msra"
    }
    bias_filler {
      type: "constant"
    }
  }
}
layer {
  name: "conv5_2_bn"
  type: "BN"
  bottom: "conv5_2"
  top: "conv5_2"
  param {
    lr_mult: 1
    decay_mult: 1
  }
  param {
    lr_mult: 1
    decay_mult: 0
  }
  bn_param {
    scale_filler {
      type: "constant"
      value: 1
    }
    shift_filler {
      type: "constant"
      value: 0.001
    }
  }
}
layer {
  name: "relu5_2"
  type: "ReLU"
  bottom: "conv5_2"
  top: "conv5_2"
}
layer {
  name: "conv5_3"
  type: "Convolution"
  bottom: "conv5_2"
  top: "conv5_3"
  param {
    lr_mult: 1
    decay_mult: 1
  }
  param {
    lr_mult: 2
    decay_mult: 0
  }
  convolution_param {
    num_output: 512
    pad: 1
    kernel_size: 3
    weight_filler {
      type: "msra"
    }
    bias_filler {
      type: "constant"
    }
  }
}
layer {
  name: "conv5_3_bn"
  type: "BN"
  bottom: "conv5_3"
  top: "conv5_3"
  param {
    lr_mult: 1
    decay_mult: 1
  }
  param {
    lr_mult: 1
    decay_mult: 0
  }
  bn_param {
    scale_filler {
      type: "constant"
      value: 1
    }
    shift_filler {
      type: "constant"
      value: 0.001
    }
  }
}
layer {
  name: "relu5_3"
  type: "ReLU"
  bottom: "conv5_3"
  top: "conv5_3"
}
layer {
  name: "pool5"
  type: "Pooling"
  bottom: "conv5_3"
  top: "pool5"
  top: "pool5_mask"
  pooling_param {
    pool: MAX
    kernel_size: 2
    stride: 2
  }
}
layer {
  name: "upsample5"
  type: "Upsample"
  bottom: "pool5"
  bottom: "pool5_mask"
  top: "pool5_D"
  upsample_param {
    scale: 2
    upsample_h: 23
    upsample_w: 30
  }
}
layer {
  name: "conv5_3_D"
  type: "Convolution"
  bottom: "pool5_D"
  top: "conv5_3_D"
  param {
    lr_mult: 1
    decay_mult: 1
  }
  param {
    lr_mult: 2
    decay_mult: 0
  }
  convolution_param {
    num_output: 512
    pad: 1
    kernel_size: 3
    weight_filler {
      type: "msra"
    }
    bias_filler {
      type: "constant"
    }
  }
}
layer {
  name: "conv5_3_D_bn"
  type: "BN"
  bottom: "conv5_3_D"
  top: "conv5_3_D"
  param {
    lr_mult: 1
    decay_mult: 1
  }
  param {
    lr_mult: 1
    decay_mult: 0
  }
  bn_param {
    scale_filler {
      type: "constant"
      value: 1
    }
    shift_filler {
      type: "constant"
      value: 0.001
    }
  }
}
layer {
  name: "relu5_3_D"
  type: "ReLU"
  bottom: "conv5_3_D"
  top: "conv5_3_D"
}
layer {
  name: "conv5_2_D"
  type: "Convolution"
  bottom: "conv5_3_D"
  top: "conv5_2_D"
  param {
    lr_mult: 1
    decay_mult: 1
  }
  param {
    lr_mult: 2
    decay_mult: 0
  }
  convolution_param {
    num_output: 512
    pad: 1
    kernel_size: 3
    weight_filler {
      type: "msra"
    }
    bias_filler {
      type: "constant"
    }
  }
}
layer {
  name: "conv5_2_D_bn"
  type: "BN"
  bottom: "conv5_2_D"
  top: "conv5_2_D"
  param {
    lr_mult: 1
    decay_mult: 1
  }
  param {
    lr_mult: 1
    decay_mult: 0
  }
  bn_param {
    scale_filler {
      type: "constant"
      value: 1
    }
    shift_filler {
      type: "constant"
      value: 0.001
    }
  }
}
layer {
  name: "relu5_2_D"
  type: "ReLU"
  bottom: "conv5_2_D"
  top: "conv5_2_D"
}
layer {
  name: "conv5_1_D"
  type: "Convolution"
  bottom: "conv5_2_D"
  top: "conv5_1_D"
  param {
    lr_mult: 1
    decay_mult: 1
  }
  param {
    lr_mult: 2
    decay_mult: 0
  }
  convolution_param {
    num_output: 512
    pad: 1
    kernel_size: 3
    weight_filler {
      type: "msra"
    }
    bias_filler {
      type: "constant"
    }
  }
}
layer {
  name: "conv5_1_D_bn"
  type: "BN"
  bottom: "conv5_1_D"
  top: "conv5_1_D"
  param {
    lr_mult: 1
    decay_mult: 1
  }
  param {
    lr_mult: 1
    decay_mult: 0
  }
  bn_param {
    scale_filler {
      type: "constant"
      value: 1
    }
    shift_filler {
      type: "constant"
      value: 0.001
    }
  }
}
layer {
  name: "relu5_1_D"
  type: "ReLU"
  bottom: "conv5_1_D"
  top: "conv5_1_D"
}
layer {
  name: "upsample4"
  type: "Upsample"
  bottom: "conv5_1_D"
  bottom: "pool4_mask"
  top: "pool4_D"
  upsample_param {
    scale: 2
    upsample_h: 45
    upsample_w: 60
  }
}
layer {
  name: "conv4_3_D"
  type: "Convolution"
  bottom: "pool4_D"
  top: "conv4_3_D"
  param {
    lr_mult: 1
    decay_mult: 1
  }
  param {
    lr_mult: 2
    decay_mult: 0
  }
  convolution_param {
    num_output: 512
    pad: 1
    kernel_size: 3
    weight_filler {
      type: "msra"
    }
    bias_filler {
      type: "constant"
    }
  }
}
layer {
  name: "conv4_3_D_bn"
  type: "BN"
  bottom: "conv4_3_D"
  top: "conv4_3_D"
  param {
    lr_mult: 1
    decay_mult: 1
  }
  param {
    lr_mult: 1
    decay_mult: 0
  }
  bn_param {
    scale_filler {
      type: "constant"
      value: 1
    }
    shift_filler {
      type: "constant"
      value: 0.001
    }
  }
}
layer {
  name: "relu4_3_D"
  type: "ReLU"
  bottom: "conv4_3_D"
  top: "conv4_3_D"
}
layer {
  name: "conv4_2_D"
  type: "Convolution"
  bottom: "conv4_3_D"
  top: "conv4_2_D"
  param {
    lr_mult: 1
    decay_mult: 1
  }
  param {
    lr_mult: 2
    decay_mult: 0
  }
  convolution_param {
    num_output: 512
    pad: 1
    kernel_size: 3
    weight_filler {
      type: "msra"
    }
    bias_filler {
      type: "constant"
    }
  }
}
layer {
  name: "conv4_2_D_bn"
  type: "BN"
  bottom: "conv4_2_D"
  top: "conv4_2_D"
  param {
    lr_mult: 1
    decay_mult: 1
  }
  param {
    lr_mult: 1
    decay_mult: 0
  }
  bn_param {
    scale_filler {
      type: "constant"
      value: 1
    }
    shift_filler {
      type: "constant"
      value: 0.001
    }
  }
}
layer {
  name: "relu4_2_D"
  type: "ReLU"
  bottom: "conv4_2_D"
  top: "conv4_2_D"
}
layer {
  name: "conv4_1_D"
  type: "Convolution"
  bottom: "conv4_2_D"
  top: "conv4_1_D"
  param {
    lr_mult: 1
    decay_mult: 1
  }
  param {
    lr_mult: 2
    decay_mult: 0
  }
  convolution_param {
    num_output: 256
    pad: 1
    kernel_size: 3
    weight_filler {
      type: "msra"
    }
    bias_filler {
      type: "constant"
    }
  }
}
layer {
  name: "conv4_1_D_bn"
  type: "BN"
  bottom: "conv4_1_D"
  top: "conv4_1_D"
  param {
    lr_mult: 1
    decay_mult: 1
  }
  param {
    lr_mult: 1
    decay_mult: 0
  }
  bn_param {
    scale_filler {
      type: "constant"
      value: 1
    }
    shift_filler {
      type: "constant"
      value: 0.001
    }
  }
}
layer {
  name: "relu4_1_D"
  type: "ReLU"
  bottom: "conv4_1_D"
  top: "conv4_1_D"
}
layer {
  name: "upsample3"
  type: "Upsample"
  bottom: "conv4_1_D"
  bottom: "pool3_mask"
  top: "pool3_D"
  upsample_param {
    scale: 2
  }
}
layer {
  name: "conv3_3_D"
  type: "Convolution"
  bottom: "pool3_D"
  top: "conv3_3_D"
  param {
    lr_mult: 1
    decay_mult: 1
  }
  param {
    lr_mult: 2
    decay_mult: 0
  }
  convolution_param {
    num_output: 256
    pad: 1
    kernel_size: 3
    weight_filler {
      type: "msra"
    }
    bias_filler {
      type: "constant"
    }
  }
}
layer {
  name: "conv3_3_D_bn"
  type: "BN"
  bottom: "conv3_3_D"
  top: "conv3_3_D"
  param {
    lr_mult: 1
    decay_mult: 1
  }
  param {
    lr_mult: 1
    decay_mult: 0
  }
  bn_param {
    scale_filler {
      type: "constant"
      value: 1
    }
    shift_filler {
      type: "constant"
      value: 0.001
    }
  }
}
layer {
  name: "relu3_3_D"
  type: "ReLU"
  bottom: "conv3_3_D"
  top: "conv3_3_D"
}
layer {
  name: "conv3_2_D"
  type: "Convolution"
  bottom: "conv3_3_D"
  top: "conv3_2_D"
  param {
    lr_mult: 1
    decay_mult: 1
  }
  param {
    lr_mult: 2
    decay_mult: 0
  }
  convolution_param {
    num_output: 256
    pad: 1
    kernel_size: 3
    weight_filler {
      type: "msra"
    }
    bias_filler {
      type: "constant"
    }
  }
}
layer {
  name: "conv3_2_D_bn"
  type: "BN"
  bottom: "conv3_2_D"
  top: "conv3_2_D"
  param {
    lr_mult: 1
    decay_mult: 1
  }
  param {
    lr_mult: 1
    decay_mult: 0
  }
  bn_param {
    scale_filler {
      type: "constant"
      value: 1
    }
    shift_filler {
      type: "constant"
      value: 0.001
    }
  }
}
layer {
  name: "relu3_2_D"
  type: "ReLU"
  bottom: "conv3_2_D"
  top: "conv3_2_D"
}
layer {
  name: "conv3_1_D"
  type: "Convolution"
  bottom: "conv3_2_D"
  top: "conv3_1_D"
  param {
    lr_mult: 1
    decay_mult: 1
  }
  param {
    lr_mult: 2
    decay_mult: 0
  }
  convolution_param {
    num_output: 128
    pad: 1
    kernel_size: 3
    weight_filler {
      type: "msra"
    }
    bias_filler {
      type: "constant"
    }
  }
}
layer {
  name: "conv3_1_D_bn"
  type: "BN"
  bottom: "conv3_1_D"
  top: "conv3_1_D"
  param {
    lr_mult: 1
    decay_mult: 1
  }
  param {
    lr_mult: 1
    decay_mult: 0
  }
  bn_param {
    scale_filler {
      type: "constant"
      value: 1
    }
    shift_filler {
      type: "constant"
      value: 0.001
    }
  }
}
layer {
  name: "relu3_1_D"
  type: "ReLU"
  bottom: "conv3_1_D"
  top: "conv3_1_D"
}
layer {
  name: "upsample2"
  type: "Upsample"
  bottom: "conv3_1_D"
  bottom: "pool2_mask"
  top: "pool2_D"
  upsample_param {
    scale: 2
  }
}
layer {
  name: "conv2_2_D"
  type: "Convolution"
  bottom: "pool2_D"
  top: "conv2_2_D"
  param {
    lr_mult: 1
    decay_mult: 1
  }
  param {
    lr_mult: 2
    decay_mult: 0
  }
  convolution_param {
    num_output: 128
    pad: 1
    kernel_size: 3
    weight_filler {
      type: "msra"
    }
    bias_filler {
      type: "constant"
    }
  }
}
layer {
  name: "conv2_2_D_bn"
  type: "BN"
  bottom: "conv2_2_D"
  top: "conv2_2_D"
  param {
    lr_mult: 1
    decay_mult: 1
  }
  param {
    lr_mult: 1
    decay_mult: 0
  }
  bn_param {
    scale_filler {
      type: "constant"
      value: 1
    }
    shift_filler {
      type: "constant"
      value: 0.001
    }
  }
}
layer {
  name: "relu2_2_D"
  type: "ReLU"
  bottom: "conv2_2_D"
  top: "conv2_2_D"
}
layer {
  name: "conv2_1_D"
  type: "Convolution"
  bottom: "conv2_2_D"
  top: "conv2_1_D"
  param {
    lr_mult: 1
    decay_mult: 1
  }
  param {
    lr_mult: 2
    decay_mult: 0
  }
  convolution_param {
    num_output: 64
    pad: 1
    kernel_size: 3
    weight_filler {
      type: "msra"
    }
    bias_filler {
      type: "constant"
    }
  }
}
layer {
  name: "conv2_1_D_bn"
  type: "BN"
  bottom: "conv2_1_D"
  top: "conv2_1_D"
  param {
    lr_mult: 1
    decay_mult: 1
  }
  param {
    lr_mult: 1
    decay_mult: 0
  }
  bn_param {
    scale_filler {
      type: "constant"
      value: 1
    }
    shift_filler {
      type: "constant"
      value: 0.001
    }
  }
}
layer {
  name: "relu2_1_D"
  type: "ReLU"
  bottom: "conv2_1_D"
  top: "conv2_1_D"
}
layer {
  name: "upsample1"
  type: "Upsample"
  bottom: "conv2_1_D"
  bottom: "pool1_mask"
  top: "pool1_D"
  upsample_param {
    scale: 2
  }
}
layer {
  name: "conv1_2_D"
  type: "Convolution"
  bottom: "pool1_D"
  top: "conv1_2_D"
  param {
    lr_mult: 1
    decay_mult: 1
  }
  param {
    lr_mult: 2
    decay_mult: 0
  }
  convolution_param {
    num_output: 64
    pad: 1
    kernel_size: 3
    weight_filler {
      type: "msra"
    }
    bias_filler {
      type: "constant"
    }
  }
}
layer {
  name: "conv1_2_D_bn"
  type: "BN"
  bottom: "conv1_2_D"
  top: "conv1_2_D"
  param {
    lr_mult: 1
    decay_mult: 1
  }
  param {
    lr_mult: 1
    decay_mult: 0
  }
  bn_param {
    scale_filler {
      type: "constant"
      value: 1
    }
    shift_filler {
      type: "constant"
      value: 0.001
    }
  }
}
layer {
  name: "relu1_2_D"
  type: "ReLU"
  bottom: "conv1_2_D"
  top: "conv1_2_D"
}
layer {
  name: "conv1_1_D"
  type: "Convolution"
  bottom: "conv1_2_D"
  top: "conv1_1_D"
  param {
    lr_mult: 1
    decay_mult: 1
  }
  param {
    lr_mult: 2
    decay_mult: 0
  }
  convolution_param {
    num_output: 4
    pad: 1
    kernel_size: 3
    weight_filler {
      type: "msra"
    }
    bias_filler {
      type: "constant"
    }
  }
}
layer {
  name: "loss"
  type: "SoftmaxWithLoss"
  bottom: "conv1_1_D"
  bottom: "label"
  top: "loss"
  loss_param {
    weight_by_label_freqs: true
    class_weighting: 0.2595
    class_weighting: 0.1826
    class_weighting: 4.564
    class_weighting: 7.1417
  }
  softmax_param {
    engine: CAFFE
  }
}
layer {
  name: "accuracy"
  type: "Accuracy"
  bottom: "conv1_1_D"
  bottom: "label"
  top: "accuracy"
  top: "per_class_accuracy"
}
I0328 07:29:40.849004 35997 layer_factory.hpp:74] Creating layer data
I0328 07:29:40.849031 35997 net.cpp:90] Creating Layer data
I0328 07:29:40.849051 35997 net.cpp:368] data -> data
I0328 07:29:40.849084 35997 net.cpp:368] data -> label
I0328 07:29:40.849102 35997 net.cpp:120] Setting up data
I0328 07:29:40.849117 35997 dense_image_data_layer.cpp:41] Opening file SegNet/AnhLua/train.txt
I0328 07:29:40.849362 35997 dense_image_data_layer.cpp:51] Shuffling data
I0328 07:29:40.849988 35997 dense_image_data_layer.cpp:56] A total of 103 examples.
I0328 07:29:40.855031 35997 dense_image_data_layer.cpp:109] output data size: 4,3,360,480
I0328 07:29:40.855190 35997 net.cpp:127] Top shape: 4 3 360 480 (2073600)
I0328 07:29:40.855208 35997 net.cpp:127] Top shape: 4 1 360 480 (691200)
I0328 07:29:40.855240 35997 layer_factory.hpp:74] Creating layer label_data_1_split
I0328 07:29:40.855255 35997 net.cpp:90] Creating Layer label_data_1_split
I0328 07:29:40.855267 35997 net.cpp:410] label_data_1_split <- label
I0328 07:29:40.855284 35997 net.cpp:368] label_data_1_split -> label_data_1_split_0
I0328 07:29:40.855300 35997 net.cpp:368] label_data_1_split -> label_data_1_split_1
I0328 07:29:40.855314 35997 net.cpp:120] Setting up label_data_1_split
I0328 07:29:40.855329 35997 net.cpp:127] Top shape: 4 1 360 480 (691200)
I0328 07:29:40.855341 35997 net.cpp:127] Top shape: 4 1 360 480 (691200)
I0328 07:29:40.855350 35997 layer_factory.hpp:74] Creating layer conv1_1
I0328 07:29:40.855365 35997 net.cpp:90] Creating Layer conv1_1
I0328 07:29:40.855375 35997 net.cpp:410] conv1_1 <- data
I0328 07:29:40.855387 35997 net.cpp:368] conv1_1 -> conv1_1
I0328 07:29:40.855409 35997 net.cpp:120] Setting up conv1_1
I0328 07:29:40.855820 35997 net.cpp:127] Top shape: 4 64 360 480 (44236800)
I0328 07:29:40.855847 35997 layer_factory.hpp:74] Creating layer conv1_1_bn
I0328 07:29:40.855864 35997 net.cpp:90] Creating Layer conv1_1_bn
I0328 07:29:40.855872 35997 net.cpp:410] conv1_1_bn <- conv1_1
I0328 07:29:40.855885 35997 net.cpp:357] conv1_1_bn -> conv1_1 (in-place)
I0328 07:29:40.855901 35997 net.cpp:120] Setting up conv1_1_bn
I0328 07:29:40.856570 35997 net.cpp:127] Top shape: 4 64 360 480 (44236800)
I0328 07:29:40.856588 35997 layer_factory.hpp:74] Creating layer relu1_1
I0328 07:29:40.856614 35997 net.cpp:90] Creating Layer relu1_1
I0328 07:29:40.856637 35997 net.cpp:410] relu1_1 <- conv1_1
I0328 07:29:40.856650 35997 net.cpp:357] relu1_1 -> conv1_1 (in-place)
I0328 07:29:40.856662 35997 net.cpp:120] Setting up relu1_1
I0328 07:29:40.856674 35997 net.cpp:127] Top shape: 4 64 360 480 (44236800)
I0328 07:29:40.856683 35997 layer_factory.hpp:74] Creating layer conv1_2
I0328 07:29:40.856696 35997 net.cpp:90] Creating Layer conv1_2
I0328 07:29:40.856705 35997 net.cpp:410] conv1_2 <- conv1_1
I0328 07:29:40.856719 35997 net.cpp:368] conv1_2 -> conv1_2
I0328 07:29:40.856731 35997 net.cpp:120] Setting up conv1_2
I0328 07:29:40.858125 35997 net.cpp:127] Top shape: 4 64 360 480 (44236800)
I0328 07:29:40.858150 35997 layer_factory.hpp:74] Creating layer conv1_2_bn
I0328 07:29:40.858163 35997 net.cpp:90] Creating Layer conv1_2_bn
I0328 07:29:40.858173 35997 net.cpp:410] conv1_2_bn <- conv1_2
I0328 07:29:40.858188 35997 net.cpp:357] conv1_2_bn -> conv1_2 (in-place)
I0328 07:29:40.858202 35997 net.cpp:120] Setting up conv1_2_bn
I0328 07:29:40.858870 35997 net.cpp:127] Top shape: 4 64 360 480 (44236800)
I0328 07:29:40.858886 35997 layer_factory.hpp:74] Creating layer relu1_2
I0328 07:29:40.858898 35997 net.cpp:90] Creating Layer relu1_2
I0328 07:29:40.858907 35997 net.cpp:410] relu1_2 <- conv1_2
I0328 07:29:40.858922 35997 net.cpp:357] relu1_2 -> conv1_2 (in-place)
I0328 07:29:40.858933 35997 net.cpp:120] Setting up relu1_2
I0328 07:29:40.858945 35997 net.cpp:127] Top shape: 4 64 360 480 (44236800)
I0328 07:29:40.858954 35997 layer_factory.hpp:74] Creating layer pool1
I0328 07:29:40.858969 35997 net.cpp:90] Creating Layer pool1
I0328 07:29:40.858978 35997 net.cpp:410] pool1 <- conv1_2
I0328 07:29:40.858992 35997 net.cpp:368] pool1 -> pool1
I0328 07:29:40.859009 35997 net.cpp:368] pool1 -> pool1_mask
I0328 07:29:40.859021 35997 net.cpp:120] Setting up pool1
I0328 07:29:40.859041 35997 net.cpp:127] Top shape: 4 64 180 240 (11059200)
I0328 07:29:40.859053 35997 net.cpp:127] Top shape: 4 64 180 240 (11059200)
I0328 07:29:40.859062 35997 layer_factory.hpp:74] Creating layer conv2_1
I0328 07:29:40.859076 35997 net.cpp:90] Creating Layer conv2_1
I0328 07:29:40.859084 35997 net.cpp:410] conv2_1 <- pool1
I0328 07:29:40.859100 35997 net.cpp:368] conv2_1 -> conv2_1
I0328 07:29:40.859118 35997 net.cpp:120] Setting up conv2_1
I0328 07:29:40.860731 35997 net.cpp:127] Top shape: 4 128 180 240 (22118400)
I0328 07:29:40.860755 35997 layer_factory.hpp:74] Creating layer conv2_1_bn
I0328 07:29:40.860769 35997 net.cpp:90] Creating Layer conv2_1_bn
I0328 07:29:40.860779 35997 net.cpp:410] conv2_1_bn <- conv2_1
I0328 07:29:40.860793 35997 net.cpp:357] conv2_1_bn -> conv2_1 (in-place)
I0328 07:29:40.860806 35997 net.cpp:120] Setting up conv2_1_bn
I0328 07:29:40.861012 35997 net.cpp:127] Top shape: 4 128 180 240 (22118400)
I0328 07:29:40.861030 35997 layer_factory.hpp:74] Creating layer relu2_1
I0328 07:29:40.861042 35997 net.cpp:90] Creating Layer relu2_1
I0328 07:29:40.861052 35997 net.cpp:410] relu2_1 <- conv2_1
I0328 07:29:40.861065 35997 net.cpp:357] relu2_1 -> conv2_1 (in-place)
I0328 07:29:40.861078 35997 net.cpp:120] Setting up relu2_1
I0328 07:29:40.861089 35997 net.cpp:127] Top shape: 4 128 180 240 (22118400)
I0328 07:29:40.861099 35997 layer_factory.hpp:74] Creating layer conv2_2
I0328 07:29:40.861110 35997 net.cpp:90] Creating Layer conv2_2
I0328 07:29:40.861119 35997 net.cpp:410] conv2_2 <- conv2_1
I0328 07:29:40.861135 35997 net.cpp:368] conv2_2 -> conv2_2
I0328 07:29:40.861155 35997 net.cpp:120] Setting up conv2_2
I0328 07:29:40.864259 35997 net.cpp:127] Top shape: 4 128 180 240 (22118400)
I0328 07:29:40.864279 35997 layer_factory.hpp:74] Creating layer conv2_2_bn
I0328 07:29:40.864295 35997 net.cpp:90] Creating Layer conv2_2_bn
I0328 07:29:40.864305 35997 net.cpp:410] conv2_2_bn <- conv2_2
I0328 07:29:40.864317 35997 net.cpp:357] conv2_2_bn -> conv2_2 (in-place)
I0328 07:29:40.864331 35997 net.cpp:120] Setting up conv2_2_bn
I0328 07:29:40.864542 35997 net.cpp:127] Top shape: 4 128 180 240 (22118400)
I0328 07:29:40.864569 35997 layer_factory.hpp:74] Creating layer relu2_2
I0328 07:29:40.864593 35997 net.cpp:90] Creating Layer relu2_2
I0328 07:29:40.864603 35997 net.cpp:410] relu2_2 <- conv2_2
I0328 07:29:40.864616 35997 net.cpp:357] relu2_2 -> conv2_2 (in-place)
I0328 07:29:40.864629 35997 net.cpp:120] Setting up relu2_2
I0328 07:29:40.864640 35997 net.cpp:127] Top shape: 4 128 180 240 (22118400)
I0328 07:29:40.864650 35997 layer_factory.hpp:74] Creating layer pool2
I0328 07:29:40.864660 35997 net.cpp:90] Creating Layer pool2
I0328 07:29:40.864670 35997 net.cpp:410] pool2 <- conv2_2
I0328 07:29:40.864683 35997 net.cpp:368] pool2 -> pool2
I0328 07:29:40.864698 35997 net.cpp:368] pool2 -> pool2_mask
I0328 07:29:40.864711 35997 net.cpp:120] Setting up pool2
I0328 07:29:40.864725 35997 net.cpp:127] Top shape: 4 128 90 120 (5529600)
I0328 07:29:40.864737 35997 net.cpp:127] Top shape: 4 128 90 120 (5529600)
I0328 07:29:40.864745 35997 layer_factory.hpp:74] Creating layer conv3_1
I0328 07:29:40.864763 35997 net.cpp:90] Creating Layer conv3_1
I0328 07:29:40.864773 35997 net.cpp:410] conv3_1 <- pool2
I0328 07:29:40.864787 35997 net.cpp:368] conv3_1 -> conv3_1
I0328 07:29:40.864801 35997 net.cpp:120] Setting up conv3_1
I0328 07:29:40.871335 35997 net.cpp:127] Top shape: 4 256 90 120 (11059200)
I0328 07:29:40.871361 35997 layer_factory.hpp:74] Creating layer conv3_1_bn
I0328 07:29:40.871378 35997 net.cpp:90] Creating Layer conv3_1_bn
I0328 07:29:40.871388 35997 net.cpp:410] conv3_1_bn <- conv3_1
I0328 07:29:40.871402 35997 net.cpp:357] conv3_1_bn -> conv3_1 (in-place)
I0328 07:29:40.871420 35997 net.cpp:120] Setting up conv3_1_bn
I0328 07:29:40.871497 35997 net.cpp:127] Top shape: 4 256 90 120 (11059200)
I0328 07:29:40.871515 35997 layer_factory.hpp:74] Creating layer relu3_1
I0328 07:29:40.871531 35997 net.cpp:90] Creating Layer relu3_1
I0328 07:29:40.871539 35997 net.cpp:410] relu3_1 <- conv3_1
I0328 07:29:40.871551 35997 net.cpp:357] relu3_1 -> conv3_1 (in-place)
I0328 07:29:40.871562 35997 net.cpp:120] Setting up relu3_1
I0328 07:29:40.871574 35997 net.cpp:127] Top shape: 4 256 90 120 (11059200)
I0328 07:29:40.871583 35997 layer_factory.hpp:74] Creating layer conv3_2
I0328 07:29:40.871597 35997 net.cpp:90] Creating Layer conv3_2
I0328 07:29:40.871605 35997 net.cpp:410] conv3_2 <- conv3_1
I0328 07:29:40.871621 35997 net.cpp:368] conv3_2 -> conv3_2
I0328 07:29:40.871634 35997 net.cpp:120] Setting up conv3_2
I0328 07:29:40.884330 35997 net.cpp:127] Top shape: 4 256 90 120 (11059200)
I0328 07:29:40.884351 35997 layer_factory.hpp:74] Creating layer conv3_2_bn
I0328 07:29:40.884368 35997 net.cpp:90] Creating Layer conv3_2_bn
I0328 07:29:40.884378 35997 net.cpp:410] conv3_2_bn <- conv3_2
I0328 07:29:40.884392 35997 net.cpp:357] conv3_2_bn -> conv3_2 (in-place)
I0328 07:29:40.884407 35997 net.cpp:120] Setting up conv3_2_bn
I0328 07:29:40.884483 35997 net.cpp:127] Top shape: 4 256 90 120 (11059200)
I0328 07:29:40.884500 35997 layer_factory.hpp:74] Creating layer relu3_2
I0328 07:29:40.884512 35997 net.cpp:90] Creating Layer relu3_2
I0328 07:29:40.884521 35997 net.cpp:410] relu3_2 <- conv3_2
I0328 07:29:40.884533 35997 net.cpp:357] relu3_2 -> conv3_2 (in-place)
I0328 07:29:40.884544 35997 net.cpp:120] Setting up relu3_2
I0328 07:29:40.884557 35997 net.cpp:127] Top shape: 4 256 90 120 (11059200)
I0328 07:29:40.884565 35997 layer_factory.hpp:74] Creating layer conv3_3
I0328 07:29:40.884582 35997 net.cpp:90] Creating Layer conv3_3
I0328 07:29:40.884591 35997 net.cpp:410] conv3_3 <- conv3_2
I0328 07:29:40.884605 35997 net.cpp:368] conv3_3 -> conv3_3
I0328 07:29:40.884620 35997 net.cpp:120] Setting up conv3_3
I0328 07:29:40.896579 35997 net.cpp:127] Top shape: 4 256 90 120 (11059200)
I0328 07:29:40.896602 35997 layer_factory.hpp:74] Creating layer conv3_3_bn
I0328 07:29:40.896620 35997 net.cpp:90] Creating Layer conv3_3_bn
I0328 07:29:40.896631 35997 net.cpp:410] conv3_3_bn <- conv3_3
I0328 07:29:40.896646 35997 net.cpp:357] conv3_3_bn -> conv3_3 (in-place)
I0328 07:29:40.896659 35997 net.cpp:120] Setting up conv3_3_bn
I0328 07:29:40.896744 35997 net.cpp:127] Top shape: 4 256 90 120 (11059200)
I0328 07:29:40.896775 35997 layer_factory.hpp:74] Creating layer relu3_3
I0328 07:29:40.896788 35997 net.cpp:90] Creating Layer relu3_3
I0328 07:29:40.896796 35997 net.cpp:410] relu3_3 <- conv3_3
I0328 07:29:40.896808 35997 net.cpp:357] relu3_3 -> conv3_3 (in-place)
I0328 07:29:40.896819 35997 net.cpp:120] Setting up relu3_3
I0328 07:29:40.896831 35997 net.cpp:127] Top shape: 4 256 90 120 (11059200)
I0328 07:29:40.896842 35997 layer_factory.hpp:74] Creating layer pool3
I0328 07:29:40.896857 35997 net.cpp:90] Creating Layer pool3
I0328 07:29:40.896867 35997 net.cpp:410] pool3 <- conv3_3
I0328 07:29:40.896879 35997 net.cpp:368] pool3 -> pool3
I0328 07:29:40.896893 35997 net.cpp:368] pool3 -> pool3_mask
I0328 07:29:40.896913 35997 net.cpp:120] Setting up pool3
I0328 07:29:40.896929 35997 net.cpp:127] Top shape: 4 256 45 60 (2764800)
I0328 07:29:40.896941 35997 net.cpp:127] Top shape: 4 256 45 60 (2764800)
I0328 07:29:40.896951 35997 layer_factory.hpp:74] Creating layer conv4_1
I0328 07:29:40.896968 35997 net.cpp:90] Creating Layer conv4_1
I0328 07:29:40.896978 35997 net.cpp:410] conv4_1 <- pool3
I0328 07:29:40.896993 35997 net.cpp:368] conv4_1 -> conv4_1
I0328 07:29:40.897006 35997 net.cpp:120] Setting up conv4_1
I0328 07:29:40.920071 35997 net.cpp:127] Top shape: 4 512 45 60 (5529600)
I0328 07:29:40.920095 35997 layer_factory.hpp:74] Creating layer conv4_1_bn
I0328 07:29:40.920110 35997 net.cpp:90] Creating Layer conv4_1_bn
I0328 07:29:40.920120 35997 net.cpp:410] conv4_1_bn <- conv4_1
I0328 07:29:40.920135 35997 net.cpp:357] conv4_1_bn -> conv4_1 (in-place)
I0328 07:29:40.920148 35997 net.cpp:120] Setting up conv4_1_bn
I0328 07:29:40.920186 35997 net.cpp:127] Top shape: 4 512 45 60 (5529600)
I0328 07:29:40.920202 35997 layer_factory.hpp:74] Creating layer relu4_1
I0328 07:29:40.920215 35997 net.cpp:90] Creating Layer relu4_1
I0328 07:29:40.920224 35997 net.cpp:410] relu4_1 <- conv4_1
I0328 07:29:40.920236 35997 net.cpp:357] relu4_1 -> conv4_1 (in-place)
I0328 07:29:40.920248 35997 net.cpp:120] Setting up relu4_1
I0328 07:29:40.920259 35997 net.cpp:127] Top shape: 4 512 45 60 (5529600)
I0328 07:29:40.920269 35997 layer_factory.hpp:74] Creating layer conv4_2
I0328 07:29:40.920284 35997 net.cpp:90] Creating Layer conv4_2
I0328 07:29:40.920294 35997 net.cpp:410] conv4_2 <- conv4_1
I0328 07:29:40.920305 35997 net.cpp:368] conv4_2 -> conv4_2
I0328 07:29:40.920318 35997 net.cpp:120] Setting up conv4_2
I0328 07:29:40.957165 35997 net.cpp:127] Top shape: 4 512 45 60 (5529600)
I0328 07:29:40.957218 35997 layer_factory.hpp:74] Creating layer conv4_2_bn
I0328 07:29:40.957237 35997 net.cpp:90] Creating Layer conv4_2_bn
I0328 07:29:40.957247 35997 net.cpp:410] conv4_2_bn <- conv4_2
I0328 07:29:40.957257 35997 net.cpp:357] conv4_2_bn -> conv4_2 (in-place)
I0328 07:29:40.957269 35997 net.cpp:120] Setting up conv4_2_bn
I0328 07:29:40.957301 35997 net.cpp:127] Top shape: 4 512 45 60 (5529600)
I0328 07:29:40.957312 35997 layer_factory.hpp:74] Creating layer relu4_2
I0328 07:29:40.957324 35997 net.cpp:90] Creating Layer relu4_2
I0328 07:29:40.957330 35997 net.cpp:410] relu4_2 <- conv4_2
I0328 07:29:40.957339 35997 net.cpp:357] relu4_2 -> conv4_2 (in-place)
I0328 07:29:40.957345 35997 net.cpp:120] Setting up relu4_2
I0328 07:29:40.957355 35997 net.cpp:127] Top shape: 4 512 45 60 (5529600)
I0328 07:29:40.957362 35997 layer_factory.hpp:74] Creating layer conv4_3
I0328 07:29:40.957386 35997 net.cpp:90] Creating Layer conv4_3
I0328 07:29:40.957393 35997 net.cpp:410] conv4_3 <- conv4_2
I0328 07:29:40.957403 35997 net.cpp:368] conv4_3 -> conv4_3
I0328 07:29:40.957415 35997 net.cpp:120] Setting up conv4_3
I0328 07:29:40.986763 35997 net.cpp:127] Top shape: 4 512 45 60 (5529600)
I0328 07:29:40.986794 35997 layer_factory.hpp:74] Creating layer conv4_3_bn
I0328 07:29:40.986809 35997 net.cpp:90] Creating Layer conv4_3_bn
I0328 07:29:40.986817 35997 net.cpp:410] conv4_3_bn <- conv4_3
I0328 07:29:40.986827 35997 net.cpp:357] conv4_3_bn -> conv4_3 (in-place)
I0328 07:29:40.986848 35997 net.cpp:120] Setting up conv4_3_bn
I0328 07:29:40.986886 35997 net.cpp:127] Top shape: 4 512 45 60 (5529600)
I0328 07:29:40.986897 35997 layer_factory.hpp:74] Creating layer relu4_3
I0328 07:29:40.986907 35997 net.cpp:90] Creating Layer relu4_3
I0328 07:29:40.986912 35997 net.cpp:410] relu4_3 <- conv4_3
I0328 07:29:40.986922 35997 net.cpp:357] relu4_3 -> conv4_3 (in-place)
I0328 07:29:40.986930 35997 net.cpp:120] Setting up relu4_3
I0328 07:29:40.986939 35997 net.cpp:127] Top shape: 4 512 45 60 (5529600)
I0328 07:29:40.986946 35997 layer_factory.hpp:74] Creating layer pool4
I0328 07:29:40.986956 35997 net.cpp:90] Creating Layer pool4
I0328 07:29:40.986963 35997 net.cpp:410] pool4 <- conv4_3
I0328 07:29:40.986969 35997 net.cpp:368] pool4 -> pool4
I0328 07:29:40.986980 35997 net.cpp:368] pool4 -> pool4_mask
I0328 07:29:40.986989 35997 net.cpp:120] Setting up pool4
I0328 07:29:40.987002 35997 net.cpp:127] Top shape: 4 512 23 30 (1413120)
I0328 07:29:40.987010 35997 net.cpp:127] Top shape: 4 512 23 30 (1413120)
I0328 07:29:40.987015 35997 layer_factory.hpp:74] Creating layer conv5_1
I0328 07:29:40.987027 35997 net.cpp:90] Creating Layer conv5_1
I0328 07:29:40.987035 35997 net.cpp:410] conv5_1 <- pool4
I0328 07:29:40.987046 35997 net.cpp:368] conv5_1 -> conv5_1
I0328 07:29:40.987054 35997 net.cpp:120] Setting up conv5_1
I0328 07:29:41.016775 35997 net.cpp:127] Top shape: 4 512 23 30 (1413120)
I0328 07:29:41.016795 35997 layer_factory.hpp:74] Creating layer conv5_1_bn
I0328 07:29:41.016808 35997 net.cpp:90] Creating Layer conv5_1_bn
I0328 07:29:41.016815 35997 net.cpp:410] conv5_1_bn <- conv5_1
I0328 07:29:41.016825 35997 net.cpp:357] conv5_1_bn -> conv5_1 (in-place)
I0328 07:29:41.016835 35997 net.cpp:120] Setting up conv5_1_bn
I0328 07:29:41.016858 35997 net.cpp:127] Top shape: 4 512 23 30 (1413120)
I0328 07:29:41.016868 35997 layer_factory.hpp:74] Creating layer relu5_1
I0328 07:29:41.016876 35997 net.cpp:90] Creating Layer relu5_1
I0328 07:29:41.016883 35997 net.cpp:410] relu5_1 <- conv5_1
I0328 07:29:41.016891 35997 net.cpp:357] relu5_1 -> conv5_1 (in-place)
I0328 07:29:41.016898 35997 net.cpp:120] Setting up relu5_1
I0328 07:29:41.016906 35997 net.cpp:127] Top shape: 4 512 23 30 (1413120)
I0328 07:29:41.016912 35997 layer_factory.hpp:74] Creating layer conv5_2
I0328 07:29:41.016923 35997 net.cpp:90] Creating Layer conv5_2
I0328 07:29:41.016929 35997 net.cpp:410] conv5_2 <- conv5_1
I0328 07:29:41.016939 35997 net.cpp:368] conv5_2 -> conv5_2
I0328 07:29:41.016949 35997 net.cpp:120] Setting up conv5_2
I0328 07:29:41.046257 35997 net.cpp:127] Top shape: 4 512 23 30 (1413120)
I0328 07:29:41.046279 35997 layer_factory.hpp:74] Creating layer conv5_2_bn
I0328 07:29:41.046293 35997 net.cpp:90] Creating Layer conv5_2_bn
I0328 07:29:41.046299 35997 net.cpp:410] conv5_2_bn <- conv5_2
I0328 07:29:41.046308 35997 net.cpp:357] conv5_2_bn -> conv5_2 (in-place)
I0328 07:29:41.046317 35997 net.cpp:120] Setting up conv5_2_bn
I0328 07:29:41.046339 35997 net.cpp:127] Top shape: 4 512 23 30 (1413120)
I0328 07:29:41.046350 35997 layer_factory.hpp:74] Creating layer relu5_2
I0328 07:29:41.046360 35997 net.cpp:90] Creating Layer relu5_2
I0328 07:29:41.046365 35997 net.cpp:410] relu5_2 <- conv5_2
I0328 07:29:41.046372 35997 net.cpp:357] relu5_2 -> conv5_2 (in-place)
I0328 07:29:41.046380 35997 net.cpp:120] Setting up relu5_2
I0328 07:29:41.046391 35997 net.cpp:127] Top shape: 4 512 23 30 (1413120)
I0328 07:29:41.046397 35997 layer_factory.hpp:74] Creating layer conv5_3
I0328 07:29:41.046408 35997 net.cpp:90] Creating Layer conv5_3
I0328 07:29:41.046414 35997 net.cpp:410] conv5_3 <- conv5_2
I0328 07:29:41.046423 35997 net.cpp:368] conv5_3 -> conv5_3
I0328 07:29:41.046435 35997 net.cpp:120] Setting up conv5_3
I0328 07:29:41.076469 35997 net.cpp:127] Top shape: 4 512 23 30 (1413120)
I0328 07:29:41.076494 35997 layer_factory.hpp:74] Creating layer conv5_3_bn
I0328 07:29:41.076506 35997 net.cpp:90] Creating Layer conv5_3_bn
I0328 07:29:41.076514 35997 net.cpp:410] conv5_3_bn <- conv5_3
I0328 07:29:41.076525 35997 net.cpp:357] conv5_3_bn -> conv5_3 (in-place)
I0328 07:29:41.076545 35997 net.cpp:120] Setting up conv5_3_bn
I0328 07:29:41.076575 35997 net.cpp:127] Top shape: 4 512 23 30 (1413120)
I0328 07:29:41.076586 35997 layer_factory.hpp:74] Creating layer relu5_3
I0328 07:29:41.076596 35997 net.cpp:90] Creating Layer relu5_3
I0328 07:29:41.076601 35997 net.cpp:410] relu5_3 <- conv5_3
I0328 07:29:41.076613 35997 net.cpp:357] relu5_3 -> conv5_3 (in-place)
I0328 07:29:41.076622 35997 net.cpp:120] Setting up relu5_3
I0328 07:29:41.076630 35997 net.cpp:127] Top shape: 4 512 23 30 (1413120)
I0328 07:29:41.076637 35997 layer_factory.hpp:74] Creating layer pool5
I0328 07:29:41.076645 35997 net.cpp:90] Creating Layer pool5
I0328 07:29:41.076652 35997 net.cpp:410] pool5 <- conv5_3
I0328 07:29:41.076660 35997 net.cpp:368] pool5 -> pool5
I0328 07:29:41.076670 35997 net.cpp:368] pool5 -> pool5_mask
I0328 07:29:41.076680 35997 net.cpp:120] Setting up pool5
I0328 07:29:41.076692 35997 net.cpp:127] Top shape: 4 512 12 15 (368640)
I0328 07:29:41.076700 35997 net.cpp:127] Top shape: 4 512 12 15 (368640)
I0328 07:29:41.076706 35997 layer_factory.hpp:74] Creating layer upsample5
I0328 07:29:41.076715 35997 net.cpp:90] Creating Layer upsample5
I0328 07:29:41.076721 35997 net.cpp:410] upsample5 <- pool5
I0328 07:29:41.076728 35997 net.cpp:410] upsample5 <- pool5_mask
I0328 07:29:41.076740 35997 net.cpp:368] upsample5 -> pool5_D
I0328 07:29:41.076755 35997 net.cpp:120] Setting up upsample5
I0328 07:29:41.076767 35997 net.cpp:127] Top shape: 4 512 23 30 (1413120)
I0328 07:29:41.076773 35997 layer_factory.hpp:74] Creating layer conv5_3_D
I0328 07:29:41.076784 35997 net.cpp:90] Creating Layer conv5_3_D
I0328 07:29:41.076791 35997 net.cpp:410] conv5_3_D <- pool5_D
I0328 07:29:41.076799 35997 net.cpp:368] conv5_3_D -> conv5_3_D
I0328 07:29:41.076808 35997 net.cpp:120] Setting up conv5_3_D
I0328 07:29:41.106138 35997 net.cpp:127] Top shape: 4 512 23 30 (1413120)
I0328 07:29:41.106158 35997 layer_factory.hpp:74] Creating layer conv5_3_D_bn
I0328 07:29:41.106170 35997 net.cpp:90] Creating Layer conv5_3_D_bn
I0328 07:29:41.106178 35997 net.cpp:410] conv5_3_D_bn <- conv5_3_D
I0328 07:29:41.106189 35997 net.cpp:357] conv5_3_D_bn -> conv5_3_D (in-place)
I0328 07:29:41.106197 35997 net.cpp:120] Setting up conv5_3_D_bn
I0328 07:29:41.106222 35997 net.cpp:127] Top shape: 4 512 23 30 (1413120)
I0328 07:29:41.106232 35997 layer_factory.hpp:74] Creating layer relu5_3_D
I0328 07:29:41.106241 35997 net.cpp:90] Creating Layer relu5_3_D
I0328 07:29:41.106247 35997 net.cpp:410] relu5_3_D <- conv5_3_D
I0328 07:29:41.106256 35997 net.cpp:357] relu5_3_D -> conv5_3_D (in-place)
I0328 07:29:41.106263 35997 net.cpp:120] Setting up relu5_3_D
I0328 07:29:41.106271 35997 net.cpp:127] Top shape: 4 512 23 30 (1413120)
I0328 07:29:41.106278 35997 layer_factory.hpp:74] Creating layer conv5_2_D
I0328 07:29:41.106290 35997 net.cpp:90] Creating Layer conv5_2_D
I0328 07:29:41.106297 35997 net.cpp:410] conv5_2_D <- conv5_3_D
I0328 07:29:41.106307 35997 net.cpp:368] conv5_2_D -> conv5_2_D
I0328 07:29:41.106315 35997 net.cpp:120] Setting up conv5_2_D
I0328 07:29:41.136054 35997 net.cpp:127] Top shape: 4 512 23 30 (1413120)
I0328 07:29:41.136075 35997 layer_factory.hpp:74] Creating layer conv5_2_D_bn
I0328 07:29:41.136088 35997 net.cpp:90] Creating Layer conv5_2_D_bn
I0328 07:29:41.136096 35997 net.cpp:410] conv5_2_D_bn <- conv5_2_D
I0328 07:29:41.136104 35997 net.cpp:357] conv5_2_D_bn -> conv5_2_D (in-place)
I0328 07:29:41.136114 35997 net.cpp:120] Setting up conv5_2_D_bn
I0328 07:29:41.136134 35997 net.cpp:127] Top shape: 4 512 23 30 (1413120)
I0328 07:29:41.136147 35997 layer_factory.hpp:74] Creating layer relu5_2_D
I0328 07:29:41.136155 35997 net.cpp:90] Creating Layer relu5_2_D
I0328 07:29:41.136162 35997 net.cpp:410] relu5_2_D <- conv5_2_D
I0328 07:29:41.136171 35997 net.cpp:357] relu5_2_D -> conv5_2_D (in-place)
I0328 07:29:41.136179 35997 net.cpp:120] Setting up relu5_2_D
I0328 07:29:41.136188 35997 net.cpp:127] Top shape: 4 512 23 30 (1413120)
I0328 07:29:41.136194 35997 layer_factory.hpp:74] Creating layer conv5_1_D
I0328 07:29:41.136212 35997 net.cpp:90] Creating Layer conv5_1_D
I0328 07:29:41.136229 35997 net.cpp:410] conv5_1_D <- conv5_2_D
I0328 07:29:41.136240 35997 net.cpp:368] conv5_1_D -> conv5_1_D
I0328 07:29:41.136250 35997 net.cpp:120] Setting up conv5_1_D
I0328 07:29:41.165567 35997 net.cpp:127] Top shape: 4 512 23 30 (1413120)
I0328 07:29:41.165586 35997 layer_factory.hpp:74] Creating layer conv5_1_D_bn
I0328 07:29:41.165597 35997 net.cpp:90] Creating Layer conv5_1_D_bn
I0328 07:29:41.165604 35997 net.cpp:410] conv5_1_D_bn <- conv5_1_D
I0328 07:29:41.165616 35997 net.cpp:357] conv5_1_D_bn -> conv5_1_D (in-place)
I0328 07:29:41.165624 35997 net.cpp:120] Setting up conv5_1_D_bn
I0328 07:29:41.165645 35997 net.cpp:127] Top shape: 4 512 23 30 (1413120)
I0328 07:29:41.165655 35997 layer_factory.hpp:74] Creating layer relu5_1_D
I0328 07:29:41.165665 35997 net.cpp:90] Creating Layer relu5_1_D
I0328 07:29:41.165671 35997 net.cpp:410] relu5_1_D <- conv5_1_D
I0328 07:29:41.165679 35997 net.cpp:357] relu5_1_D -> conv5_1_D (in-place)
I0328 07:29:41.165686 35997 net.cpp:120] Setting up relu5_1_D
I0328 07:29:41.165694 35997 net.cpp:127] Top shape: 4 512 23 30 (1413120)
I0328 07:29:41.165701 35997 layer_factory.hpp:74] Creating layer upsample4
I0328 07:29:41.165711 35997 net.cpp:90] Creating Layer upsample4
I0328 07:29:41.165717 35997 net.cpp:410] upsample4 <- conv5_1_D
I0328 07:29:41.165725 35997 net.cpp:410] upsample4 <- pool4_mask
I0328 07:29:41.165733 35997 net.cpp:368] upsample4 -> pool4_D
I0328 07:29:41.165742 35997 net.cpp:120] Setting up upsample4
I0328 07:29:41.165753 35997 net.cpp:127] Top shape: 4 512 45 60 (5529600)
I0328 07:29:41.165760 35997 layer_factory.hpp:74] Creating layer conv4_3_D
I0328 07:29:41.165769 35997 net.cpp:90] Creating Layer conv4_3_D
I0328 07:29:41.165776 35997 net.cpp:410] conv4_3_D <- pool4_D
I0328 07:29:41.165786 35997 net.cpp:368] conv4_3_D -> conv4_3_D
I0328 07:29:41.165803 35997 net.cpp:120] Setting up conv4_3_D
I0328 07:29:41.195540 35997 net.cpp:127] Top shape: 4 512 45 60 (5529600)
I0328 07:29:41.195570 35997 layer_factory.hpp:74] Creating layer conv4_3_D_bn
I0328 07:29:41.195582 35997 net.cpp:90] Creating Layer conv4_3_D_bn
I0328 07:29:41.195590 35997 net.cpp:410] conv4_3_D_bn <- conv4_3_D
I0328 07:29:41.195598 35997 net.cpp:357] conv4_3_D_bn -> conv4_3_D (in-place)
I0328 07:29:41.195608 35997 net.cpp:120] Setting up conv4_3_D_bn
I0328 07:29:41.195631 35997 net.cpp:127] Top shape: 4 512 45 60 (5529600)
I0328 07:29:41.195642 35997 layer_factory.hpp:74] Creating layer relu4_3_D
I0328 07:29:41.195650 35997 net.cpp:90] Creating Layer relu4_3_D
I0328 07:29:41.195657 35997 net.cpp:410] relu4_3_D <- conv4_3_D
I0328 07:29:41.195664 35997 net.cpp:357] relu4_3_D -> conv4_3_D (in-place)
I0328 07:29:41.195672 35997 net.cpp:120] Setting up relu4_3_D
I0328 07:29:41.195679 35997 net.cpp:127] Top shape: 4 512 45 60 (5529600)
I0328 07:29:41.195685 35997 layer_factory.hpp:74] Creating layer conv4_2_D
I0328 07:29:41.195694 35997 net.cpp:90] Creating Layer conv4_2_D
I0328 07:29:41.195700 35997 net.cpp:410] conv4_2_D <- conv4_3_D
I0328 07:29:41.195711 35997 net.cpp:368] conv4_2_D -> conv4_2_D
I0328 07:29:41.195721 35997 net.cpp:120] Setting up conv4_2_D
I0328 07:29:41.225335 35997 net.cpp:127] Top shape: 4 512 45 60 (5529600)
I0328 07:29:41.225355 35997 layer_factory.hpp:74] Creating layer conv4_2_D_bn
I0328 07:29:41.225366 35997 net.cpp:90] Creating Layer conv4_2_D_bn
I0328 07:29:41.225373 35997 net.cpp:410] conv4_2_D_bn <- conv4_2_D
I0328 07:29:41.225383 35997 net.cpp:357] conv4_2_D_bn -> conv4_2_D (in-place)
I0328 07:29:41.225394 35997 net.cpp:120] Setting up conv4_2_D_bn
I0328 07:29:41.225425 35997 net.cpp:127] Top shape: 4 512 45 60 (5529600)
I0328 07:29:41.225436 35997 layer_factory.hpp:74] Creating layer relu4_2_D
I0328 07:29:41.225446 35997 net.cpp:90] Creating Layer relu4_2_D
I0328 07:29:41.225453 35997 net.cpp:410] relu4_2_D <- conv4_2_D
I0328 07:29:41.225461 35997 net.cpp:357] relu4_2_D -> conv4_2_D (in-place)
I0328 07:29:41.225468 35997 net.cpp:120] Setting up relu4_2_D
I0328 07:29:41.225486 35997 net.cpp:127] Top shape: 4 512 45 60 (5529600)
I0328 07:29:41.225503 35997 layer_factory.hpp:74] Creating layer conv4_1_D
I0328 07:29:41.225512 35997 net.cpp:90] Creating Layer conv4_1_D
I0328 07:29:41.225518 35997 net.cpp:410] conv4_1_D <- conv4_2_D
I0328 07:29:41.225528 35997 net.cpp:368] conv4_1_D -> conv4_1_D
I0328 07:29:41.225538 35997 net.cpp:120] Setting up conv4_1_D
I0328 07:29:41.240650 35997 net.cpp:127] Top shape: 4 256 45 60 (2764800)
I0328 07:29:41.240667 35997 layer_factory.hpp:74] Creating layer conv4_1_D_bn
I0328 07:29:41.240689 35997 net.cpp:90] Creating Layer conv4_1_D_bn
I0328 07:29:41.240696 35997 net.cpp:410] conv4_1_D_bn <- conv4_1_D
I0328 07:29:41.240706 35997 net.cpp:357] conv4_1_D_bn -> conv4_1_D (in-place)
I0328 07:29:41.240715 35997 net.cpp:120] Setting up conv4_1_D_bn
I0328 07:29:41.240739 35997 net.cpp:127] Top shape: 4 256 45 60 (2764800)
I0328 07:29:41.240751 35997 layer_factory.hpp:74] Creating layer relu4_1_D
I0328 07:29:41.240758 35997 net.cpp:90] Creating Layer relu4_1_D
I0328 07:29:41.240764 35997 net.cpp:410] relu4_1_D <- conv4_1_D
I0328 07:29:41.240772 35997 net.cpp:357] relu4_1_D -> conv4_1_D (in-place)
I0328 07:29:41.240779 35997 net.cpp:120] Setting up relu4_1_D
I0328 07:29:41.240788 35997 net.cpp:127] Top shape: 4 256 45 60 (2764800)
I0328 07:29:41.240794 35997 layer_factory.hpp:74] Creating layer upsample3
I0328 07:29:41.240804 35997 net.cpp:90] Creating Layer upsample3
I0328 07:29:41.240810 35997 net.cpp:410] upsample3 <- conv4_1_D
I0328 07:29:41.240818 35997 net.cpp:410] upsample3 <- pool3_mask
I0328 07:29:41.240829 35997 net.cpp:368] upsample3 -> pool3_D
I0328 07:29:41.240840 35997 net.cpp:120] Setting up upsample3
I0328 07:29:41.240847 35997 upsample_layer.cpp:31] Params 'pad_out_{}_' are deprecated. Please declare upsample height and width useing the upsample_h, upsample_w parameters.
I0328 07:29:41.240857 35997 net.cpp:127] Top shape: 4 256 90 120 (11059200)
I0328 07:29:41.240864 35997 layer_factory.hpp:74] Creating layer conv3_3_D
I0328 07:29:41.240872 35997 net.cpp:90] Creating Layer conv3_3_D
I0328 07:29:41.240878 35997 net.cpp:410] conv3_3_D <- pool3_D
I0328 07:29:41.240888 35997 net.cpp:368] conv3_3_D -> conv3_3_D
I0328 07:29:41.240896 35997 net.cpp:120] Setting up conv3_3_D
I0328 07:29:41.248947 35997 net.cpp:127] Top shape: 4 256 90 120 (11059200)
I0328 07:29:41.248965 35997 layer_factory.hpp:74] Creating layer conv3_3_D_bn
I0328 07:29:41.248976 35997 net.cpp:90] Creating Layer conv3_3_D_bn
I0328 07:29:41.248983 35997 net.cpp:410] conv3_3_D_bn <- conv3_3_D
I0328 07:29:41.248996 35997 net.cpp:357] conv3_3_D_bn -> conv3_3_D (in-place)
I0328 07:29:41.249004 35997 net.cpp:120] Setting up conv3_3_D_bn
I0328 07:29:41.249053 35997 net.cpp:127] Top shape: 4 256 90 120 (11059200)
I0328 07:29:41.249065 35997 layer_factory.hpp:74] Creating layer relu3_3_D
I0328 07:29:41.249073 35997 net.cpp:90] Creating Layer relu3_3_D
I0328 07:29:41.249079 35997 net.cpp:410] relu3_3_D <- conv3_3_D
I0328 07:29:41.249088 35997 net.cpp:357] relu3_3_D -> conv3_3_D (in-place)
I0328 07:29:41.249095 35997 net.cpp:120] Setting up relu3_3_D
I0328 07:29:41.249104 35997 net.cpp:127] Top shape: 4 256 90 120 (11059200)
I0328 07:29:41.249109 35997 layer_factory.hpp:74] Creating layer conv3_2_D
I0328 07:29:41.249125 35997 net.cpp:90] Creating Layer conv3_2_D
I0328 07:29:41.249131 35997 net.cpp:410] conv3_2_D <- conv3_3_D
I0328 07:29:41.249140 35997 net.cpp:368] conv3_2_D -> conv3_2_D
I0328 07:29:41.249155 35997 net.cpp:120] Setting up conv3_2_D
I0328 07:29:41.256944 35997 net.cpp:127] Top shape: 4 256 90 120 (11059200)
I0328 07:29:41.256961 35997 layer_factory.hpp:74] Creating layer conv3_2_D_bn
I0328 07:29:41.256973 35997 net.cpp:90] Creating Layer conv3_2_D_bn
I0328 07:29:41.256978 35997 net.cpp:410] conv3_2_D_bn <- conv3_2_D
I0328 07:29:41.256990 35997 net.cpp:357] conv3_2_D_bn -> conv3_2_D (in-place)
I0328 07:29:41.257000 35997 net.cpp:120] Setting up conv3_2_D_bn
I0328 07:29:41.257055 35997 net.cpp:127] Top shape: 4 256 90 120 (11059200)
I0328 07:29:41.257068 35997 layer_factory.hpp:74] Creating layer relu3_2_D
I0328 07:29:41.257083 35997 net.cpp:90] Creating Layer relu3_2_D
I0328 07:29:41.257097 35997 net.cpp:410] relu3_2_D <- conv3_2_D
I0328 07:29:41.257107 35997 net.cpp:357] relu3_2_D -> conv3_2_D (in-place)
I0328 07:29:41.257115 35997 net.cpp:120] Setting up relu3_2_D
I0328 07:29:41.257123 35997 net.cpp:127] Top shape: 4 256 90 120 (11059200)
I0328 07:29:41.257129 35997 layer_factory.hpp:74] Creating layer conv3_1_D
I0328 07:29:41.257143 35997 net.cpp:90] Creating Layer conv3_1_D
I0328 07:29:41.257153 35997 net.cpp:410] conv3_1_D <- conv3_2_D
I0328 07:29:41.257166 35997 net.cpp:368] conv3_1_D -> conv3_1_D
I0328 07:29:41.257176 35997 net.cpp:120] Setting up conv3_1_D
I0328 07:29:41.261091 35997 net.cpp:127] Top shape: 4 128 90 120 (5529600)
I0328 07:29:41.261106 35997 layer_factory.hpp:74] Creating layer conv3_1_D_bn
I0328 07:29:41.261118 35997 net.cpp:90] Creating Layer conv3_1_D_bn
I0328 07:29:41.261124 35997 net.cpp:410] conv3_1_D_bn <- conv3_1_D
I0328 07:29:41.261135 35997 net.cpp:357] conv3_1_D_bn -> conv3_1_D (in-place)
I0328 07:29:41.261144 35997 net.cpp:120] Setting up conv3_1_D_bn
I0328 07:29:41.261201 35997 net.cpp:127] Top shape: 4 128 90 120 (5529600)
I0328 07:29:41.261214 35997 layer_factory.hpp:74] Creating layer relu3_1_D
I0328 07:29:41.261224 35997 net.cpp:90] Creating Layer relu3_1_D
I0328 07:29:41.261231 35997 net.cpp:410] relu3_1_D <- conv3_1_D
I0328 07:29:41.261240 35997 net.cpp:357] relu3_1_D -> conv3_1_D (in-place)
I0328 07:29:41.261246 35997 net.cpp:120] Setting up relu3_1_D
I0328 07:29:41.261255 35997 net.cpp:127] Top shape: 4 128 90 120 (5529600)
I0328 07:29:41.261260 35997 layer_factory.hpp:74] Creating layer upsample2
I0328 07:29:41.261268 35997 net.cpp:90] Creating Layer upsample2
I0328 07:29:41.261274 35997 net.cpp:410] upsample2 <- conv3_1_D
I0328 07:29:41.261281 35997 net.cpp:410] upsample2 <- pool2_mask
I0328 07:29:41.261292 35997 net.cpp:368] upsample2 -> pool2_D
I0328 07:29:41.261301 35997 net.cpp:120] Setting up upsample2
I0328 07:29:41.261307 35997 upsample_layer.cpp:31] Params 'pad_out_{}_' are deprecated. Please declare upsample height and width useing the upsample_h, upsample_w parameters.
I0328 07:29:41.261317 35997 net.cpp:127] Top shape: 4 128 180 240 (22118400)
I0328 07:29:41.261322 35997 layer_factory.hpp:74] Creating layer conv2_2_D
I0328 07:29:41.261332 35997 net.cpp:90] Creating Layer conv2_2_D
I0328 07:29:41.261337 35997 net.cpp:410] conv2_2_D <- pool2_D
I0328 07:29:41.261348 35997 net.cpp:368] conv2_2_D -> conv2_2_D
I0328 07:29:41.261358 35997 net.cpp:120] Setting up conv2_2_D
I0328 07:29:41.263386 35997 net.cpp:127] Top shape: 4 128 180 240 (22118400)
I0328 07:29:41.263401 35997 layer_factory.hpp:74] Creating layer conv2_2_D_bn
I0328 07:29:41.263412 35997 net.cpp:90] Creating Layer conv2_2_D_bn
I0328 07:29:41.263419 35997 net.cpp:410] conv2_2_D_bn <- conv2_2_D
I0328 07:29:41.263428 35997 net.cpp:357] conv2_2_D_bn -> conv2_2_D (in-place)
I0328 07:29:41.263437 35997 net.cpp:120] Setting up conv2_2_D_bn
I0328 07:29:41.263581 35997 net.cpp:127] Top shape: 4 128 180 240 (22118400)
I0328 07:29:41.263595 35997 layer_factory.hpp:74] Creating layer relu2_2_D
I0328 07:29:41.263603 35997 net.cpp:90] Creating Layer relu2_2_D
I0328 07:29:41.263609 35997 net.cpp:410] relu2_2_D <- conv2_2_D
I0328 07:29:41.263624 35997 net.cpp:357] relu2_2_D -> conv2_2_D (in-place)
I0328 07:29:41.263633 35997 net.cpp:120] Setting up relu2_2_D
I0328 07:29:41.263641 35997 net.cpp:127] Top shape: 4 128 180 240 (22118400)
I0328 07:29:41.263648 35997 layer_factory.hpp:74] Creating layer conv2_1_D
I0328 07:29:41.263656 35997 net.cpp:90] Creating Layer conv2_1_D
I0328 07:29:41.263665 35997 net.cpp:410] conv2_1_D <- conv2_2_D
I0328 07:29:41.263674 35997 net.cpp:368] conv2_1_D -> conv2_1_D
I0328 07:29:41.263684 35997 net.cpp:120] Setting up conv2_1_D
I0328 07:29:41.264752 35997 net.cpp:127] Top shape: 4 64 180 240 (11059200)
I0328 07:29:41.264766 35997 layer_factory.hpp:74] Creating layer conv2_1_D_bn
I0328 07:29:41.264780 35997 net.cpp:90] Creating Layer conv2_1_D_bn
I0328 07:29:41.264786 35997 net.cpp:410] conv2_1_D_bn <- conv2_1_D
I0328 07:29:41.264801 35997 net.cpp:357] conv2_1_D_bn -> conv2_1_D (in-place)
I0328 07:29:41.264816 35997 net.cpp:120] Setting up conv2_1_D_bn
I0328 07:29:41.264962 35997 net.cpp:127] Top shape: 4 64 180 240 (11059200)
I0328 07:29:41.264977 35997 layer_factory.hpp:74] Creating layer relu2_1_D
I0328 07:29:41.264986 35997 net.cpp:90] Creating Layer relu2_1_D
I0328 07:29:41.264991 35997 net.cpp:410] relu2_1_D <- conv2_1_D
I0328 07:29:41.265002 35997 net.cpp:357] relu2_1_D -> conv2_1_D (in-place)
I0328 07:29:41.265010 35997 net.cpp:120] Setting up relu2_1_D
I0328 07:29:41.265018 35997 net.cpp:127] Top shape: 4 64 180 240 (11059200)
I0328 07:29:41.265024 35997 layer_factory.hpp:74] Creating layer upsample1
I0328 07:29:41.265033 35997 net.cpp:90] Creating Layer upsample1
I0328 07:29:41.265038 35997 net.cpp:410] upsample1 <- conv2_1_D
I0328 07:29:41.265045 35997 net.cpp:410] upsample1 <- pool1_mask
I0328 07:29:41.265055 35997 net.cpp:368] upsample1 -> pool1_D
I0328 07:29:41.265064 35997 net.cpp:120] Setting up upsample1
I0328 07:29:41.265070 35997 upsample_layer.cpp:31] Params 'pad_out_{}_' are deprecated. Please declare upsample height and width useing the upsample_h, upsample_w parameters.
I0328 07:29:41.265079 35997 net.cpp:127] Top shape: 4 64 360 480 (44236800)
I0328 07:29:41.265085 35997 layer_factory.hpp:74] Creating layer conv1_2_D
I0328 07:29:41.265099 35997 net.cpp:90] Creating Layer conv1_2_D
I0328 07:29:41.265105 35997 net.cpp:410] conv1_2_D <- pool1_D
I0328 07:29:41.265115 35997 net.cpp:368] conv1_2_D -> conv1_2_D
I0328 07:29:41.265125 35997 net.cpp:120] Setting up conv1_2_D
I0328 07:29:41.265892 35997 net.cpp:127] Top shape: 4 64 360 480 (44236800)
I0328 07:29:41.265908 35997 layer_factory.hpp:74] Creating layer conv1_2_D_bn
I0328 07:29:41.265918 35997 net.cpp:90] Creating Layer conv1_2_D_bn
I0328 07:29:41.265924 35997 net.cpp:410] conv1_2_D_bn <- conv1_2_D
I0328 07:29:41.265934 35997 net.cpp:357] conv1_2_D_bn -> conv1_2_D (in-place)
I0328 07:29:41.265944 35997 net.cpp:120] Setting up conv1_2_D_bn
I0328 07:29:41.266407 35997 net.cpp:127] Top shape: 4 64 360 480 (44236800)
I0328 07:29:41.266419 35997 layer_factory.hpp:74] Creating layer relu1_2_D
I0328 07:29:41.266427 35997 net.cpp:90] Creating Layer relu1_2_D
I0328 07:29:41.266433 35997 net.cpp:410] relu1_2_D <- conv1_2_D
I0328 07:29:41.266441 35997 net.cpp:357] relu1_2_D -> conv1_2_D (in-place)
I0328 07:29:41.266449 35997 net.cpp:120] Setting up relu1_2_D
I0328 07:29:41.266456 35997 net.cpp:127] Top shape: 4 64 360 480 (44236800)
I0328 07:29:41.266463 35997 layer_factory.hpp:74] Creating layer conv1_1_D
I0328 07:29:41.266474 35997 net.cpp:90] Creating Layer conv1_1_D
I0328 07:29:41.266481 35997 net.cpp:410] conv1_1_D <- conv1_2_D
I0328 07:29:41.266494 35997 net.cpp:368] conv1_1_D -> conv1_1_D
I0328 07:29:41.266502 35997 net.cpp:120] Setting up conv1_1_D
I0328 07:29:41.266798 35997 net.cpp:127] Top shape: 4 4 360 480 (2764800)
I0328 07:29:41.266811 35997 layer_factory.hpp:74] Creating layer conv1_1_D_conv1_1_D_0_split
I0328 07:29:41.266824 35997 net.cpp:90] Creating Layer conv1_1_D_conv1_1_D_0_split
I0328 07:29:41.266830 35997 net.cpp:410] conv1_1_D_conv1_1_D_0_split <- conv1_1_D
I0328 07:29:41.266839 35997 net.cpp:368] conv1_1_D_conv1_1_D_0_split -> conv1_1_D_conv1_1_D_0_split_0
I0328 07:29:41.266850 35997 net.cpp:368] conv1_1_D_conv1_1_D_0_split -> conv1_1_D_conv1_1_D_0_split_1
I0328 07:29:41.266860 35997 net.cpp:120] Setting up conv1_1_D_conv1_1_D_0_split
I0328 07:29:41.266872 35997 net.cpp:127] Top shape: 4 4 360 480 (2764800)
I0328 07:29:41.266880 35997 net.cpp:127] Top shape: 4 4 360 480 (2764800)
I0328 07:29:41.266885 35997 layer_factory.hpp:74] Creating layer loss
I0328 07:29:41.266896 35997 net.cpp:90] Creating Layer loss
I0328 07:29:41.266902 35997 net.cpp:410] loss <- conv1_1_D_conv1_1_D_0_split_0
I0328 07:29:41.266911 35997 net.cpp:410] loss <- label_data_1_split_0
I0328 07:29:41.266921 35997 net.cpp:368] loss -> loss
I0328 07:29:41.266938 35997 net.cpp:120] Setting up loss
I0328 07:29:41.266950 35997 layer_factory.hpp:74] Creating layer loss
I0328 07:29:41.269304 35997 net.cpp:127] Top shape: (1)
I0328 07:29:41.269327 35997 net.cpp:129]     with loss weight 1
I0328 07:29:41.269361 35997 layer_factory.hpp:74] Creating layer accuracy
I0328 07:29:41.269372 35997 net.cpp:90] Creating Layer accuracy
I0328 07:29:41.269381 35997 net.cpp:410] accuracy <- conv1_1_D_conv1_1_D_0_split_1
I0328 07:29:41.269390 35997 net.cpp:410] accuracy <- label_data_1_split_1
I0328 07:29:41.269402 35997 net.cpp:368] accuracy -> accuracy
I0328 07:29:41.269412 35997 net.cpp:368] accuracy -> per_class_accuracy
I0328 07:29:41.269423 35997 net.cpp:120] Setting up accuracy
I0328 07:29:41.269429 35997 accuracy_layer.cpp:24] Per-class accuracies currently only work on TRAIN phase only.
I0328 07:29:41.269439 35997 net.cpp:127] Top shape: (1)
I0328 07:29:41.269446 35997 net.cpp:127] Top shape: 4 1 1 1 (4)
I0328 07:29:41.269453 35997 net.cpp:194] accuracy does not need backward computation.
I0328 07:29:41.269461 35997 net.cpp:192] loss needs backward computation.
I0328 07:29:41.269469 35997 net.cpp:192] conv1_1_D_conv1_1_D_0_split needs backward computation.
I0328 07:29:41.269474 35997 net.cpp:192] conv1_1_D needs backward computation.
I0328 07:29:41.269480 35997 net.cpp:192] relu1_2_D needs backward computation.
…
